init_cora_amazon/init_params/SAGE_256_32/init_cls_model.pt (torch, 2435 bytes, 2 tensors)

0.weight f4 [10, 32]
0	0xbd9c4a5a	-0.07631369
1	0x3c4e92e6	0.0126082655
2	0xbeb7de6e	-0.35911888
3	0x3eaa538f	0.33266875
4	0x3eac8fba	0.33703405
5	0x3e65b0ed	0.22430773
6	0xbd8391fc	-0.06424329
7	0x3e77e6d5	0.24209149
8	0xbe51bd5f	-0.20482396
9	0x3e9e8663	0.30961904
10	0xbe93b7a1	-0.28851035
11	0xbea46771	-0.3211017
12	0xbd8c89f1	-0.06862248
13	0x3eb20fff	0.3477783
14	0xbe610570	-0.2197473
15	0xbe6ce71f	-0.2313504
16	0x3e974f36	0.2955262
17	0xbd3de667	-0.046362307
18	0xbddd6a8d	-0.108113386
19	0x3d0c79b6	0.03429576
20	0x3e7f61a0	0.24939585
21	0xbe60877d	-0.21926685
22	0x3e4fc757	0.20290886
23	0xbd5bdb60	-0.05367601
24	0xbe5f2f79	-0.21795453
25	0x3df88fda	0.121368125
26	0xbe81845a	-0.2529629
27	0xbd683e30	-0.05669993
28	0x3ebeae5a	0.37242395
29	0x3e180bed	0.148483
30	0xbe43b25d	-0.19111009
31	0x3e1cfd24	0.1533094
32	0x3e410f06	0.18853387
33	0x3ea689e2	0.3252707
34	0xbeae6279	-0.34059504
35	0xbea47ccd	-0.32126465
36	0x3e2c0b5c	0.16801208
37	0x3ead5188	0.33851266
38	0xbdd18762	-0.102309
39	0xbe57962d	-0.21053381
40	0x3e577c6c	0.21043557
41	0x3dd75018	0.105133235
42	0xbe624a6a	-0.22098699
43	0x3e1e4bf2	0.15458658
44	0x3eb25ee6	0.34838027
45	0xbeaa826e	-0.33302635
46	0xbdfe4302	-0.124151245
47	0xbea9adff	-0.3314056
48	0x3e1d2a7f	0.15348242
49	0x3d46bf37	0.0485222
50	0xbebd9676	-0.37028855
51	0x3e897200	0.26844788
52	0x3c67552c	0.014119428
53	0x3aa67cc9	0.0012701984
54	0xbe953da0	-0.2914858
55	0xbe2e1b94	-0.17002708
56	0x3cd1c98a	0.025608797
57	0x3e8aa5f8	0.2707975
58	0x3e86178f	0.2618985
59	0xbe743111	-0.23846842
60	0x3dd29218	0.102817714
61	0x3e0b4670	0.13601089
62	0xbd3755d5	-0.04475959
63	0x3a4d4222	0.0007829984
64	0x3e6fb6e7	0.23409615
65	0x3d94f873	0.072739504
66	0x3d1f3547	0.03886917
67	0xbd80a032	-0.06280555
68	0xbe1ddbca	-0.15415874
69	0x3e0d78b2	0.13815573
70	0xbca84f31	-0.020545574
71	0xbd6e6243	-0.05819918
72	0x3e1cabad	0.15299864
73	0x3e1f2099	0.15539779
74	0x3d920e95	0.071316876
75	0xbe7d0aad	-0.24711104
76	0x3dc121f5	0.09430305
77	0x3db7c8f8	0.089738786
78	0x3e2903a0	0.16505289
79	0x3e924387	0.28567144
80	0x3eacb261	0.33729842
81	0xbc3658c9	-0.0111295665
82	0xbebf4675	-0.37358442
83	0x3ea5ffc1	0.32421687
84	0x3e32fd88	0.17479527
85	0xbe1620ff	-0.14661025
86	0x3eb69b24	0.35665238
87	0x3e3f84b6	0.18702969
88	0xbe3b2d96	-0.18279108
89	0xbdcbedc3	-0.09957459
90	0x3dbfcbd4	0.09365049
91	0xbe9bf49f	-0.3046007
92	0x3e758fb0	0.23980594
93	0x3df7ed78	0.121058404
94	0xbde170f4	-0.11007872
95	0x3d54c917	0.051949587
96	0x3e98cdaa	0.2984441
97	0xbe478248	-0.19483292
98	0x3dd769fc	0.10518262
99	0x3e5f2780	0.21792412
100	0x3dfb00d7	0.122560196
101	0x3e93be24	0.28856003
102	0x3e403efa	0.18774024
103	0xbdb77782	-0.08958341
104	0xbeb57015	-0.35437074
105	0x3d3467b7	0.044044223
106	0x3e3f8e9f	0.1870675
107	0x3e187bf8	0.1489104
108	0x3e69d388	0.22834599
109	0x3d8c58ed	0.06852899
110	0xbea0f9e7	-0.3144066
111	0x3e552db0	0.2081821
112	0xbe828720	-0.25493717
113	0xbdaf149c	-0.08548853
114	0xbd6a20bb	-0.05716012
115	0xbdba2234	-0.09088555
116	0xbd010a61	-0.03150404
117	0xbde851e7	-0.11343747
118	0xbea67c65	-0.3251678
119	0x3d605b1a	0.05477438
120	0xbea07f66	-0.31347197
121	0x3dd6cabe	0.10487889
122	0xbe97575c	-0.29558837
123	0x3dde45de	0.1085317
124	0x3e00075b	0.12502806
125	0x3e8254c1	0.25455287
126	0xbd88d766	-0.06681709
127	0x3eacdeb7	0.33763668
128	0x3b9f4c19	0.0048613665
129	0x3e83882a	0.25689822
130	0xbd3caa3d	-0.04606079
131	0xbea0e81a	-0.3142708
132	0xbdd9e454	-0.10639253
133	0xbda3a641	-0.07990695
134	0xbe996c40	-0.299654
135	0x3d89c254	0.06726518
136	0x3e855e11	0.2604833
137	0x3bc6159a	0.0060450556
138	0x3e29ac66	0.16569671
139	0x3e93f9fb	0.28901657
140	0x3ea21958	0.3165996
141	0xbe43634f	-0.19080852
142	0x3e923b53	0.28560886
143	0x3d9556d9	0.072919555
144	0xbe378ac5	-0.1792403
145	0x3e3ece9e	0.18633506
146	0x3ec102a7	0.37697336
147	0xbeac5ee7	-0.33666155
148	0x3ea04908	0.31305718
149	0x3eb75caf	0.358129
150	0x3d67c660	0.05658567
151	0x3eaeb7e7	0.3412468
152	0xbebd99c2	-0.3703137
153	0xbe898b0f	-0.26863906
154	0xbdb05a88	-0.086110175
155	0xbe948519	-0.29007795
156	0x3d35bb08	0.04436782
157	0xbe4f3c49	-0.2023784
158	0x3e2554e0	0.16145658
159	0x3d9a16e0	0.07523894
160	0x3e9abe32	0.30223233
161	0xbe8573cf	-0.26064917
162	0x3da9f035	0.08297769
163	0xbd01bc1e	-0.031673543
164	0x3e436ea3	0.19085173
165	0x3e97b2f2	0.29628712
166	0xbe270a4e	-0.16312525
167	0x3d38b5c4	0.04509522
168	0x3dd148dd	0.10218976
169	0xbe0704c6	-0.13185415
170	0x3eaf8e7b	0.3428839
171	0x3ea70a90	0.32625246
172	0xbeb79ac9	-0.3586028
173	0xbd984ee9	-0.07436926
174	0xbd4b6579	-0.04965732
175	0xbe71a598	-0.23598325
176	0xbc9450f1	-0.018105002
177	0x3e8260f8	0.25464606
178	0x3e8b59db	0.27216992
179	0x3eaf065a	0.34184533
180	0xbdba419c	-0.09094545
181	0xbea00d15	-0.3125998
182	0x3cccd272	0.025002692
183	0x3eaee9d4	0.34162772
184	0xbe82b7db	-0.25530896
185	0xbdbb9b70	-0.09160507
186	0xbe2d0068	-0.16894686
187	0x3dc498ce	0.09599458
188	0x3e1a355c	0.15059417
189	0x3ea26611	0.31718495
190	0x3dff5998	0.124682605
191	0x3e9ba693	0.30400524
192	0x3ea45661	0.32097152
193	0xbd7798b0	-0.06044835
194	0x3e0d5fc6	0.13806066
195	0x3e953bc2	0.29147154
196	0x3e981a91	0.2970777
197	0xbd8aad69	-0.067713566
198	0xbe418ee9	-0.18902172
199	0xbd8b1f82	-0.06793119
200	0x3e845079	0.25842646
201	0xbe50918d	-0.20368023
202	0xbe50c6fd	-0.20388408
203	0x3e9ae900	0.3025589
204	0xbea9d805	-0.33172622
205	0xbea2cb57	-0.3179576
206	0x3e259c55	0.16172917
207	0x3d1242ac	0.035708115
208	0x3e6caedf	0.23113583
209	0xbe733837	-0.23751913
210	0xbd9d698e	-0.076861486
211	0x3e99a529	0.3000882
212	0xbe879da7	-0.26487467
213	0xbea63871	-0.32464936
214	0x3d859f40	0.06524515
215	0xbd81dcb7	-0.06340926
216	0xbeaa5d0b	-0.3327411
217	0x3dce3a3e	0.100697026
218	0x3ea3ae95	0.31969133
219	0x3e86be24	0.2631694
220	0x3d580ac9	0.05274466
221	0x3e96cf89	0.29455212
222	0xbeb981da	-0.3623188
223	0x3ca93ca6	0.020658802
224	0xbd9cf57f	-0.07664012
225	0x3ea31a03	0.31855783
226	0xbea5b1df	-0.32362267
227	0x3ea0a08e	0.31372494
228	0xbc785435	-0.015156795
229	0xbe633147	-0.22186767
230	0xbd3783f8	-0.04480359
231	0xbe668444	-0.22511393
232	0x3e93e8f7	0.28888676
233	0xbe9de56d	-0.308391
234	0x3e5a7f90	0.21337724
235	0x3e435167	0.19074021
236	0xbde2a40a	-0.11066444
237	0x3db4bc18	0.088249385
238	0x3d2d5e62	0.04232634
239	0xbd6d1056	-0.057876907
240	0xbeb05c96	-0.34445637
241	0x3d92bba5	0.071646966
242	0x3e569c38	0.2095803
243	0x3ebe81aa	0.372083
244	0x3eb4a332	0.35280758
245	0xbeb37977	-0.35053608
246	0x3eac71fa	0.33680707
247	0xbe8fbac5	-0.2807218
248	0xbd9583d3	-0.07300534
249	0x3e6fba11	0.23410822
250	0xbd9ee701	-0.07758904
251	0xbe9429a0	-0.28938007
252	0xbe245afa	-0.1605033
253	0xbd90b5c9	-0.07065923
254	0xbec03d1f	-0.37546632
255	0x3e19be87	0.15014087

0.bias f4 [10]
0	0x00000000	0.0
1	0x00000000	0.0
2	0x00000000	0.0
3	0x00000000	0.0
4	0x00000000	0.0
5	0x00000000	0.0
6	0x00000000	0.0
7	0x00000000	0.0
8	0x00000000	0.0
9	0x00000000	0.0
