init_arxiv/init_params/ogb-arxiv_GCN_128_16/init_encoder.pt (torch, 76221 bytes, 4 tensors)

convs.0.bias f4 [128]
000000 00 00 00 00 00 00 00 00 00 00 00 00 00 00 00 00
       0.0 0.0 0.0 0.0
000010 00 00 00 00 00 00 00 00 00 00 00 00 00 00 00 00
       0.0 0.0 0.0 0.0
000020 00 00 00 00 00 00 00 00 00 00 00 00 00 00 00 00
       0.0 0.0 0.0 0.0
000030 00 00 00 00 00 00 00 00 00 00 00 00 00 00 00 00
       0.0 0.0 0.0 0.0
000040 00 00 00 00 00 00 00 00 00 00 00 00 00 00 00 00
       0.0 0.0 0.0 0.0
000050 00 00 00 00 00 00 00 00 00 00 00 00 00 00 00 00
       0.0 0.0 0.0 0.0
000060 00 00 00 00 00 00 00 00 00 00 00 00 00 00 00 00
       0.0 0.0 0.0 0.0
000070 00 00 00 00 00 00 00 00 00 00 00 00 00 00 00 00
       0.0 0.0 0.0 0.0
000080 00 00 00 00 00 00 00 00 00 00 00 00 00 00 00 00
       0.0 0.0 0.0 0.0
000090 00 00 00 00 00 00 00 00 00 00 00 00 00 00 00 00
       0.0 0.0 0.0 0.0
0000a0 00 00 00 00 00 00 00 00 00 00 00 00 00 00 00 00
       0.0 0.0 0.0 0.0
0000b0 00 00 00 00 00 00 00 00 00 00 00 00 00 00 00 00
       0.0 0.0 0.0 0.0
0000c0 00 00 00 00 00 00 00 00 00 00 00 00 00 00 00 00
       0.0 0.0 0.0 0.0
0000d0 00 00 00 00 00 00 00 00 00 00 00 00 00 00 00 00
       0.0 0.0 0.0 0.0
0000e0 00 00 00 00 00 00 00 00 00 00 00 00 00 00 00 00
       0.0 0.0 0.0 0.0
0000f0 00 00 00 00 00 00 00 00 00 00 00 00 00 00 00 00
       0.0 0.0 0.0 0.0
000100 00 00 00 00 00 00 00 00 00 00 00 00 00 00 00 00
       0.0 0.0 0.0 0.0
000110 00 00 00 00 00 00 00 00 00 00 00 00 00 00 00 00
       0.0 0.0 0.0 0.0
000120 00 00 00 00 00 00 00 00 00 00 00 00 00 00 00 00
       0.0 0.0 0.0 0.0
000130 00 00 00 00 00 00 00 00 00 00 00 00 00 00 00 00
       0.0 0.0 0.0 0.0
000140 00 00 00 00 00 00 00 00 00 00 00 00 00 00 00 00
       0.0 0.0 0.0 0.0
000150 00 00 00 00 00 00 00 00 00 00 00 00 00 00 00 00
       0.0 0.0 0.0 0.0
000160 00 00 00 00 00 00 00 00 00 00 00 00 00 00 00 00
       0.0 0.0 0.0 0.0
000170 00 00 00 00 00 00 00 00 00 00 00 00 00 00 00 00
       0.0 0.0 0.0 0.0
000180 00 00 00 00 00 00 00 00 00 00 00 00 00 00 00 00
       0.0 0.0 0.0 0.0
000190 00 00 00 00 00 00 00 00 00 00 00 00 00 00 00 00
       0.0 0.0 0.0 0.0
0001a0 00 00 00 00 00 00 00 00 00 00 00 00 00 00 00 00
       0.0 0.0 0.0 0.0
0001b0 00 00 00 00 00 00 00 00 00 00 00 00 00 00 00 00
       0.0 0.0 0.0 0.0
0001c0 00 00 00 00 00 00 00 00 00 00 00 00 00 00 00 00
       0.0 0.0 0.0 0.0
0001d0 00 00 00 00 00 00 00 00 00 00 00 00 00 00 00 00
       0.0 0.0 0.0 0.0
0001e0 00 00 00 00 00 00 00 00 00 00 00 00 00 00 00 00
       0.0 0.0 0.0 0.0
0001f0 00 00 00 00 00 00 00 00 00 00 00 00 00 00 00 00
       0.0 0.0 0.0 0.0

convs.0.lin.weight f4 [128, 128]
000000 d8 89 5f bd 25 f1 7e 3d 80 4c 45 3d 4f ad 0d bd
       -0.054574817 0.062241692 0.04816866 -0.034589108
000010 43 8b 1c 3e 8d bc 38 3d cf e2 e3 bd 27 16 e2 3c
       0.15287499 0.04510169 -0.11127245 0.027598454
000020 f4 75 32 bd f2 f6 14 be e9 2c e8 3d c5 ac fe 3c
       -0.04356952 -0.14547327 0.11336691 0.031088242
000030 60 33 f9 bd 42 9d 99 3d 27 52 92 bd c8 18 f5 3d
       -0.12168002 0.07500698 -0.071445756 0.11967617
000040 fa 74 80 bc e4 5a 95 bc e8 10 ee bd b1 9f 9d bd
       -0.015680779 -0.018231817 -0.11624318 -0.07696474
000050 a8 80 e1 3d 34 47 9c 3d c0 ba 8a bd 19 89 7e 3c
       0.11010867 0.076307684 -0.06773901 0.015535616
000060 0b 7d 05 bd b7 98 fb bd ae c5 59 3d 57 8d 86 bd
       -0.032589953 -0.122849874 0.053167038 -0.06569927
000070 86 ee cc 3d 9f 29 59 bc fd 72 3c 3d fa e6 ea bc
       0.10006432 -0.013254552 0.0460081 -0.028674591
000080 7a 12 5a 3c 0b 05 f6 3d df 88 08 be c3 2d 18 3e
       0.013310069 0.120126806 -0.13333462 0.14861207
000090 a0 c9 33 3d e5 21 e6 bd dd 84 0e be be 38 1c 3c
       0.043893456 -0.112369336 -0.13917871 0.009535013
0000a0 c3 f2 9b bd c6 50 19 3e 58 af 9a bd 82 20 07 3e
       -0.076146625 0.14972219 -0.075529754 0.13195994
0000b0 0d ad bf 3d c2 32 d4 bd e8 37 3f bd 51 72 d0 3d
       0.09359179 -0.10361244 -0.046684176 0.10178054
0000c0 0a 1a b1 bd 87 21 c5 bd c5 1f b1 bd 83 4e cd bc
       -0.08647545 -0.096255355 -0.08648638 -0.025061851
0000d0 d0 d5 a4 3d d7 0c 74 bc 3c 63 02 3d 4b 3e 48 3d
       0.08048594 -0.014895639 0.03183292 0.048887532
0000e0 65 22 37 bc 2f 69 ad 3d 3f f2 e7 3d 3a a7 aa bd
       -0.011177634 0.08467328 0.11325502 -0.08332677
0000f0 ed 3f 94 3d 2d fd ee bc 54 43 d4 bb b2 a6 ff bd
       0.072387554 -0.029173458 -0.0064777527 -0.124829665
000100 8b 8b 05 3e 0a 57 bd 3d ca 03 94 3d 7e 81 a1 bd
       0.13041513 0.09245117 0.07227285 -0.07886027
000110 e0 31 b9 3c 51 72 e0 3d e6 0f ec 3c 67 64 1a be
       0.02260679 0.10959304 0.028816175 -0.15077363
000120 c1 26 c8 3d e3 c3 01 3e 7e 83 07 3d 55 6c c2 3d
       0.09773017 0.12672381 0.033084385 0.09493319
000130 48 97 d6 3d f3 bb f0 bd 29 40 08 bd e1 f4 cf 3d
       0.10478073 -0.117545985 -0.033264313 0.10154129
000140 79 d8 0e bd 8b e5 18 be cb e2 1a be f1 d7 b5 3d
       -0.034874413 -0.14931314 -0.15125577 0.08879078
000150 8f 91 54 3c 1d 84 9e 3d 18 2b 06 be 37 85 b7 38
       0.012974157 0.07740042 -0.13102376 8.750933e-05
000160 cf cb fb bd 5a 47 94 3d 56 8d c6 bd f0 f3 ae bd
       -0.12294733 0.07240172 -0.096949264 -0.08542621
000170 08 b8 cb bd 7f 70 c6 bd 4c ff 84 bc 5d 47 1c 3d
       -0.099472106 -0.09689426 -0.016235016 0.038153995
000180 1f c4 d9 3d df 4c 1a 3e 48 fe 30 bd 34 de 0b 3d
       0.1063311 0.15068386 -0.04321125 0.034147456
000190 84 6d 85 bd d8 cb 15 be 1e 24 20 bd d8 34 f2 3d
       -0.06515029 -0.14628541 -0.039096944 0.118264854
0001a0 28 09 5e 3d bc 69 89 ba 15 ee 01 be b8 ef 9c bd
       0.05420795 -0.0010483782 -0.12688477 -0.0766291
0001b0 d8 ce 25 3d 0f 7f 13 3e 51 c0 fd bb eb 4b b6 bd
       0.040480465 0.14403938 -0.007743873 -0.08901199
0001c0 94 97 8d 3d d2 28 81 3c c0 30 91 3d e8 03 96 bc
       0.06913677 0.015766535 0.070893764 -0.01831241
0001d0 f0 74 b5 3d 01 d0 a4 3d e6 34 d2 bd f3 9d 0a 3d
       0.08860195 0.08047486 -0.10263996 0.03384204
0001e0 6d 04 e9 3c fe e5 05 3e 32 81 01 be fc 07 e5 3d
       0.028444493 0.13076016 -0.1264694 0.111831635
0001f0 18 59 30 3c 09 19 b5 3c e3 7d 39 3d ab ac 02 be
       0.010763429 0.022106664 0.04528607 -0.1276118
000200 f6 83 cd bd 84 20 15 be e3 bf e8 3d 28 7d 02 3e
       -0.10034935 -0.14563185 0.113647245 0.12743056
000210 d7 f4 9f bd ab 7c 7d 3d 17 9d d0 3d b0 ed 17 be
       -0.07810371 0.06188647 0.101862125 -0.14836764
000220 4a fe 2d 3c a1 e3 0a 3d f6 86 f2 bd 92 a6 69 bd
       0.010619709 0.03390849 -0.11842148 -0.05704362
000230 20 d3 90 3d f3 ce b6 3d 56 3f b4 bb 13 d5 d9 3d
       0.07071519 0.08926191 -0.0055007143 0.10636344
000240 8d b0 a4 3d fe 4a 6c bd 10 fb ab bd 13 12 d6 3d
       0.08041487 -0.057688706 -0.08397496 0.10452666
000250 62 72 9c 3a b5 93 b0 3d c4 36 ee 3c bb bc 09 bd
       0.0011935944 0.08621923 0.029078849 -0.033627253
000260 5b 70 83 3d b8 45 cc bd 40 a9 b9 3c e3 70 70 3d
       0.064179145 -0.09974235 0.022663713 0.058701407
000270 b5 0b bc bd bd f7 fe 3d eb c9 20 bc 3b 68 e3 bd
       -0.091819204 0.12449596 -0.009813766 -0.11103865
000280 37 d3 37 3d 3a b5 b5 bd 24 35 c0 bd e2 6c 06 3a
       0.044879165 -0.08872457 -0.09385136 0.0005127919
000290 af a5 90 3d de a3 16 3e 4c f7 00 3c ff 26 03 3e
       0.07062852 0.14710948 0.00787146 0.12807845
0002a0 74 f9 0a 3e 82 9c 28 bd ae 4e 15 bc f0 c0 17 be
       0.13571721 -0.041164882 -0.009112997 -0.14819694
0002b0 d6 c1 42 bd 0a ed c7 3d e6 ab 49 bc 04 e0 9a bc
       -0.047548138 0.097620085 -0.01230905 -0.018905647
0002c0 28 15 41 bd dd b3 a1 3d e8 e2 fb 3d 9b 5f c2 bd
       -0.047139317 0.07895634 0.12299138 -0.094908915
0002d0 ee 5a 97 3d 48 99 a5 bd e0 67 c4 3d b4 66 08 ba
       0.0739039 -0.08085877 0.09590125 -0.0005203292
0002e0 96 e2 8c bd 00 54 c4 3d 3a 38 06 be 23 f1 9d 3d
       -0.06879155 0.09586334 -0.13107386 0.07712009
0002f0 be 3b f2 bb 2e a8 bd bd 8d 46 e4 bd 6e e5 b0 bd
       -0.0073923757 -0.09260593 -0.11146269 -0.0863751
000300 9c 00 6e 39 cc 1a 86 3d 83 24 a5 bb 6e 3c 23 bd
       0.00022697676 0.0654808 -0.005039753 -0.039852552
000310 71 b9 3b bd ec 01 0b 3d 40 22 d4 3d e7 05 8f 3b
       -0.045831148 0.03393738 0.10358095 0.0043647173
000320 85 32 ab bd 24 60 bc bc a0 f3 ee bd 9a 91 79 3d
       -0.08359245 -0.022995062 -0.116675615 0.060929872
000330 eb a4 90 bd 7a 30 65 3d c8 87 20 bc 22 5f fe 3d
       -0.070627056 0.055954434 -0.009797998 0.12420489
000340 d8 c5 8f bd 62 8a d2 bd 48 1c 21 3c 3c a0 4e 3d
       -0.070201576 -0.10280301 0.009833403 0.05044578
000350 06 ad f6 bd 67 72 b6 bd 85 5e e8 3d 4f b3 04 3e
       -0.1204472 -0.08908539 0.11346153 0.12959026
000360 39 0b c1 3d d8 e7 e5 3d bc fc a5 3d 7a 2e 02 3e
       0.09425969 0.11225861 0.08104846 0.12713042
000370 00 aa 2c 3d 2b c8 d6 bd b9 ce a9 bd 7e 83 89 3d
       0.042154312 -0.10487398 -0.08291382 0.06714533
000380 d6 6e 9d bb a5 d3 0d 3e 6e 84 1a 3e 6f af ee 3d
       -0.0048044724 0.13850267 0.1508958 0.11654555
000390 e6 08 c4 bd 58 73 3d bd c5 1c 04 3e c5 47 bd 3c
       -0.0957201 -0.04625258 0.129016 0.023105511
0003a0 f9 9e 06 3e c0 18 ba 3d 53 6e 15 be 0e fe 3c 3d
       0.13146581 0.09086752 -0.14592867 0.046140723
0003b0 97 a9 01 3d 66 4d 2a bc a9 95 fa 3d 4f fc df bd
       0.031655874 -0.01039443 0.12235577 -0.10936796
0003c0 cf b3 12 3e bc ab f7 3d 8b 1f 26 3d 7b 69 05 3e
       0.14326404 0.120933026 0.040557425 0.13028519
0003d0 c4 5d ea 3c 17 8f 88 bd 0f 65 d2 bd 02 89 12 3e
       0.028609164 -0.06667917 -0.10273182 0.14310077
0003e0 37 ff dc bc ef f4 05 3d d7 0b 04 bd e3 6f b9 3d
       -0.026977165 0.03270429 -0.032237854 0.09054544
0003f0 7e 40 16 3c 04 8d a3 bc 1b 8d 9a bd 6b f2 0d 3e
       0.00917065 -0.019964702 -0.07546445 0.13862006

convs.1.bias f4 [16]
000000 00 00 00 00 00 00 00 00 00 00 00 00 00 00 00 00
       0.0 0.0 0.0 0.0
000010 00 00 00 00 00 00 00 00 00 00 00 00 00 00 00 00
       0.0 0.0 0.0 0.0
000020 00 00 00 00 00 00 00 00 00 00 00 00 00 00 00 00
       0.0 0.0 0.0 0.0
000030 00 00 00 00 00 00 00 00 00 00 00 00 00 00 00 00
       0.0 0.0 0.0 0.0

convs.1.lin.weight f4 [16, 128]
000000 28 71 11 3e e1 22 f7 bd 00 ff 09 3d 11 6c 1f be
       0.14203322 -0.120671995 0.033690453 -0.15568568
000010 07 26 8e bd 05 ea 05 be b1 de ac 3d 45 97 7a 3d
       -0.06940847 -0.13077553 0.084409125 0.061179418
000020 4b 57 12 3e 54 77 20 3e 30 07 0c bd 6b b8 d9 bd
       0.14291112 0.1567052 -0.034186542 -0.10630878
000030 ce 5f 32 3e ab f5 cb bd 2b de a2 bd cb 83 fe bd
       0.17419359 -0.09958967 -0.079525314 -0.12427481
000040 6c 12 80 3c 4a 71 a4 bd 21 73 7e bd b3 cc 88 3d
       0.015633784 -0.08029421 -0.062121514 0.06679668
000050 b3 8b 1d be 4f ad 10 3e 48 83 4a be fa 7d f9 3d
       -0.15385322 0.14128612 -0.19776642 0.12182231
000060 67 c1 cb bd 64 d0 fd 3b b7 e2 d7 3c e4 66 72 bd
       -0.09948998 0.0077457894 0.026353223 -0.059180155
000070 06 6e ad 3c f4 af e5 3c 07 dc 21 be 3a 88 c9 bd
       0.021170627 0.028038003 -0.1580659 -0.09840436
000080 0c 93 f6 3d 0a 61 ac bd 38 5d a5 bd e4 49 a5 3d
       0.12039766 -0.08416946 -0.08074421 0.08070734
000090 80 54 d5 bd da bc 1e 3e eb de c8 bd be 71 2f bd
       -0.10416508 0.15501729 -0.09808143 -0.042833082
0000a0 13 ac 1c be cf ed 00 be 3a a0 1c be 26 4c ca bd
       -0.15300016 -0.12590717 -0.15295497 -0.098778054
0000b0 27 19 18 be 1b c6 18 3e 5c 6b 36 be 45 30 29 be
       -0.14853345 0.14919321 -0.17814392 -0.1652232
0000c0 bb e0 1d 3e 57 f7 94 bd 1f 50 06 3e 2b 6e 4c 38
       0.15417759 -0.07273739 0.13116501 4.8739992e-05
0000d0 66 67 13 3e b0 d0 48 be c9 6c 5f 3d b8 07 2d be
       0.14394912 -0.19610858 0.054547105 -0.16897476
0000e0 07 60 fb 3c 27 1b 47 bd 7a 0e 3c be 5a a3 4f 3e
       0.030685438 -0.04860988 -0.18364897 0.20277157
0000f0 57 5d 07 be 73 a2 a7 3b 80 c0 b2 bc a4 c6 24 3e
       -0.132192 0.005115801 -0.021820307 0.160914
000100 6b 2d c4 bd a9 37 50 3e 17 7a 03 be e5 06 13 3e
       -0.09578975 0.20333733 -0.12839542 0.14358099
000110 54 8a d8 3d b2 e9 33 be cf 77 14 be 26 9e 11 bd
       0.10573259 -0.17569616 -0.14498828 -0.035551213
000120 ff 90 95 3b 4a 8b b6 3d 07 45 aa bc 81 85 2b bd
       0.004564404 0.08913286 -0.020784868 -0.041875366
000130 af fb 09 3e dd 97 81 bd ee 2f 05 be d0 af 3c 3e
       0.13474916 -0.06327794 -0.13006565 0.18426442
000140 81 c3 7e bd 1d 29 73 3d 78 bd 38 3e 1b f8 19 be
       -0.062198166 0.05936538 0.18041027 -0.15036051
000150 5d 57 00 3e eb bb 35 3e 7a c5 00 be 35 57 ca bc
       0.12533326 0.17747466 -0.12575331 -0.024699787
000160 d1 c0 13 3e f4 c3 2f bd b9 d1 b3 3c 13 eb 52 bd
       0.14429022 -0.042911485 0.02195059 -0.051493715
000170 2b 4e 3a 3e f7 1d 15 be 39 5c 8e 3c 03 c9 42 3e
       0.18193881 -0.14562212 0.01737796 0.19021992
000180 c7 d7 3e be 33 ad 10 3e 46 8a 32 3e df 8d 8b 3d
       -0.18637 0.1412857 0.1743556 0.06814169
000190 5e 97 2e be e1 7e a3 3d 5c 30 11 3e 14 9b 21 3e
       -0.1704993 0.079831846 0.14178604 0.15781814
0001a0 54 0a 49 be 48 20 50 be 67 13 b7 bd 50 94 91 bd
       -0.19632846 -0.20324814 -0.089392476 -0.071083665
0001b0 b6 dc 1b 3e eb 2e 02 be 9d 29 4c 3e ac bb 4e be
       0.15220913 -0.1271321 0.19937749 -0.20188779
0001c0 28 68 33 be f4 e4 ac bc e6 c0 0f 3e d5 86 3c 3d
       -0.17520201 -0.021105267 0.14038429 0.046027023
0001d0 bb 1e 27 be 85 78 23 3e 79 bc d6 3d d5 87 a9 bd
       -0.16320316 0.15963943 0.10485167 -0.08277861
0001e0 9f 0f 3e 3d d7 27 a5 bd 08 32 8a 3c ea 41 06 be
       0.046401616 -0.080642395 0.01686956 -0.13111082
0001f0 df 33 db 3c bb c3 f1 3d 7c 35 51 bc 86 00 a9 bc
       0.026758133 0.11804911 -0.012769099 -0.020630132
000200 fd 98 d3 bc 19 60 30 be 73 93 1b 3e c0 69 b6 3d
       -0.025829786 -0.17224158 0.15192966 0.08906889
000210 8d 53 29 bd 69 21 97 3d 12 c6 4e 3e f9 25 24 3e
       -0.041339446 0.07379419 0.20192745 0.1603011
000220 f2 d3 39 be 7d 41 04 bd 5c 38 66 3a a0 08 3b 3e
       -0.18147257 -0.032289017 0.0008782202 0.18265009
000230 a6 c8 54 bd a0 2a 2b be 91 9a fd bd 45 d6 0a be
       -0.051949166 -0.16715479 -0.12382997 -0.135583
000240 0d bf 1f bd 23 79 56 3d 35 ec ce 3d 03 d1 84 bc
       -0.03900056 0.05236162 0.10103647 -0.016212946
000250 98 75 66 3b bd f0 25 3d 6d 13 e5 3d a2 e0 e1 3d
       0.0035165306 0.04051279 0.11185346 0.110291734
000260 64 f5 4a 3e ef a7 2f be d2 a5 1a be 58 e6 2f be
       0.19820172 -0.17153905 -0.15102318 -0.17177713
000270 7b 39 f8 3d 11 11 0d be 39 ed 20 be e9 b3 fb bd
       0.121203385 -0.13776042 -0.15715493 -0.122901745
000280 3c be fe bd 0e 3e 39 3e 76 ad 59 bd 1f e7 91 bd
       -0.12438628 0.18090078 -0.05314394 -0.07124161
000290 5f 74 01 3e 87 bb 04 3c a6 f2 65 bd 57 9b 11 be
       0.12642048 0.008101351 -0.05613961 -0.14219414
0002a0 1c 2d 00 3d 94 46 da 3d 84 93 6a bd 0a 46 1b 3e
       0.03129302 0.10657993 -0.057269588 0.15163437
0002b0 a9 d2 f5 bd cc 96 40 bd 00 fd 31 3c 58 71 39 be
       -0.12003071 -0.04701881 0.010863543 -0.18109643
0002c0 16 16 0c 3d 58 31 13 be 37 d4 0c be 70 c9 de 3d
       0.03420075 -0.14374292 -0.13752829 0.10878265
0002d0 85 af 00 bd 7e b4 78 3d cd be aa 3d 5e d2 15 3e
       -0.03141739 0.060719006 0.083371736 0.1463103
0002e0 16 3b 17 be 5e 6c 7e 3d 12 ec 08 3e 68 fd 84 bd
       -0.14768633 0.062115066 0.13371304 -0.06493646
0002f0 08 10 a2 3d c5 32 cb bd d6 35 53 3d 34 f1 99 3d
       0.07913214 -0.09921793 0.051565014 0.07516709
000300 bb 40 4c be 42 96 0a 3d 4f e3 49 3e 52 03 4a be
       -0.19946568 0.033834703 0.19715618 -0.19727829
000310 35 46 22 3e e5 ea 12 bd 0e 77 77 3c e8 40 ef bd
       0.15847094 -0.035868544 0.015104068 -0.11682302
000320 96 66 71 3d 16 64 c3 bd b7 c9 c3 3c 67 74 a4 bb
       0.058935724 -0.09540574 0.023899896 -0.005018759
000330 eb b5 1e bd 9e 48 ff bd 2b 67 a6 bd 64 da 4a 3e
       -0.03874771 -0.124650225 -0.081251465 0.19809872
000340 66 b6 2f 3e 42 df e1 3d c9 7e b3 3d a7 a4 d2 bc
       0.17159423 0.11028911 0.08764417 -0.025713278
000350 62 31 41 3e b1 5f 3c 3e 6f c9 2f be 16 92 a5 3d
       0.18866494 0.18395878 -0.17166685 0.08084504
000360 b2 15 19 be 2e c3 fc bd 9e 65 03 3b a9 d3 2a bd
       -0.14949682 -0.12341915 0.0020049582 -0.04170576
000370 d4 cf ba 3d 58 52 a7 bd bf 77 e3 bd fb 3b 1d be
       0.09121671 -0.08170003 -0.11106824 -0.15354912
000380 b3 60 21 3e 94 74 13 be 85 d0 e6 bd 4c f9 29 be
       0.15759544 -0.1439994 -0.11270241 -0.16599005
000390 d7 ef 86 bd d5 98 28 3e 30 c0 3b 3e 39 5c 60 bd
       -0.065887146 0.16464551 0.18335032 -0.05477545
0003a0 77 63 be 3d e5 5b 44 3d 89 d3 3e be b8 97 fe bd
       0.09296315 0.0479392 -0.18635382 -0.12431282
0003b0 d8 2d c7 bd 31 15 04 3d c1 2c 25 bd 1c 58 c7 bd
       -0.09725541 0.032246772 -0.040325884 -0.097336024
0003c0 4b 2b 26 3e 2d 08 93 3d b1 03 03 3d 1d 5f 25 be
       0.16227452 0.07179294 0.031985942 -0.16149564
0003d0 a4 4b 57 3d 34 f6 0e 3e 17 97 b6 bd 0c 4b 02 3e
       0.05256237 0.13961107 -0.08915537 0.1272394
0003e0 53 cf c1 bd 06 1b 38 3e 54 ef 95 bd 14 8b 0c 3d
       -0.09463372 0.17979059 -0.07321039 0.034312323
0003f0 db b6 13 be 5f 36 ea 3d 93 d6 ff 3d f8 1d 3b 3e
       -0.14425223 0.11436152 0.12492099 0.18273151
