init_domain_ACD/init_params/acm_GCN_2_128_16/init_cls_model.pt (torch, 1539 bytes, 2 tensors)

0.weight f4 [6, 16]
000000 3e f2 d7 bd 1d b6 8e 3c 24 0d fe be f9 56 eb 3e
       -0.10544251 0.017420823 -0.496194 0.45964792
000010 89 6d ee 3e 93 ae 9e 3e 59 ca b5 bd 40 43 ab 3e
       0.46567944 0.30992565 -0.088764854 0.33449745
000020 06 e6 90 be a0 08 db 3e cc 19 cc be 27 28 e3 be
       -0.28300494 0.42780018 -0.3986343 -0.4436657
000030 ab 2e c2 bd 58 07 f6 3e ad 74 9b be 05 aa a3 be
       -0.094815575 0.48052478 -0.30362454 -0.31965652
000040 62 10 d1 3e 3a 31 83 bd 19 f7 18 be 3f 18 42 3d
       0.40832812 -0.064058736 -0.1493801 0.047386404
000050 15 6e b0 3e aa 1d 9b be 33 8b 8f 3e 54 e3 97 bd
       0.34458986 -0.3029607 0.28035888 -0.07416406
000060 00 30 9a be 05 b8 2b 3e 15 f4 b2 be e2 71 a0 bd
       -0.30114746 0.16769417 -0.34951845 -0.078342214
000070 5c bb 03 3f 22 15 52 3e 6b 32 87 be 46 e9 58 3e
       0.5145776 0.20515874 -0.26405653 0.21182737
000080 dc 5f 85 3e 2d 1b e6 3e 71 f2 f0 be ab 45 e3 be
       0.26049697 0.44942608 -0.47059968 -0.4438909
000090 a6 b6 6d 3e 51 79 ef 3e ba c0 10 be 18 f0 94 be
       0.23214206 0.46772245 -0.1413602 -0.29089427
0000a0 4d de 94 3e ad bf 14 3e 2f 55 9c be e0 b7 5a 3e
       0.29075852 0.14526244 -0.3053374 0.21359205
0000b0 5c 74 f6 3e bc 97 eb be 13 a8 2f be 37 72 ea be
       0.4813565 -0.46014202 -0.17153959 -0.45790264
0000c0 f1 27 59 3e de 4d 89 3d ff f9 02 bf 72 e8 bd 3e
       0.21206643 0.06704305 -0.51162714 0.37091404
0000d0 e8 d0 9f 3c 14 09 e6 3a a8 34 ce be 7c 90 70 be
       0.019508794 0.0017550313 -0.4027455 -0.23492616
0000e0 6e ee 10 3d f7 91 bf 3e 57 46 b9 3e 1b b3 a8 be
       0.035383634 0.3741605 0.36186478 -0.32949147
0000f0 fd 78 11 3e b0 6f 40 3e 68 50 7d bd 75 cd 8d 3a
       0.1420631 0.18792605 -0.06184426 0.0010818677
000100 47 9b a5 3e 13 d5 cd 3d 46 fa 5b 3d d6 b8 b1 bd
       0.3234503 0.10050406 0.053705476 -0.08677833
000110 e9 1c 5a be 8f 78 43 3e 83 8d e8 bc f3 af a4 bd
       -0.21300091 0.19088958 -0.02838779 -0.08041372
000120 b8 78 58 3e b2 dd 5b 3e 84 ce c9 3d 4d d0 ae be
       0.211398 0.21471289 0.09853843 -0.34143296
000130 f1 6c 05 3e 7e ef fd 3d d0 86 69 3e ab 17 ca 3e
       0.13029839 0.12399195 0.22805333 0.39471182
000140 6b 9d ee 3e c6 f2 7b bc 71 24 04 bf 53 5c e5 3e
       0.46604475 -0.015377706 -0.51618105 0.44797
000150 8a 4f 77 3e d1 6e 4f be 75 4e fc 3e 73 4f 84 3e
       0.24151435 -0.20257117 0.49278608 0.25841865
000160 d4 4f 81 be 50 e2 0c be 95 80 04 3e ca 7b d7 be
       -0.25256217 -0.13758206 0.12939675 -0.4208663
000170 55 a5 a9 3e d6 47 2b 3e f4 be 1b be b2 00 93 3d
       0.3313395 0.16726622 -0.15209562 0.07177867

0.bias f4 [6]
000000 00 00 00 00 00 00 00 00 00 00 00 00 00 00 00 00
       0.0 0.0 0.0 0.0
000010 00 00 00 00 00 00 00 00
       0.0 0.0
