init_arxiv/init_params/ogb-arxiv_SAGE_128_16/init_encoder.pt (torch, 150591 bytes, 6 tensors)

convs.0.lin_l.weight f4 [128, 128]
000000 ec 22 33 3d ab e0 01 bd 10 8e 9e bd 79 0e 86 bd
       0.043734476 -0.0317084 -0.0774194 -0.06545729
000010 f2 ee b3 bc 1f 67 a4 3d 74 0d 8e bd bd 51 a4 3d
       -0.021964524 0.08027481 -0.0693616 0.08023403
000020 6c 7c c3 3b 72 77 a2 bd 42 b4 76 bc 79 2e 13 3d
       0.00596576 -0.07932939 -0.015057625 0.03593299
000030 26 ed 3d 3d 83 01 b2 bd 79 3a 21 bd 2b 41 2c 3c
       0.04636874 -0.086916946 -0.039362404 0.010513584
000040 04 0a 1f 3d d4 a3 3d 3a ed 82 7c bd 1c 5d ae bc
       0.03882791 0.000723419 -0.061648298 -0.021284632
000050 d2 a1 1d bd 09 d5 d7 bc 01 98 31 bc 7b ac 2a bd
       -0.038484402 -0.0263467 -0.010839463 -0.041668396
000060 13 91 a6 bd de 95 f7 3b 54 94 ab 3d cc a0 2b bd
       -0.081331395 0.0075557074 0.08377901 -0.041901395
000070 2f 63 b3 3d c6 af 56 3d 06 f7 78 3d 85 a1 f6 3c
       0.08759152 0.052413724 0.060782455 0.030106315
000080 9c d1 94 bc 0e 0e 3d bc 22 86 1b 3c 95 93 7b bd
       -0.018166356 -0.011538995 0.009492429 -0.061420042
000090 42 81 e9 3c 63 89 48 3d 2d 71 90 3b e9 82 84 bd
       0.028504018 0.048959147 0.004408023 -0.06470282
0000a0 4a fc 10 bd 7d 6c 91 bd 12 55 97 3d b5 52 7d bd
       -0.03539685 -0.071007706 0.07389273 -0.061846454
0000b0 4c a5 74 3d c6 ed 01 3d ec f7 3f b9 cd 10 9a 3c
       0.059727952 0.0317209 -0.00018307538 0.01880684
0000c0 a8 c8 fe 3c 00 71 66 3d bc 27 b2 bd b7 bb a7 3d
       0.03110154 0.05626011 -0.08698985 0.08190101
0000d0 2a ac 90 3d 1c 5b d6 bc 71 66 ec 3c 68 9f c2 3c
       0.07064088 -0.026166491 0.028857442 0.023757651
0000e0 e4 6a 4f bd fc 41 3f 3d c2 d9 98 3d 37 81 e9 bc
       -0.05063905 0.046693787 0.07463409 -0.028503997
0000f0 4d 7b c2 bc 9d 26 a4 3d 2d 75 14 bc 96 e7 8a bd
       -0.023740435 0.080151774 -0.00906114 -0.06782453
000100 00 c0 72 bd 0b dd 93 3d 3b e2 94 3d 2c bd 39 bc
       -0.059265137 0.07219895 0.072697125 -0.011336606
000110 94 e6 75 bc 2a 48 21 3d f1 92 99 bd 57 d1 ac 3d
       -0.015008587 0.03937546 -0.0749873 0.08438366
000120 bd 58 7f bd 1e 03 f8 bc 5e cf 55 bb 9b c6 2b 3d
       -0.062340487 -0.030274924 -0.0032624821 0.04193745
000130 29 3c 72 bd cd 58 bf bc 91 ff 1d 3b 53 d7 3b bb
       -0.059139404 -0.023357773 0.0024108628 -0.0028662279
000140 ab d2 3c 3d e0 bb 64 3d fd dc 27 3d 31 7d 2a bd
       0.046099346 0.055843234 0.040982235 -0.041623298
000150 15 35 ae 3d b9 31 06 bb 5c a2 cc bb 15 3b 90 3d
       0.08506218 -0.0020476414 -0.0062449407 0.07042519
000160 72 9a ad 3d bf e5 ac bc 7f 02 39 bd 07 2f 62 bc
       0.08476724 -0.021105645 -0.045168396 -0.0138051575
000170 1a 0b b3 3c 7c ab 91 3d 0b 4d 65 3d 42 d2 58 3d
       0.02185588 0.07112786 0.055981677 0.052934892
000180 03 3d 56 bd 07 e5 1d 3d c6 9c cb bc ba 9e 00 bd
       -0.05230428 0.038548496 -0.024855029 -0.031401373
000190 e4 8d 9b 3c e7 cb 54 3c b4 a0 7a 3d 34 01 85 3d
       0.018988557 0.012988067 0.061188415 0.0649437
0001a0 0d 1c 8d 3c 6e e7 a9 bd f3 5a ad bc 83 e0 5e 3d
       0.01722529 -0.08296095 -0.021161532 0.05441333
0001b0 13 a8 2a bd 3b 2b c8 bb 62 52 5e 3d ad ac b3 3d
       -0.041664194 -0.006108669 0.054277785 0.0877317
0001c0 67 fc af bc 5d ab 39 3c ff 77 b3 3b 71 ad 56 3d
       -0.02148266 0.01133236 0.005476951 0.0524115
0001d0 7b 43 12 3d 95 b1 85 3d bb 31 39 bd f4 42 86 3d
       0.035708886 0.06528012 -0.045213442 0.06555739
0001e0 70 57 93 bc 9d bf 70 bd 5a 5b 88 3d 79 ee 61 3d
       -0.01798603 -0.058776487 0.06658049 0.055159066
0001f0 fc d6 b9 bc 78 88 e4 3c 1c f9 86 bd 38 a0 81 3d
       -0.02268552 0.027897105 -0.065904826 0.063293874
000200 9e c9 67 bc d7 9e 96 bd b1 34 5d 3d 36 dc 28 bd
       -0.01414719 -0.07354515 0.05400533 -0.041225635
000210 39 1b ce 3c ec 8a 33 bd 31 e8 25 3b e2 26 47 3d
       0.025159465 -0.043833658 0.0025315399 0.048621066
000220 f3 c0 f9 3c 83 48 22 bc e0 4c 6e 3d a7 fd a4 3c
       0.030487513 -0.009904983 0.058178782 0.020140482
000230 c9 bc f6 ba 64 e8 3a 3d c7 d9 39 3d 11 d8 96 3d
       -0.0018824573 0.04563178 0.045373704 0.0736543
000240 80 ca a4 bd eb 2f 61 3d aa d5 44 bb d2 54 e5 bc
       -0.08046436 0.05497734 -0.003003458 -0.027994547
000250 52 00 dd bc 11 1d 85 3b 9d 4e 08 bc 2b 43 b3 bd
       -0.026977692 0.004062303 -0.008319524 -0.08753046
000260 fb 53 00 3d 26 bd 6c bc a3 e8 20 3c b8 a4 96 3c
       0.03133009 -0.014449393 0.00982109 0.01838909
000270 65 54 b4 bd 89 09 74 3d 1a 93 04 bd 2d b3 4e bd
       -0.088051595 0.059579406 -0.03236685 -0.050463844
000280 33 b2 a7 bc 71 cd 36 bd e8 0b 95 3d 56 9d 9f bc
       -0.020470714 -0.044629518 0.072776616 -0.019484203
000290 7e 63 70 3d 7e 7d 54 3d f6 49 9c bd cb a5 c6 3c
       0.058688633 0.05187749 -0.076312944 0.024248978
0002a0 ec b1 60 3d 7b 93 58 bd 01 da 92 bd 6c d2 99 3b
       0.05485718 -0.052875023 -0.07170487 0.0046942737
0002b0 e4 c0 12 bd cf ed a4 bc 5d 53 08 3d 9f da 80 bb
       -0.035828486 -0.020132927 0.033282626 -0.0039323117
0002c0 19 9d 9b bd 1d 2d 4c 3c ed e6 a6 bb ae a9 96 3d
       -0.075983234 0.012461928 -0.0050934465 0.073565826
0002d0 f8 d3 d8 3b 6b 63 82 bb 2a 83 21 bd 55 3c 40 bb
       0.0066170655 -0.0039791367 -0.03943173 -0.0029332836
0002e0 f0 ab 24 bc 54 13 e9 bc a9 ac ad bd 45 c1 5d 3c
       -0.010050759 -0.0284516 -0.08480198 0.013534849
0002f0 e2 b2 7b bc 64 6b 9d 3d d5 2a 16 3c 6c 46 8c 3d
       -0.015362473 0.07686499 0.009165485 0.068493694
000300 35 f5 25 3d bc 0b 3b bd 17 b0 e8 b9 6a ce de 3c
       0.04051705 -0.045665488 -0.00044381685 0.027198035
000310 6a 25 7e 3d 81 f9 75 3d 24 99 aa 3d 94 fb 6f bd
       0.0620474 0.0600524 0.083299905 -0.058589533
000320 68 84 8e 3d 6c 69 1c 3c 3d 5e 25 3d da fd 90 3d
       0.06958848 0.009546619 0.040373076 0.07079668
000330 e2 e4 c1 3c 77 d4 24 3c cf 68 39 3c d2 55 0a bd
       0.02366871 0.010060421 0.011316492 -0.03377325
000340 9b 23 92 bc f8 88 59 3d ae c0 75 bd 26 4f c6 3c
       -0.017839244 0.05310914 -0.059998207 0.024207663
000350 c0 da cc 3b 47 dd 6e bd 17 7c 5c ba 75 98 0b bd
       0.006251663 -0.058316495 -0.0008410825 -0.03408094
000360 bf f1 ad 3d 2e 47 9a bd 79 41 2f 3d b2 3e ab bc
       0.08493375 -0.07533108 0.04278705 -0.020903919
000370 c3 af d6 bc c7 86 68 bd a8 2f 6d bd 01 55 94 3c
       -0.026206857 -0.05676916 -0.057906777 0.01810694
000380 c9 27 cc bc 44 e9 29 bd dc b6 7b 3c e6 5d 12 3c
       -0.024921315 -0.041482225 0.015363421 0.00893352
000390 ea 69 a9 3d af 23 16 bd ec 83 99 bd 24 3b 16 3c
       0.08272155 -0.036655124 -0.07495865 0.009169374
0003a0 cc 7d 09 bd 1f 9b 93 3c c6 8c 8c 3d e1 46 76 bc
       -0.033567235 0.018018303 0.06862788 -0.015031547
0003b0 5d 2b 79 bd bf 80 dd bc b4 26 95 bd 94 2c 64 3d
       -0.06083237 -0.02703893 -0.07282773 0.055706576
0003c0 ad 70 a7 bd 92 75 3d bd 79 c5 bb 3b 5c db d6 bc
       -0.08175788 -0.046254702 0.0057303277 -0.026227646
0003d0 3f a0 59 3d 87 18 74 bd 72 d6 dc bc 7d cf 6a bd
       0.05313134 -0.059593704 -0.026957724 -0.057326782
0003e0 1d b4 a8 3d 66 61 64 3d 62 5a 01 3c 09 e5 f0 3c
       0.08237479 0.05575695 0.007895084 0.029406087
0003f0 3c f6 b4 bd 8f 00 93 3d 61 e6 45 bd d6 49 b0 bd
       -0.08836028 0.07177841 -0.04831541 -0.08607833

convs.0.lin_l.bias f4 [128]
000000 06 9e 23 3d 3c aa 99 bd 27 5c 05 3d cc 01 4f bd
       0.039945625 -0.07503173 0.032558586 -0.050538823
000010 b3 1c a1 3d fc 18 b1 3d 06 90 b2 bd 99 fb 39 3d
       0.07866802 0.086473435 -0.087188765 0.045405958
000020 6f f3 ac 3d 42 7e 25 bd 5a a4 56 bd 8d d9 a2 3d
       0.08444869 -0.040403612 -0.05240283 0.07951651
000030 03 0d d7 3c ee c5 de 3c dd 0d 80 3d 09 ea 86 3d
       0.026251322 0.02719399 0.06252644 0.065876074
000040 7d e8 91 bd bd eb a9 3d 03 96 be ba e7 d3 a9 bd
       -0.07124422 0.08296917 -0.0014540557 -0.0829237
000050 0e 78 56 bc 15 e7 2c bd 84 7a 46 3d 8f 28 37 3c
       -0.013090147 -0.042212564 0.048456684 0.0111791035
000060 98 a4 56 3d 67 e3 56 3d ee aa ab bd 15 f5 02 bd
       0.052403063 0.05246296 -0.083822116 -0.03197201
000070 4e ea 96 bd c8 1e db bc d2 22 75 3d ab 41 a1 3d
       -0.07368909 -0.026748076 0.05984766 0.07873853
000080 32 c8 95 bd e6 39 ef bc 45 12 be 3c 66 d4 92 bd
       -0.07313575 -0.029202413 0.023202071 -0.07169418
000090 81 e3 08 3b d9 f4 92 bd fc ef b1 3d cb 95 b0 3d
       0.0020887556 -0.07175607 0.086883515 0.08622321
0000a0 8d 40 86 3d 48 6e 96 3d dd c1 92 3d 5e 72 84 3c
       0.06555281 0.07345253 0.07165883 0.016167816
0000b0 62 02 53 3d b5 da 80 bc 96 ea 30 bd 6c 19 b2 3d
       0.051515944 -0.015729288 -0.04319247 0.08696255
0000c0 5d 1f 12 3a 33 32 94 3d 34 c1 bc 3a 7c 3d 20 3d
       0.00055741315 0.07236137 0.0014400841 0.039121136
0000d0 3a 22 1c bd 50 2a 40 bd 86 92 44 3d a4 2a 71 bc
       -0.03811858 -0.046915352 0.0479913 -0.014719639
0000e0 ec 96 03 3c 92 5b 22 bd 76 66 82 3d e5 9d 0d bc
       0.008031588 -0.03963811 0.06367199 -0.008643602
0000f0 f4 d5 5f 3d c1 aa dd 3c 93 3d bb bc aa 4a 3e bc
       0.0546474 0.02705896 -0.02285651 -0.011614481
000100 63 ea fc bc 4a 1f e3 3c c3 d4 fa bc 9c 60 52 3d
       -0.030873483 0.02772488 -0.03061903 0.051361665
000110 45 f8 c0 3c 0a af 70 bd 26 38 46 3c 3e f1 1e 3d
       0.023555884 -0.05876068 0.012098348 0.038804285
000120 03 af 00 bd 93 4b 30 bc 93 82 87 bd 1c 7d 90 3a
       -0.031416904 -0.010760206 -0.06616702 0.0011023614
000130 36 88 a6 3d 60 a0 3a bb 61 17 8c bd ed 8b 23 3c
       0.08131449 -0.0028476939 -0.06840397 0.009982091
000140 bd cb 80 bd 0f e9 52 3d 75 3e a7 3d 05 79 60 3c
       -0.0628886 0.051491793 0.081662096 0.013700728
000150 ae 53 9c 3d 16 cd c1 3c 21 f4 d2 3c 58 63 7b bd
       0.07633148 0.023657363 0.025751175 -0.06137404
000160 41 6e 02 bd 3a b3 40 bd a7 e1 98 3a 37 19 5a 3d
       -0.031843428 -0.047045924 0.0011663929 0.053246703
000170 64 cd 42 bd dc 65 6b bd 0b 88 91 3d 08 ec a1 3d
       -0.047559157 -0.057470188 0.07106026 0.079063475
000180 8a 00 ee 3c 04 d4 6d 3d 7e b3 27 bd da 9e 8f bd
       0.029052991 0.058063522 -0.04094266 -0.070127204
000190 81 69 80 bc 8b 59 b3 bd f8 2d 10 3d 30 c9 d8 bc
       -0.015675308 -0.08757313 0.03520009 -0.026463121
0001a0 e3 9c 1a bd db 6f 81 bd 3a 15 17 bd 43 0e 5d 3d
       -0.037747275 -0.06320163 -0.036885478 0.05396868
0001b0 06 93 aa 3a 16 f3 a1 3d 2f f3 1d bd 07 12 42 ba
       0.0013013787 0.07907693 -0.038561996 -0.0007403199
0001c0 f9 ac 68 3d c2 8f 5a 3d d1 06 8d 3c 26 c0 58 3d
       0.056805585 0.053359754 0.017215164 0.052917622
0001d0 97 61 03 bd 53 5e 2e bd 96 fc f9 bc c7 50 8d 3d
       -0.03207549 -0.042570423 -0.03051595 0.06900173
0001e0 81 11 bd 3c fa a6 a3 3d a4 6d 71 bc 2a 16 26 3d
       0.023079636 0.079908326 -0.014735613 0.04054848
0001f0 dd a0 7f 3d 3b 3c 21 3d 13 a0 c1 bc cd e1 fa bb
       0.06240927 0.03936408 -0.0236359 -0.007656312

convs.0.lin_r.weight f4 [128, 128]
000000 8f b4 94 bd 72 19 7a 3d 74 fb 22 3c 18 e2 10 bc
       -0.07261001 0.061059423 0.009947646 -0.008842967
000010 e1 75 c3 3c 32 d2 96 bd 4a a2 ad bd 84 91 cd 3c
       0.02385992 -0.0736431 -0.0847822 0.025093801
000020 22 fc 9a bd 74 ba ca 3b f5 80 82 bd 5d 5c 9f 3d
       -0.07567622 0.0061867777 -0.06372253 0.07781289
000030 33 6f ab bb 49 6f 45 3b 9f 28 66 bd 8d b7 fa 3c
       -0.005231762 0.0030126146 -0.056191083 0.030605102
000040 08 5d 85 bd fb 9f 03 3c a4 b6 18 3d 7e 1f 1d 3d
       -0.06511885 0.008033748 0.037283555 0.03836011
000050 8d 39 7f bd c6 06 94 bd 0c e8 ef 3c 45 09 3d 3d
       -0.062310744 -0.072278544 0.029285453 0.04615142
000060 25 6d a3 3d 20 7b 70 3d a0 47 a7 3d f1 46 2f bd
       0.07979802 0.05871117 0.08167958 -0.042792264
000070 17 f1 11 bd 45 26 9a bd cf b9 ba 3c 56 0b 9f 3d
       -0.03563031 -0.075268306 0.022793679 0.07765834
000080 50 8e a8 bd aa 95 96 bd 25 d5 0e 3d 60 29 37 bd
       -0.08230269 -0.07352765 0.03487124 -0.044717193
000090 e3 81 e3 3c 85 51 6d bd de 62 c5 3c 65 81 77 bd
       0.027771896 -0.05793907 0.024094995 -0.060426135
0000a0 3f 37 2c bd 0a 07 d4 bc b9 8f 28 3b f2 49 33 3b
       -0.042044874 -0.025882263 0.002572043 0.0027357307
0000b0 2a a1 b1 bd e1 10 a5 3c 61 02 56 3d b5 b4 d3 3c
       -0.08673318 0.02014965 0.052248362 0.025843004
0000c0 2d 51 76 3d ca b9 79 3c 63 a4 4d bd 93 a4 25 bd
       0.06013601 0.0152420495 -0.0502056 -0.040440153
0000d0 27 32 95 bc 33 64 78 3d 99 08 a9 3d da f6 5e bc
       -0.018212391 0.060642432 0.08253593 -0.013608659
0000e0 79 78 70 3d c4 c1 94 3c 6d 23 a3 3c b4 ec c6 bc
       0.05870864 0.0181588 0.019914353 -0.02428279
0000f0 8b cf e6 bc b8 77 e4 bb 16 3d ab bb 48 1c 31 3d
       -0.028175136 -0.0069722794 -0.005225788 0.04323986
000100 85 93 87 bd 63 50 94 3d bb 06 e5 bc f9 97 87 3d
       -0.06619934 0.07241895 -0.02795731 0.06620783
000110 2d 92 71 bd de 68 87 bd 20 cc c7 bb 9b 63 2a 3c
       -0.058977295 -0.06611799 -0.0060973316 0.010399724
000120 c5 22 af bd 8c 49 01 ba 1c e7 6a 3d 52 ba 82 3d
       -0.08551554 -0.0004931919 0.05734931 0.06383194
000130 36 81 89 bc ab 01 09 bd 56 91 96 bd 83 43 cd bc
       -0.016785245 -0.033448856 -0.073519394 -0.025056606
000140 7e b4 b2 3d 3b 74 28 bc 5e 7b 20 bd f8 a4 6d 3d
       0.087258324 -0.010281618 -0.039180152 0.058018655
000150 48 c1 88 bd 23 f6 b2 3d 07 47 79 bd 19 c2 16 bd
       -0.066774905 0.08738353 -0.060858753 -0.0368062
000160 c9 13 51 bd ec ea 6a 3d fc 9c 71 bd ff 7a 30 3b
       -0.05104426 0.057352945 -0.058987603 0.002692878
000170 a9 19 f3 3c 8b a6 51 bd 9e 96 1d 3d 17 81 7f 3d
       0.029675322 -0.05118422 0.038473718 0.06237897
000180 51 c2 b2 bd 09 d6 56 3d d9 5d 04 3d 49 bf 7a 3c
       -0.08728469 0.052450214 0.032316063 0.015304395
000190 2a b4 34 3d e3 3c ae 3d 99 5f 4d 3d 93 ac 90 bd
       0.04411713 0.08507707 0.050139997 -0.07064166
0001a0 98 94 9a 3d c0 19 38 bd 76 ce d1 bc e1 08 a9 bd
       0.07547873 -0.044946432 -0.025611144 -0.08253647
0001b0 14 a2 90 bd 6c f1 8d 3d da 58 46 3c f6 2a 06 3d
       -0.07062164 0.06930813 0.012106145 0.032755814
0001c0 ff aa 1c 3d 49 90 54 bc dc 09 8e bd 95 f8 74 3d
       0.038249012 -0.012973853 -0.06935474 0.05980738
0001d0 6e 69 9f 3b cd b9 3c bd 07 93 47 bd a9 20 83 3d
       0.004864863 -0.04607563 -0.0487242 0.06402714
0001e0 ec 00 25 bc 32 8c 91 bc 76 90 a4 bd 9d 55 22 3d
       -0.010071021 -0.017767046 -0.08035366 0.03963243
0001f0 57 36 81 bd d8 8c 03 3c 08 7b f1 3c e9 82 5e 3d
       -0.06309193 0.008029185 0.029477611 0.054324064
000200 60 4c e2 3b 47 b5 a0 3d c0 bd 9d 3d 10 90 aa 3c
       0.0069060773 0.07847076 0.077022076 0.020820647
000210 18 f0 8d bb 82 fd ae bd c9 11 cf bc b0 18 27 bc
       -0.0043316 -0.085444465 -0.025277035 -0.010198757
000220 0d fc 74 3d 29 d4 66 bc bb b5 ef bb ab 20 96 3a
       0.059810687 -0.014088669 -0.007315365 0.0011453828
000230 7e e8 18 bd 70 92 93 3c 8a 78 11 3d ca a5 27 bd
       -0.037331097 0.018014163 0.035515346 -0.040929593
000240 5b cc 52 3c c1 2d ad bd fe 19 7b bd 91 80 92 3c
       0.012866105 -0.084559925 -0.061304085 0.01788357
000250 ec 7a 96 bd 8b d0 76 bd 40 98 93 bd 64 4d bc 3c
       -0.07347664 -0.060257476 -0.07206774 0.022986121
000260 b7 4c 9a bd a8 ab 96 bd a5 f3 5a bd 8f e7 5e bd
       -0.075341634 -0.073569596 -0.053455014 -0.05442005
000270 ed 72 a4 bd fe e3 25 3c dc e9 64 3d cf 1a 5a bd
       -0.08029733 0.010125158 0.05588709 -0.053248223
000280 78 af 4b ba 2c f3 a1 3b 03 40 14 3d ef a1 38 3d
       -0.00077699823 0.0049423184 0.03619386 0.045076307
000290 25 3b b7 bc a7 8e 08 3b e1 b8 67 3d 8e 74 30 3d
       -0.02236707 0.002083698 0.0565728 0.043079905
0002a0 51 d9 dc bc 56 7b ab 3d 52 fa b2 3d d3 54 c3 bc
       -0.026959093 0.08373134 0.08739151 -0.023844158
0002b0 6c 95 3b 3d 86 1b a9 3d 72 f1 80 bd e9 ad 0e bd
       0.045796797 0.08257203 -0.06296052 -0.034833822
0002c0 ce 6d c1 bc 71 23 93 3d 64 2d 1b bc ed ca 89 3c
       -0.02361193 0.07184494 -0.009471271 0.016820395
0002d0 32 05 02 bc a8 9f 9f bc 16 4e a4 bd 68 9f 2f 3d
       -0.007935809 -0.01948531 -0.08022706 0.04287663
0002e0 aa 36 57 bd 30 b1 c3 bc 6c d8 9c bd 0f b4 72 ba
       -0.052542366 -0.0238882 -0.07658467 -0.0009258398
0002f0 91 e6 8d bd 39 aa 89 bc d4 e6 56 bd 7a 68 4a bc
       -0.06928743 -0.016804801 -0.05246623 -0.012354011
000300 03 11 d7 bc b2 11 8d 3d ee dd c0 bc b7 57 0b bd
       -0.026253229 0.06888141 -0.023543324 -0.0340192
000310 1e 01 e9 3c 84 27 f3 3c 48 5c 8e 3d 58 e9 b5 3a
       0.028442916 0.029681928 0.06951195 0.0013878746
000320 88 ad eb bb 56 a5 36 3d eb 70 a4 bd 8d 3b 05 bd
       -0.0071923174 0.04459127 -0.0802935 -0.032527495
000330 b0 aa 2b bb da 6c 83 bd 1b 1a 29 3d 67 ad 8f bd
       -0.0026194267 -0.06417246 0.04128466 -0.07015496
000340 b1 1c 9a bc f2 26 89 bb ba 9d 64 3c aa 0d 81 bd
       -0.01881251 -0.004185551 0.013953621 -0.06301434
000350 c7 a8 74 bd 2e 92 4f bd 3d 96 a7 bd fc 87 35 3c
       -0.05973127 -0.050676517 -0.081829526 0.0110797845
000360 2f fc 5d 3d 92 80 46 3d 97 e2 a7 3d 87 b3 d0 bc
       0.05419558 0.048462458 0.081975155 -0.02547623
000370 c1 cc af 3d de 0b 00 bd 4f 39 0d bd 22 c9 21 bd
       0.085839756 -0.031261317 -0.03447848 -0.039498456
000380 2e 3d f5 ba fb e4 dd 3b 77 4c 9c bd b7 9e 26 3d
       -0.001871025 0.0067716814 -0.07631772 0.040678706
000390 40 9a 98 3d d8 aa 00 bd 48 c6 17 3b de 92 89 bd
       0.07451296 -0.03141293 0.0023158956 -0.06717466
0003a0 b2 75 8a bc 91 dc a3 3d a3 0b 93 bd 12 15 17 3d
       -0.016901825 0.08001054 -0.07179954 0.03688533
0003b0 6e 44 cb 3c c0 b7 7e bc 02 36 86 3d 95 dc 16 3d
       0.024812903 -0.015546739 0.0655327 0.036831457
0003c0 67 fd e9 3c 7b ce 30 bc 3a 62 5a 3d 02 ee 76 3d
       0.028563214 -0.010791416 0.053316332 0.060285576
0003d0 d0 f7 9e 3d 53 4a f6 bc 9d 55 5f bd ef 00 14 3d
       0.0776211 -0.030064737 -0.054525007 0.036133703
0003e0 e9 b9 40 3d 7d 31 76 3d 14 61 49 3c f1 b8 a7 3d
       0.047052298 0.06010579 0.012291212 0.08189572
0003f0 ad a7 52 3b f8 45 86 3d 72 e6 8f 3d 1a 99 84 bc
       0.00321434 0.06556314 0.07026376 -0.016186286

convs.1.lin_l.weight f4 [16, 128]
000000 51 b5 86 3d 12 bc 92 3d e3 af a6 bd d4 99 86 3d
       0.06577552 0.07164778 -0.081390165 0.06572309
000010 21 53 a5 bd 10 6c ac 3d a6 42 1d bd c9 eb 83 bd
       -0.08072496 0.08419049 -0.03839364 -0.06441457
000020 07 ba 81 3d eb 97 17 bc b1 4e 89 bd 01 f7 15 bd
       0.0633431 -0.009252529 -0.06704462 -0.036612514
000030 3f d1 6a 3d 87 73 06 bc fb 9b 95 bd 97 fe 8d bb
       0.05732846 -0.008206255 -0.073051415 -0.004333328
000040 92 a0 7a 3b ca 17 91 3c 06 3a f5 bc e1 d6 62 bc
       0.003824268 0.017711539 -0.029934894 -0.013845176
000050 87 c5 78 3c b1 93 32 3b 53 3d da bc c9 9e 97 3d
       0.015183813 0.0027248675 -0.02664057 0.07403333
000060 55 15 07 3d 04 8e 46 3b a9 f9 4d ba 23 19 a9 bd
       0.03297933 0.003029705 -0.00078573317 -0.082567476
000070 b7 22 63 bd d4 8b 9c 3d ac fc 45 bd be 09 ec 3c
       -0.05545303 0.076438576 -0.04833667 0.02881324
000080 d3 4b a2 3d 58 dd 59 bd 6d 30 92 3d c3 71 23 bc
       0.079246186 -0.053189605 0.07138143 -0.009975853
000090 d7 54 a2 bc ca 72 f5 3c 4d d2 02 3d 78 ea cf 3c
       -0.019815845 0.029961962 0.03193884 0.025380358
0000a0 3f 3c a0 bd f7 52 26 bb cd ba fe 39 e7 4d c4 3b
       -0.07823991 -0.002537904 0.00048585833 0.005990732
0000b0 a3 27 21 bd 7a 48 0b bc f2 48 6f 3d 37 d5 4e bb
       -0.03934444 -0.0085011665 0.058419175 -0.0031560191
0000c0 89 fd 10 bd fa 17 96 3d 6e 6b 87 bd a4 2d 8d 3d
       -0.03539804 0.07328792 -0.066122875 0.06893471
0000d0 2e 43 45 bc 8d fc 08 3d 5e a5 54 bd 10 0f 56 3d
       -0.012039943 0.033443976 -0.05191552 0.05226046
0000e0 f7 eb 7c bd 30 b3 88 3d cb 57 a4 bd ee b7 ad 3d
       -0.06174847 0.06674802 -0.08024558 0.084823474
0000f0 1b 36 c8 bb 65 fa 94 bd d3 98 02 3d 6c f2 a0 3d
       -0.0061099655 -0.072743215 0.031884026 0.07858738
000100 e9 0c c5 3c 49 98 b1 3d 59 81 69 3c c2 c9 7a bb
       0.024054008 0.08671624 0.01425203 -0.003826723
000110 62 e0 22 3d 38 48 92 3d f3 32 99 3c a8 30 fd bc
       0.03976477 0.07142681 0.018701052 -0.03090699
000120 c4 07 d9 bc 9e 01 08 bd d6 83 8d bd 8d b3 a6 bc
       -0.02649296 -0.033204667 -0.06909911 -0.020349288
000130 ac 17 14 3d 6d 10 87 3d 5f 60 51 3c 91 f0 fd ba
       0.036155388 0.0659493 0.012779324 -0.0019374063
000140 90 46 34 3c 6e 31 ab 3d b2 7d 7b bd 67 0d a2 3d
       0.011003152 0.08359037 -0.06139917 0.079127125
000150 6f 12 cd bb 94 a3 90 bc 2a 51 a2 3d 8e dc 2a 3d
       -0.006258301 -0.017656125 0.07925637 0.041714244
000160 04 64 ac bd 8a fa 13 bd d8 1a 0c bc b1 66 9f bc
       -0.08417514 -0.036127605 -0.008551322 -0.019458147
000170 37 c4 81 3d c3 c1 87 bd a1 49 26 bd 2e f1 4a bd
       0.06336253 -0.06628754 -0.04059756 -0.049546413
000180 48 af 8e bb a0 61 9e 3d a7 10 02 bd 95 eb 10 3d
       -0.0043543912 0.07733464 -0.031754162 0.03538092
000190 cf 0f 8b bd 18 af 6c 3c 7a fe 36 bd 65 45 0b 3d
       -0.067901246 0.0144460425 -0.04467628 0.034001727
0001a0 d3 04 51 bd c2 ef a4 3d 23 9c 5f 3d 55 7b ad bd
       -0.05102999 0.08053543 0.054592263 -0.08470789
0001b0 b1 4d 3e bd c6 17 62 bd 93 52 ab bd 51 17 56 bb
       -0.04646081 -0.055198453 -0.08365359 -0.0032667706
0001c0 c1 68 67 bd 08 e3 a6 bd 39 70 58 bd 9a 75 20 bd
       -0.056496385 -0.081487715 -0.0528414 -0.039174654
0001d0 16 e7 cb 3c 66 5e a8 bb f4 04 a1 3d 58 90 5c bd
       0.024890464 -0.0051382063 0.07862273 -0.053848594
0001e0 58 db 81 bc e0 ab 06 bb 00 db 16 bd 6f 22 f7 bb
       -0.015851662 -0.0020549223 -0.03682995 -0.0075419466
0001f0 32 ef c7 3c 00 e9 0b bd b0 4d 3a 3c 8a 3c 8d 3d
       0.02440605 -0.034157753 0.011371061 0.068963125
000200 14 2d 35 bc 5c e2 77 bd d8 bc 13 bc 91 5b a5 3c
       -0.011058111 -0.060518607 -0.009017192 0.020185264
000210 c5 5e a0 3d 82 f0 b3 3d f7 3c a4 bd 8d 05 e2 bc
       0.07830576 0.087861076 -0.080194406 -0.027590537
000220 b6 d4 62 3d 0d 41 57 bc ba 0b a1 bc 95 36 94 bd
       0.05537864 -0.013138068 -0.019658912 -0.07236973
000230 af 81 98 bd ad 4a 22 3c 40 de a0 3a a5 1a 8c bc
       -0.0744661 0.009905499 0.0012273267 -0.017102549
000240 1e 95 8e 3c fb 64 55 bd d1 cd de bc 09 a4 9e bc
       0.017405089 -0.052098256 -0.02719775 -0.019365327
000250 a9 b1 a4 bd a8 80 9a 3d 76 88 24 3d bb fd a8 3d
       -0.080416985 0.075440705 0.0401692 0.0825152
000260 9a 8d 19 3d f7 b9 57 3d 3e 46 84 3d a1 3a 62 bd
       0.037488557 0.052667584 0.0645871 -0.055231694
000270 ea ec 22 bd ba c3 43 bd 10 d8 c6 3c 5a 7f 9f bc
       -0.03977672 -0.04779408 0.024272949 -0.019469906
000280 69 30 cf bc 02 79 45 bc 64 67 d3 bb 29 e0 01 bd
       -0.025291638 -0.012052776 -0.006451534 -0.031707916
000290 83 4a fc 3b b2 2b a1 3d ae 2e 1c bd 5a b8 21 3d
       0.007699312 0.07869662 -0.038130455 0.039482452
0002a0 98 b8 3e 3d 09 95 a3 3d 4a 65 cb bc 21 9d b1 3d
       0.04656276 0.079874106 -0.024828572 0.08672548
0002b0 d9 05 5a 3d bf 13 06 bd 8b cf 86 3d 96 25 59 3d
       0.053228233 -0.032733675 0.065825544 0.05301436
0002c0 44 8a 5e bd 34 92 ea bc f6 d4 3f 3c 46 d6 53 3c
       -0.05433108 -0.028634168 0.011708489 0.012929505
0002d0 50 41 4b 3d 63 50 79 3c e5 43 f2 bb af 54 92 bd
       0.049622834 0.01521692 -0.0073933476 -0.07145058
0002e0 11 fe cb 3c 26 15 6b ba b6 8b 24 3d 21 4d b0 3d
       0.024901422 -0.000896769 0.0401723 0.08608461
0002f0 71 af 69 3d 35 17 30 3c 30 36 8e 3b c5 de d1 bb
       0.05705208 0.0107477205 0.0043399557 -0.00640473
000300 8d 7c 33 bd fb 65 15 3d 95 be 89 bd 80 ad 34 bd
       -0.043819953 0.03647421 -0.06725804 -0.044110775
000310 26 06 1f 3d 87 41 9e 3d ae 9f 2b bc 8b 10 88 bc
       0.038824223 0.07727342 -0.010475082 -0.01660945
000320 ad 69 79 bd b1 ff 71 bd a9 74 9a bc 03 98 4d 3d
       -0.060891796 -0.059081737 -0.018854456 0.050193798
000330 2e 03 81 3d 7f d6 13 3d fb 78 98 3d a3 e0 01 bd
       0.062994346 0.03609323 0.0744495 -0.03170837
000340 cd 1f ac bc 99 d0 a8 3c 8d cd 82 3d 32 e2 ab 3d
       -0.021011258 0.02060728 0.06386862 0.08392753
000350 d9 94 50 3d 09 99 2a bd 5a b0 c7 3c da 62 28 bd
       0.050923202 -0.041649852 0.024376083 -0.041109897
000360 56 1c f7 3c 1e 83 75 bd 55 70 54 3d 5d fd 89 3d
       0.030164879 -0.059939496 0.05186494 0.06737778
000370 84 54 58 bd 70 03 ac bd 89 88 88 3d c8 67 15 3d
       -0.052814975 -0.08399093 0.06666667 0.036475927
000380 8d 08 88 3d ef 76 a7 3d 2f 92 a3 3d 82 f3 66 3d
       0.06642256 0.08176982 0.07986867 0.05638457
000390 ef 83 6d bb 5f 55 1c 3d ae e9 02 3b 9d 01 b2 3d
       -0.0036241969 0.038167354 0.001997571 0.08691714
0003a0 cd 33 cd bc 86 a3 5e bd 54 d4 87 bd 13 b0 2e bd
       -0.025049115 -0.054355167 -0.06632295 -0.042648386
0003b0 12 3a 42 bd 9c cf 8f bd f0 52 85 3c 09 f8 21 3d
       -0.04741866 -0.0702202 0.0162749 0.039543185
0003c0 e3 92 ac bd c8 c2 29 39 d9 bf a6 3d bd 27 92 bd
       -0.08426454 0.00016189658 0.08142061 -0.07136486
0003d0 95 01 88 3c ec 69 88 3d d9 d6 72 3d 7b 01 5f bd
       0.016602317 0.06660828 0.059286926 -0.05444477
0003e0 fd 78 05 3c 93 dc c1 bc 26 03 b3 bb 9f a7 32 bc
       0.008146522 -0.023664748 -0.005463022 -0.010904222
0003f0 35 cf a8 bd 78 b3 b0 3d f9 dc 84 3d c1 c8 65 3d
       -0.082426466 0.08627981 0.0648746 0.056099657

convs.1.lin_l.bias f4 [16]
000000 1f 61 ac ba e8 27 ad bb 4a dc 08 3d 9b 93 98 3d
       -0.0013151503 -0.005284298 0.03341321 0.074500285
000010 55 97 39 3d bf 2b 62 3d e7 59 4c bd a7 bb 43 3d
       0.045310337 0.0552175 -0.049890425 0.04778638
000020 44 0c ab 3d 75 58 86 3c 83 d7 a2 bd f5 51 8e bd
       0.08351949 0.016399601 -0.07951262 -0.06949226
000030 5e e2 23 3c 0b ab a8 bd 83 fd 04 bc 87 be 75 bd
       0.010002701 -0.08235749 -0.0081170825 -0.059996154

convs.1.lin_r.weight f4 [16, 128]
000000 7a 19 ad 3c bc e5 c3 3c 79 13 60 bd 1f dd 60 3d
       0.021130312 0.023913257 -0.05470607 0.054898378
000010 27 38 6d 3d fd ec 05 3d 81 80 8d bc f2 7b 1d 3d
       0.05791488 0.032696713 -0.01727319 0.03844828
000020 d1 c2 c4 3c 32 1d 64 bd 5b 97 83 3d be ce f8 bc
       0.024018677 -0.055691905 0.06425353 -0.03037202
000030 a1 0d 8a bd e6 56 d8 3c be 07 bc bc 39 d0 87 3d
       -0.06740881 0.026408624 -0.02295291 0.06631512
000040 4d f0 36 3c 62 c8 96 3c 12 a6 74 3d 66 93 37 bd
       0.011165691 0.018406097 0.05972869 -0.044818304
000050 19 ea 74 bd d5 90 3a bd 83 d2 36 3d 3b c3 15 3d
       -0.059793565 -0.04554828 0.044634353 0.03656314
000060 fd 3b cb 3c ac 27 62 bd 01 f4 f7 bb d1 cc 98 bd
       0.024808878 -0.055213615 -0.0075669293 -0.07460941
000070 fd 51 6a 3a 21 ca ea 3c c3 62 89 bd 74 c1 0a bd
       0.0008938609 0.028660836 -0.067082904 -0.033875898
000080 ff b6 1a bb cf 9a 1a 3d d8 bb 75 bc 94 c7 7b 3d
       -0.002360761 0.037745293 -0.014998399 0.06146963
000090 1a fd a2 3d af 62 57 3d ca 11 92 3d c4 ed 63 3d
       0.079584315 0.052584346 0.07132299 0.055646673
0000a0 4d 81 78 bd 60 59 dc bc 83 8f ae bd cb fe 93 3d
       -0.060670186 -0.026898086 -0.085234664 0.07226332
0000b0 ad 8d a3 3d b5 27 87 3d 85 94 75 3d d2 76 19 3d
       0.07986007 0.065993704 0.059956092 0.03746683
0000c0 97 f5 a9 bd f4 75 0f 3d e6 7f a2 bd 8d 45 74 bd
       -0.08298796 0.0350246 -0.07934551 -0.05963664
0000d0 cf 06 69 3d b7 f9 7f 3d c2 05 37 bd 9a e7 2c 3d
       0.05689126 0.062494006 -0.044683225 0.04221306
0000e0 be 8f 5b bc 57 51 13 bd 9c 29 b2 bd b0 80 dc 3a
       -0.01340097 -0.035966244 -0.086993426 0.001682302
0000f0 47 f7 33 bd 7e a3 51 3d 62 aa 08 bd 0f 70 d6 bc
       -0.043936994 0.05118131 -0.033365615 -0.02617648
000100 a1 66 1e bd 7a b2 a0 bd 3f c7 d3 bc 01 0c b2 bd
       -0.038672093 -0.07846542 -0.025851844 -0.08693696
000110 43 3f 9c 3b 49 03 4b 3b c9 79 03 bd 96 03 ac bd
       0.0047682836 0.00309773 -0.032098565 -0.083991215
000120 10 f6 80 bc f5 ca 64 bd aa f1 dd bc 1f 55 84 bd
       -0.015742332 -0.055857617 -0.027092773 -0.06461548
000130 66 75 1c 3d 5a 5b af bd 49 9c e9 bc 52 74 11 3d
       0.038197897 -0.08562346 -0.028516905 0.035511322
000140 61 2c 6a 3d 75 6e 73 bd 51 4d af bd 3a bc 9f 3c
       0.05717123 -0.059431512 -0.08559669 0.019498933
000150 b1 3c 69 3d ff e6 9d bc a1 02 5f 3d 8f 36 a5 3d
       0.056942645 -0.019275187 0.054445866 0.08067047
000160 14 89 a2 3d 7c ec a4 3c eb 1e 56 3b 5a 39 24 bd
       0.07936302 0.020132296 0.0032672237 -0.040093757
000170 76 c4 51 3d ac ca 89 bd fb 71 06 3d 13 c1 15 bc
       0.05121275 -0.0672811 0.032823544 -0.009140271
000180 9f 09 f2 bc 51 49 af bd 36 b8 57 bd 21 7b 9c 3d
       -0.029545603 -0.08558906 -0.05266591 0.076406725
000190 ff d9 fb 3b 50 90 88 bd ff 44 68 3d 3e f9 0b 3d
       0.0076858993 -0.066681504 0.056706425 0.034173243
0001a0 5f 7c 9d 3d 51 30 52 3d 3c 74 b4 3d 57 de 57 3b
       0.076897375 0.05131561 0.088112324 0.0032938921
0001b0 bd ee bd 3c 76 c4 64 bd d0 a7 95 bd 71 7a 83 bd
       0.023185128 -0.055851422 -0.07307398 -0.06419838
0001c0 0a a2 35 3d 19 ba d3 bc 51 89 c9 3c 47 2e 25 bd
       0.044343986 -0.025845574 0.02460161 -0.040327337
0001d0 f4 1f d2 bc c0 88 84 3d 4c 92 04 3d 9f 78 7e bd
       -0.025650002 0.064713955 0.032366082 -0.062126752
0001e0 0c 68 6d bd e0 be a8 bd fb 0d c7 3c ac ee a4 3c
       -0.057960555 -0.082395315 0.024298659 0.020133339
0001f0 c6 8e c1 3c 94 6f 59 3d 4a dc a9 3d 40 96 bf 3b
       0.02362765 0.053084925 0.0829397 0.0058467686
000200 0c 15 a7 3d 37 fa 8e 3d a0 b8 02 bd be 23 59 3c
       0.08158311 0.069813184 -0.031914353 0.0132531505
000210 cb ae 88 bd 0f 40 0b bd 98 d9 97 3d 4c f7 16 3d
       -0.06673964 -0.033996638 0.074145496 0.036856934
000220 89 af a9 3d 40 2b 95 3d 21 b1 2d bc 8c 61 5f 3d
       0.08285434 0.0728364 -0.010601313 0.054536387
000230 ee 5c 61 bc d3 11 fe bc 59 d4 a6 bd 2d 6b c9 bc
       -0.013755066 -0.031014359 -0.08145971 -0.024587238
000240 f1 ac 4c bd f4 b4 15 bd 25 6a a7 3d 61 e5 a6 bc
       -0.049969617 -0.036549523 0.08174542 -0.020373048
000250 b5 0c 24 3c aa 79 95 3d 74 c5 af 3d b4 b6 25 3d
       0.010012795 0.07298596 0.08582583 0.040457442
000260 10 cd 82 3d 53 f1 ac 3c 33 37 54 bd fe 54 3c bd
       0.06386769 0.021111166 -0.051810455 -0.045979492
000270 07 c5 9f 3d 35 5c 14 3d fd 19 83 bd 7b 82 27 3d
       0.07801252 0.036220748 -0.06401441 0.04089592
000280 28 74 fe bc 4c 58 96 bd 80 8e fd 3c d3 b5 d9 bc
       -0.031061247 -0.0734106 0.030951738 -0.026575958
000290 7d 65 a3 3d 49 85 e4 bc 0c 57 38 bd 60 73 b4 3d
       0.07978342 -0.027895587 -0.04500489 0.088110685
0002a0 d1 ae 14 bd a7 59 e2 bc 03 3c cf bc 72 ff 89 3d
       -0.03629953 -0.02763064 -0.02529717 0.067381755
0002b0 e9 3b 3c bd 24 f1 8d bd 79 97 5b bd 4a 01 92 bc
       -0.045955572 -0.069307595 -0.053611252 -0.01782288
0002c0 a7 8d a6 3b 4e 73 5a 3d 07 62 4d 3c fd 97 89 bd
       0.0050828042 0.05333262 0.012535579 -0.067184426
0002d0 2d 86 6f 3b 7f 4a 38 bd 0c 9c 16 3d 6b 71 90 bd
       0.003654848 -0.04499292 0.03676991 -0.07052883
0002e0 f1 22 a3 bc 43 db 69 bd 45 f1 86 3d b6 36 2f bd
       -0.019914122 -0.05709387 0.06588987 -0.042776786
0002f0 8a ae ed bb a1 b7 08 bd 19 a5 59 bc 2e 09 68 3d
       -0.0072534727 -0.033378247 -0.013283991 0.05664938
000300 e9 61 a9 bc 5a 5f 56 3d f5 1d 89 3d c1 5c c3 bc
       -0.02067657 0.052337028 0.06695167 -0.02384794
000310 64 ff bf 3c cc 92 9f bb 2b cf b0 3d 48 7b d2 3c
       0.02343721 -0.0048697945 0.08633264 0.02569355
000320 1a c8 37 bc 42 fb b2 bc 26 58 b0 3c ec 45 55 3c
       -0.0112171415 -0.021848325 0.021526407 0.013017159
000330 ab 7c ec bc 71 1a 3d 3d 68 6b ab 3d 6b cd 06 3d
       -0.02886804 0.046167795 0.083700955 0.032910746
000340 96 15 6a bd a2 38 c6 bc fe 6b 8e 3d 42 5f 87 3d
       -0.057149492 -0.024196927 0.069541916 0.06609966
000350 46 67 87 3d ea c7 04 bd c4 54 52 3b 9f 9e 84 3d
       0.06611495 -0.032417215 0.0032093981 0.06475567
000360 cc 1b ec 3c dd 53 d6 3b 2a 87 be bc c8 35 25 3c
       0.028821848 0.006540759 -0.02325781 0.010083623
000370 67 19 a6 bd 00 9a f7 3c 0f 6c 8a 3d a0 2d 3e 3d
       -0.08110314 0.0302248 0.06758892 0.04643023
000380 3e 8e b2 bd bc 2c 48 bb 6f a7 08 bd f3 96 0e 3d
       -0.08718537 -0.0030544242 -0.033362802 0.034811925
000390 0c f3 56 bb 39 de 95 3c 25 ad 88 bb 75 d1 8a bd
       -0.0032798676 0.01829444 -0.004171031 -0.06778232
0003a0 bc 22 6c 3d 8f e9 ad 3d 76 f2 65 bb 91 e1 24 bd
       0.057650313 0.084918134 -0.0035087145 -0.04025418
0003b0 35 54 a5 3c f4 23 4e bd ad 3c 6c 3c ba d0 3c bd
       0.020181755 -0.050327256 0.014418763 -0.046097495
0003c0 2b 08 82 3d 5f 7a 9b 3d 0e 79 aa 3d f0 4d 4a bd
       0.06349214 0.075917 0.083238706 -0.049390733
0003d0 b0 22 83 bd 45 0b 8d 3d 11 e7 87 bc e5 75 60 3d
       -0.064031005 0.06886915 -0.016589673 0.054799933
0003e0 35 6c 70 bc 70 43 1a bd 51 ca 23 bd e5 2d f4 3c
       -0.014674236 -0.03766197 -0.039987866 0.02980704
0003f0 a2 3f 56 3d 3b 11 0e 3d f6 a7 11 bd d7 18 86 3c
       0.05230678 0.0346844 -0.03556057 0.016369266
