init_arxiv/init_params/ogb-arxiv_GCN_32_32/init_encoder.pt (torch, 32385 bytes, 8 tensors)

convs.0.bias f4 [32]
000000 00 00 00 00 00 00 00 00 00 00 00 00 00 00 00 00
       0.0 0.0 0.0 0.0
000010 00 00 00 00 00 00 00 00 00 00 00 00 00 00 00 00
       0.0 0.0 0.0 0.0
000020 00 00 00 00 00 00 00 00 00 00 00 00 00 00 00 00
       0.0 0.0 0.0 0.0
000030 00 00 00 00 00 00 00 00 00 00 00 00 00 00 00 00
       0.0 0.0 0.0 0.0
000040 00 00 00 00 00 00 00 00 00 00 00 00 00 00 00 00
       0.0 0.0 0.0 0.0
000050 00 00 00 00 00 00 00 00 00 00 00 00 00 00 00 00
       0.0 0.0 0.0 0.0
000060 00 00 00 00 00 00 00 00 00 00 00 00 00 00 00 00
       0.0 0.0 0.0 0.0
000070 00 00 00 00 00 00 00 00 00 00 00 00 00 00 00 00
       0.0 0.0 0.0 0.0

convs.0.lin.weight f4 [32, 128]
000000 26 40 10 3e 10 e5 a7 bc f6 6c a6 bd bd 10 cf 3d
       0.1408697 -0.020494968 -0.081262514 0.101106144
000010 c0 0e 86 3c b8 6b b0 bd d7 a5 39 3d 5b 3c 04 be
       0.016364455 -0.08614296 0.045324173 -0.12913649
000020 bf 4c 38 3e 7b ce 2d 3e d8 e6 b6 3d 17 cf d1 3d
       0.17998026 0.16973297 0.08930749 0.102445774
000030 48 1e 45 be 1b 76 dc bd 80 d0 3e be f6 b4 ce bd
       -0.19249833 -0.10764714 -0.18634224 -0.10093109
000040 17 67 24 be e9 f5 11 3e 92 f7 d5 3d 21 8f e9 3d
       -0.1605495 0.14253964 0.10447611 0.11404253
000050 cc 0f b0 bd a5 23 17 3e 0f 3b e5 bc 78 81 4d bd
       -0.08596763 0.14759691 -0.027982263 -0.0501723
000060 f0 89 d5 3d 7f 51 03 3e 9e 85 0e be cb c8 3c 3e
       0.104267 0.12824057 -0.13918158 0.18435971
000070 a8 1c a0 bc ee 41 53 3d 8b 73 45 be 98 9a b0 3c
       -0.019544914 0.051576547 -0.19282357 0.021558091
000080 d2 47 c4 bd c6 52 f8 bd 91 96 a5 bd bb 76 6c ba
       -0.09584011 -0.12125163 -0.08085359 -0.0009020378
000090 cf f6 61 bd 33 0e fe bd 38 fa 0d 3e f5 f8 6b 3d
       -0.055167016 -0.12405052 0.13864982 0.05761047
0000a0 35 8b 38 be 8a 62 26 3d 7e d8 42 3d 32 2b e9 3b
       -0.18021853 0.040621318 0.047569744 0.007115745
0000b0 2c 9b 40 3d 74 d1 84 bc 7f 72 ad 3d cd 98 0b be
       0.047022983 -0.016213156 0.08469104 -0.13632508
0000c0 a8 19 a9 bd 9a 8b 14 3e ad b4 f5 bd cd 94 c2 3d
       -0.08256847 0.14506379 -0.11997352 0.09501038
0000d0 7f 7a 37 3e 1e 53 35 be dc bf ad bd aa 38 29 3e
       0.17917822 -0.17707488 -0.0848386 0.16525522
0000e0 b9 d8 3f bc fc 95 1c 3d a5 c5 e1 3c 93 6f a3 3d
       -0.011709386 0.038228974 0.027560065 0.079802655
0000f0 b9 68 a3 bd 58 f2 cd 3c 73 13 07 3e a7 d4 85 bc
       -0.07978959 0.025139973 0.13191013 -0.016336752
000100 b7 ed 35 be ac 15 89 3d 51 7d 4a bd 64 56 27 bd
       -0.17766462 0.06693587 -0.049435917 -0.040853873
000110 67 d6 ce 3d 41 02 0b 3d 8a eb ef bd 22 04 b7 bd
       0.10099488 0.033937696 -0.117148474 -0.08936335
000120 e3 24 f1 bc 0a f8 43 bd df ea 27 bd a1 89 07 be
       -0.029436534 -0.04784397 -0.040995475 -0.13236095
000130 c1 a6 0f 3e 9a ae cd 3d 42 88 1c 3d 30 98 33 3d
       0.14028455 0.10043068 0.038215883 0.04384631
000140 c3 b6 b9 3c f3 45 14 3e b2 7b 33 3d d8 a7 f1 3c
       0.022670155 0.14479809 0.043819137 0.02949898
000150 06 03 da bd da 4c 84 3d 0f 84 39 be 7a 29 7a 3d
       -0.10645108 0.06459971 -0.18116783 0.06107471
000160 ab e1 2b be 8c 23 a4 bd 85 60 d1 3d 43 37 ec bd
       -0.16785304 -0.080145925 0.10223488 -0.11533978
000170 fd e5 1d 3e 42 20 db bd 2b d3 3b 3e 44 78 74 3d
       0.15419765 -0.10699512 0.18342273 0.059685007
000180 8d dd ab bd bf df f1 3d 33 9c 2f be 04 3d fb bd
       -0.08391867 0.11810254 -0.17149429 -0.12267497
000190 42 78 f8 bd 89 d4 d0 3c a3 d9 9b 3c 74 8e 2a be
       -0.12132312 0.02549197 0.019024676 -0.16655904
0001a0 3c 59 3f 3e 89 0f 42 b9 95 c7 d3 bd df 91 97 3b
       0.18686384 -0.00018507069 -0.103408016 0.0046255435
0001b0 35 3d aa bd 7f d5 5a 3d 0e 92 8f 3d 0f ff 60 bd
       -0.083124556 0.053426262 0.070102796 -0.054930743
0001c0 19 f7 38 3c f0 f9 eb 3d 79 fa 00 be 06 df 30 bd
       0.011289381 0.11522281 -0.12595548 -0.04318144
0001d0 79 07 ea bc 18 32 03 be af 34 81 3c 9f 36 e9 3b
       -0.028568016 -0.12812078 0.015772192 0.007117107
0001e0 83 2b 20 be 40 b6 22 3d 81 44 3d 3e 13 f2 d2 3d
       -0.15641598 0.03972459 0.18483163 0.10300078
0001f0 9d 20 d7 bd a5 83 35 3e d9 4e 08 be 73 a5 c9 bd
       -0.10504267 0.17726 -0.13311328 -0.0984601
000200 45 ef ae 3d d7 c0 1d 3e 5a 3b 3d 3e f2 b7 2a 3e
       0.08541731 0.15405594 0.18479672 0.16671732
000210 ec 61 da bd 98 80 35 3d d2 06 f9 bd 1f 21 8c 3b
       -0.10663208 0.04431209 -0.12159504 0.0042764093
000220 33 4a 24 3e 84 47 c3 3d 1f 1a 37 be d8 ae aa bd
       0.1604393 0.09535125 -0.17881058 -0.0833413
000230 a5 4f 27 be e7 d2 ba 3d dd 61 c9 bc a0 f5 10 be
       -0.16338976 0.09122258 -0.024582798 -0.14156199
000240 47 75 7d bd d9 25 82 3d aa dd 92 3c 34 10 3a 3e
       -0.061879423 0.06354875 0.017927963 0.18170244
000250 ce 7d 28 bb 9d 80 79 3d 1c 47 70 bd 83 4c bd 3c
       -0.002570975 0.06091367 -0.058661565 0.023107773
000260 52 51 e3 3b 4c 55 2a 3e 46 2d a6 3d f7 03 e2 bd
       0.0069371844 0.166341 0.08114104 -0.110359125
000270 b4 32 30 be d1 aa 3c be b5 06 90 bd 1d 10 cd 3c
       -0.17206842 -0.18424536 -0.07032529 0.025032097
000280 05 8d 3a 3e 55 de 9b bc 7c 10 9b 3d 12 8f c9 3d
       0.18217857 -0.019026915 0.075715035 0.098417416
000290 38 e5 17 be bf 08 24 be 90 46 96 3d 1d db b8 3d
       -0.14833534 -0.16018961 0.073376775 0.090261675
0002a0 fb aa b8 bd 02 99 f8 3c 8f 27 42 be 61 f7 1f 3b
       -0.09016987 0.030346397 -0.18960403 0.0024408924
0002b0 9f 6d 42 3d 4d 41 f0 3a 15 ce fb bc ef 12 a5 3d
       0.047467824 0.0018330008 -0.030737916 0.08060252
0002c0 46 05 5a bd 61 9c 13 3e 80 cc 2a be e5 a6 e2 bd
       -0.053227685 0.14415123 -0.16679573 -0.11066989
0002d0 6e 8b 25 be 0f 57 33 be 0a 02 13 3e d3 4a 44 bd
       -0.1616647 -0.17513679 0.14356247 -0.04792292
0002e0 76 c4 1b be be 83 24 3d 4f 29 16 be 88 02 24 3c
       -0.15211663 0.0401647 -0.14664195 0.010010369
0002f0 90 88 bc 3d 84 b9 27 bd 13 e1 cb 3d 22 cc 22 3d
       0.09205735 -0.040948406 0.09955039 0.039745457
000300 0e 1f 1f be 0d 1d 1c 3d 1d a9 ff 3d 5d e0 37 bd
       -0.1553919 0.038113642 0.12483428 -0.044891704
000310 51 ed 95 3c 56 61 ca 3c 67 6a 88 3c 24 30 4e 3d
       0.018301638 0.024704617 0.0166523 0.05033888
000320 6e dc 3d be 66 73 16 3e e6 f8 ac 3d f9 e6 c3 3c
       -0.18541119 0.14692459 0.08445911 0.023913847
000330 12 54 10 3d 83 eb 1f be b3 78 62 bd 11 01 0a bc
       0.035236426 -0.15617184 -0.05529089 -0.008423106
000340 44 8c 3c 3d 0f 8e d9 bd 3c 52 a8 3c eb 29 76 bd
       0.046032205 -0.10622799 0.020547025 -0.06009857
000350 0e 56 10 3e d3 35 2a be 04 d4 a5 3c 51 58 06 3e
       0.14095327 -0.16622095 0.020242698 0.13119628
000360 78 03 1a be e1 de b5 bb 50 43 b7 3d 16 09 a0 3d
       -0.15040386 -0.005550251 0.08948386 0.07814233
000370 d3 8e ba 3c 3b 51 a0 3d 67 3b 0a be 90 28 25 3e
       0.022773182 0.078279935 -0.13499223 0.16128755
000380 68 86 8d 3b 36 2e 00 3e 00 78 2f 3d e2 7a b0 bc
       0.004319001 0.12517628 0.04283905 -0.02154297
000390 38 e0 a9 3d 43 3e 3c 3e 6f 9a 43 3e 61 ea 26 be
       0.082947195 0.18383126 0.1910188 -0.16300346
0003a0 dd 6c 40 3c a2 73 0e be 17 13 e7 3d 2c 5b 0e 3e
       0.011744705 -0.13911298 0.11282938 0.13901967
0003b0 56 3e 0b be fb 5e 37 bc 94 37 09 3e 8e 22 03 3e
       -0.13597998 -0.011192079 0.13400108 0.1280615
0003c0 e2 17 15 be 77 24 05 3e e9 6c 0c bd 58 a5 28 be
       -0.14559892 0.13002191 -0.034283552 -0.16469324
0003d0 8b 00 1e 3d 06 c2 b8 3d 6e d8 ed 3d 96 d3 06 be
       0.038574737 0.09021382 0.11613546 -0.13166651
0003e0 76 9f 0f be dd 3b 05 be 20 c1 e0 3d c0 4e 2d be
       -0.14025673 -0.13011117 0.10974336 -0.16924572
0003f0 a5 08 d6 ba 29 16 69 bd 91 27 ad 3d ea c4 1b 3d
       -0.001632948 -0.0569059 0.08454812 0.03802959

convs.1.bias f4 [32]
000000 00 00 00 00 00 00 00 00 00 00 00 00 00 00 00 00
       0.0 0.0 0.0 0.0
000010 00 00 00 00 00 00 00 00 00 00 00 00 00 00 00 00
       0.0 0.0 0.0 0.0
000020 00 00 00 00 00 00 00 00 00 00 00 00 00 00 00 00
       0.0 0.0 0.0 0.0
000030 00 00 00 00 00 00 00 00 00 00 00 00 00 00 00 00
       0.0 0.0 0.0 0.0
000040 00 00 00 00 00 00 00 00 00 00 00 00 00 00 00 00
       0.0 0.0 0.0 0.0
000050 00 00 00 00 00 00 00 00 00 00 00 00 00 00 00 00
       0.0 0.0 0.0 0.0
000060 00 00 00 00 00 00 00 00 00 00 00 00 00 00 00 00
       0.0 0.0 0.0 0.0
000070 00 00 00 00 00 00 00 00 00 00 00 00 00 00 00 00
       0.0 0.0 0.0 0.0

convs.1.lin.weight f4 [32, 32]
000000 d3 08 fa bd fb 72 f3 3c 80 c3 12 be fd cf 45 3d
       -0.12208714 0.029717913 -0.1433239 0.048294056
000010 0e 68 8d bd 51 5c 4a be 2f 5b 8c 3c d1 0d f2 3d
       -0.069046125 -0.19761778 0.017133323 0.118190415
000020 a3 04 67 bd 65 ce b7 3b 20 73 9b be 8b 0c d6 bd
       -0.056400906 0.005609321 -0.3036127 -0.10451611
000030 fb 08 9c be c1 b3 9b 3e e3 bc 85 3e 16 e1 87 be
       -0.30475602 0.3041058 0.26120672 -0.26538914
000040 29 29 71 be b7 f1 84 be cc 95 34 3e e9 45 83 3d
       -0.23550858 -0.25965664 0.17635268 0.06409819
000050 73 d6 90 be 24 3d c2 bd 5d 84 6b 3e 2b 9a 48 bb
       -0.28288612 -0.09484318 0.22999711 -0.003060947
000060 1d a4 8d be d1 8e d9 3d d7 da 9b 3e 10 f4 8e 3e
       -0.2766427 0.10622943 0.304404 0.2792058
000070 52 3c db 3c bf 5c ac bd 96 fe 02 3d 1f 50 67 3e
       0.026762161 -0.084161274 0.031981073 0.22589158
000080 ce 5b 07 3e 74 08 82 be 75 31 25 3e 40 1e 4c 3e
       0.13218614 -0.25397074 0.16132148 0.19933414
000090 51 33 85 be c6 8d 5c be aa 66 56 3e 00 27 26 3e
       -0.26015714 -0.21538457 0.209376 0.16225815
0000a0 8a f7 88 be 1f e0 ac 3d 07 56 3d 3e bb 00 7e 3d
       -0.26751357 0.08441185 0.18489848 0.062012415
0000b0 72 3d 27 3e 27 7e ca 3d e9 28 b4 3d 61 c3 36 3e
       0.16332033 0.09887343 0.087968655 0.17847969
0000c0 5f a2 d5 bd dc b8 db 3a ed d4 97 bd 39 68 63 bd
       -0.104313605 0.0016763466 -0.07413659 -0.055519316
0000d0 e9 c7 f1 3d 48 e4 f2 bd ee 10 84 bc 17 8e 85 3e
       0.11805708 -0.118599474 -0.016121354 0.26084968
0000e0 d8 fd cd 3d 4d a2 99 3e e0 6a 68 bc 55 ec e2 bd
       0.100581825 0.30006638 -0.014185637 -0.11080233
0000f0 21 e2 89 3e e4 0e 45 be 32 4d 12 3e ed 90 84 3e
       0.26930335 -0.19243962 0.1428726 0.2589182
000100 4c 41 31 be f3 b2 7c bd 66 89 8d 3e f9 96 ca bc
       -0.17310065 -0.061694097 0.2764389 -0.024730192
000110 8f 86 89 be 28 de 2d be 5c 9a 93 be ab 08 74 bd
       -0.26860473 -0.16979277 -0.28828704 -0.05957858
000120 6d 6d 2d 3e d9 87 27 bd 49 13 6a bd d5 f5 cc 3c
       0.16936274 -0.04090104 -0.057147298 0.025019566
000130 08 5c ca bc 92 ca 5e bd f7 ab c6 bd aa c9 1a 3d
       -0.024702087 -0.054392405 -0.097007684 0.037789978
000140 b5 76 98 bc 28 cf 33 bd ce b1 9e bd 3b 5d a3 3d
       -0.018611291 -0.04389873 -0.07748757 0.07976767
000150 3b 1d ef bd bc 70 90 bc 42 fa 3f bd b5 dd 5c 3e
       -0.11675497 -0.017631881 -0.046869524 0.2156895
000160 dc 6d 03 3e 68 60 03 3e a2 0c f6 ba 5f a5 46 be
       0.12834877 0.12829745 -0.0018772075 -0.19399022
000170 c9 ea a7 3c 54 4a 76 be 44 47 db 3b a1 d5 99 3e
       0.020497696 -0.24051791 0.006691845 0.30045798
000180 4d 4e 34 bd 82 bd 95 3e d4 41 43 be 0a 5a 76 3e
       -0.044019986 0.29246145 -0.1906808 0.24057785
000190 f0 6f eb 3d f3 97 08 be 7b b9 9a be 0b 0a 0d be
       0.1149596 -0.13339214 -0.30219635 -0.13773362
0001a0 91 9a 13 3e a5 62 97 3e 1b 2c 7c be aa ff 0c be
       0.14414431 0.29567447 -0.246262 -0.13769403
0001b0 15 13 df 3d b7 1f 9c bd cd 9e 85 be fb f3 d2 bd
       0.108923115 -0.076232366 -0.26097718 -0.10300442
0001c0 aa c7 c7 3d 2a 81 98 be 48 fe e8 bd bd 2e 38 3e
       0.0975488 -0.29786044 -0.11376625 0.17986579
0001d0 04 65 15 3e 05 05 06 be 2c e1 91 3e 9e b5 49 3d
       0.14589316 -0.13087852 0.28492105 0.04924547
0001e0 71 00 16 3e a6 39 d8 bc eb 42 ee bd d5 da 87 3e
       0.14648606 -0.026394676 -0.11633857 0.26534143
0001f0 d4 a5 92 be 18 cc db 3d 17 a3 09 be 7c 55 c6 bd
       -0.28642142 0.10732287 -0.1344112 -0.096842736
000200 44 58 6f 3e 61 e3 8e be da 81 28 bd 28 dc d4 bd
       0.23373514 -0.2790785 -0.04113946 -0.10393554
000210 49 d2 65 3e 5b 88 6d be 00 d9 75 bd 34 2d fa bd
       0.22443499 -0.23196547 -0.0600214 -0.12215653
000220 ae 57 69 3e b7 3d 76 3e 35 1b cf 3b 93 c6 fb 3d
       0.22787353 0.2404698 0.006320382 0.122937344
000230 e6 9e 9c 3e ff a9 86 be 6c 2e bc 3b 23 03 8f 3e
       0.3058998 -0.26301572 0.0057428386 0.2793208
000240 15 f1 a3 bd dd 24 68 be 74 d7 8a 3e e6 85 94 3e
       -0.08004967 -0.22670312 0.27117503 0.29008406
000250 9b ed 38 3e 67 ad 6b 3e be 1c d7 bc 3a 9d 59 be
       0.1805939 0.23015366 -0.026258823 -0.21251383
000260 fb a2 8a be 2d 46 02 3e d8 a4 af bd ba 48 99 3e
       -0.2707747 0.12722082 -0.08576363 0.29938298
000270 07 fe 0b 3d 71 5a 4b 3e 2f ad a1 3c f3 19 90 bd
       0.034177806 0.1985872 0.0197359 -0.070361994
000280 8e 21 f1 bd a9 da 85 be f0 68 98 be bd 62 80 bd
       -0.11773978 -0.26143387 -0.2976756 -0.06268833
000290 f3 29 88 be 21 a6 9c be 55 48 1c 3e 76 dc 09 be
       -0.26594505 -0.30595496 0.15261967 -0.13463005
0002a0 f2 1b b5 39 71 d8 a0 bd 1a 14 6c be 1b 9c bf bd
       0.0003454383 -0.07853783 -0.23054543 -0.09355947
0002b0 c3 59 49 be 45 16 62 3d 7c 40 93 3e 13 ff 94 bd
       -0.19663148 0.05519702 0.28760135 -0.07275214
0002c0 c2 c0 32 3d 56 f1 32 3e 2e fe 08 3e 72 5e d6 3c
       0.04364086 0.17474875 0.13378212 0.026168082
0002d0 41 1a d7 bd 01 73 75 bd db 90 2c bd aa 82 9c 3e
       -0.105030544 -0.05992413 -0.042130332 0.3056844
0002e0 2d 13 31 3d 92 38 4d 3e b5 c4 32 3e 33 29 81 3e
       0.043231178 0.20041111 0.1745785 0.25226745
0002f0 5d 6b 58 3d 85 90 ad 3b a0 5c b5 bd 52 63 48 3e
       0.052836765 0.005296769 -0.088555574 0.19569138
000300 9d 99 69 3e e1 a8 73 3e 46 30 8b be a2 2d b2 3c
       0.22812505 0.23794891 -0.27185267 0.021750275
000310 c5 7e 3f be 61 92 4e be 7a d3 88 be e7 72 ef bd
       -0.18700702 -0.20173027 -0.26723844 -0.11691838
000320 19 23 8c 3e fe 8c 2f 3e 01 b7 58 be ba dc 81 bd
       0.27370527 0.17143628 -0.2116356 -0.063409284
000330 88 7b 09 3e f4 f0 37 3e 25 0e 63 3e 3b ea 24 be
       0.1342603 0.1796301 0.22173364 -0.16104977
000340 0a 0e fd bd 53 ac 29 3e 0f 0d 89 3d 8e b9 21 be
       -0.12356193 0.16569643 0.06691944 -0.1579344
000350 84 77 6d be d0 d7 91 bc ae 35 85 3e 02 49 f8 bd
       -0.23190123 -0.017803103 0.26017517 -0.121233
000360 6a 42 2e bd c6 2f ed 3d ab d3 82 be 32 ba fd bd
       -0.042543806 0.11581378 -0.25552115 -0.123890296
000370 ed da 31 3d 96 1b 0f be 00 33 75 3e e6 99 31 bd
       0.043421675 -0.13975367 0.23945236 -0.04335966
000380 d7 e2 04 3e b0 0b 68 bd 57 c0 10 bd 89 15 8f 3e
       0.12977158 -0.05665177 -0.03533968 0.27946118
000390 eb a3 79 be 3c 26 5a be 82 1a e9 bd 72 78 6e 3d
       -0.24378936 -0.21303648 -0.11382009 0.058220334
0003a0 26 10 b8 bd a1 12 c5 3d 37 a7 10 be 5c a8 e8 3d
       -0.08987455 0.09622694 -0.14126287 0.11360237
0003b0 34 37 92 be 56 05 3e 3c b0 44 26 3e 7d 08 5a 3d
       -0.28557742 0.011597952 0.1623714 0.05323075
0003c0 92 06 0a be a2 d8 e9 bd e1 8c 88 3d 84 5e 58 be
       -0.13479069 -0.114182726 0.066674955 -0.21129805
0003d0 4d 7c 73 be d8 df 81 bb 66 c5 85 be 06 74 8c 3d
       -0.23777886 -0.003963452 -0.26127166 0.06858067
0003e0 16 30 4f be 48 36 2d 3e f0 e4 36 3e e3 2e 7d 3e
       -0.20233187 0.16915238 0.1786077 0.24724917
0003f0 71 7d 47 be f8 2c 6a 3c 22 7f 91 3e 19 c0 9c bd
       -0.19481446 0.014292948 0.28417307 -0.07653827

convs.2.bias f4 [32]
000000 00 00 00 00 00 00 00 00 00 00 00 00 00 00 00 00
       0.0 0.0 0.0 0.0
000010 00 00 00 00 00 00 00 00 00 00 00 00 00 00 00 00
       0.0 0.0 0.0 0.0
000020 00 00 00 00 00 00 00 00 00 00 00 00 00 00 00 00
       0.0 0.0 0.0 0.0
000030 00 00 00 00 00 00 00 00 00 00 00 00 00 00 00 00
       0.0 0.0 0.0 0.0
000040 00 00 00 00 00 00 00 00 00 00 00 00 00 00 00 00
       0.0 0.0 0.0 0.0
000050 00 00 00 00 00 00 00 00 00 00 00 00 00 00 00 00
       0.0 0.0 0.0 0.0
000060 00 00 00 00 00 00 00 00 00 00 00 00 00 00 00 00
       0.0 0.0 0.0 0.0
000070 00 00 00 00 00 00 00 00 00 00 00 00 00 00 00 00
       0.0 0.0 0.0 0.0

convs.2.lin.weight f4 [32, 32]
000000 f2 ce 44 3c 01 85 b3 3d d2 f2 90 be 58 91 81 3d
       0.01201223 0.08765603 -0.28310257 0.0632655
000010 69 86 21 3d d4 53 91 be 1b b5 57 3d 55 4a e9 3d
       0.039434824 -0.28384268 0.05266295 0.11391131
000020 18 fb f8 bb ab cf 90 be 1c d5 88 3e 8b 00 83 be
       -0.007598292 -0.28283438 0.2672509 -0.25586352
000030 f9 df 39 3e 3c 27 4c 3c 94 34 a8 bd 9c c8 5e be
       0.18151845 0.012460526 -0.082131535 -0.21756214
000040 7c a6 89 3e 41 de 76 3e e3 ec 4f be 84 45 32 bd
       0.2688483 0.2410822 -0.20305209 -0.043523327
000050 69 5d 50 be 5f 4e 23 be 9d 9d 03 bd b2 00 8d 3e
       -0.20348133 -0.15947865 -0.032132734 0.27539593
000060 e2 d7 78 bc b0 e2 99 3e a8 26 9b be 26 69 80 bd
       -0.015188189 0.3005576 -0.3030293 -0.062700555
000070 00 eb 31 3d a0 e6 10 be 1c b0 1b 3c 39 cf fb ba
       0.043437004 -0.14150476 0.009502437 -0.0019211537
000080 28 36 5b 3e d8 05 20 bd d8 62 46 bd 32 27 33 3e
       0.21407378 -0.039068073 -0.04843411 0.1749542
000090 d3 64 e4 bd e4 78 4b 3e 20 57 84 3e e4 26 38 be
       -0.11152043 0.19870335 0.2584772 -0.17983586
0000a0 7b 0e 1b 3d 86 36 9e bd 57 2a 75 3e 26 5a 1f bd
       0.037855607 -0.07725243 0.23941933 -0.03890433
0000b0 74 4f 6e bd 4e 8a 4b 3e d9 af 42 3d 97 bd 4f 3e
       -0.05818124 0.19876978 0.047530983 0.20287167
0000c0 f7 7f ec bd 93 e7 88 be 29 0d 4f 3d 36 d1 82 3e
       -0.11547845 -0.26739177 0.05054966 0.2555024
0000d0 18 b4 6c 3e 7f 40 07 be 89 de 8a 3e 6a cb 42 be
       0.23115575 -0.13208197 0.27122906 -0.19022909
0000e0 f8 b8 92 3e 82 04 95 bc 5d 82 20 be d7 4c 89 3d
       0.28656745 -0.018190626 -0.1567473 0.06704109
0000f0 30 12 80 3e 92 a5 46 3e 76 a7 21 be bd 1e 9c 3d
       0.25013876 0.19399098 -0.15786538 0.0762305
000100 f3 46 f3 3d be d4 96 bd 07 21 0e 3d 97 06 94 3e
       0.11878767 -0.07364796 0.034699466 0.28911278
000110 e4 61 a6 bd 87 f2 72 3e fa 6c 85 be 09 73 e9 bd
       -0.0812414 0.2372533 -0.26059705 -0.11398894
000120 cb 52 91 3d 27 a5 f8 bd 1c 14 6b be 38 ea 4e bd
       0.0709587 -0.12140875 -0.2295689 -0.050516337
000130 2d 63 15 be 95 63 fd 3d 0d a4 16 3e 44 6e 5d be
       -0.14588614 0.123725094 0.14711018 -0.21624094
000140 66 70 2c 3e 3d 13 3b 3e e9 be 49 3e cd 86 48 be
       0.16839752 0.18269058 0.19701733 -0.19582672
000150 af a0 78 be 3f 47 2b bc f0 c3 d9 3d 7a b6 0e 3e
       -0.24280046 -0.010453998 0.10633075 0.13936797
000160 28 05 71 be 67 df 80 3e 3e c4 97 3e e3 28 c5 bc
       -0.23537123 0.25170442 0.29641908 -0.024067348
000170 a5 b9 46 3d f6 92 5a 3d ec 83 68 be 6c 2a 95 be
       0.04851689 0.05336281 -0.22706574 -0.29133928
000180 d6 ff 41 3e 9d e1 7c 3e 6e 59 01 bc bd 50 88 be
       0.1894525 0.2469544 -0.007894857 -0.26624098
000190 a1 09 4e 3c 3b 47 4d be 55 c0 d6 3d d5 49 8f 3e
       0.012575538 -0.20046704 0.10485903 0.27986017
0001a0 e7 97 9c 3e 95 37 81 3e e9 fa 8f 3d 43 f5 99 3e
       0.30584642 0.25237718 0.07030279 0.30069932
0001b0 84 81 72 bd 00 48 26 bc c9 5d 57 be 87 6a 02 3e
       -0.059205547 -0.010149002 -0.2103187 0.1273595
0001c0 0c 00 f5 3d c1 ff fd 3d 38 be 61 3e 4e 97 87 3e
       0.119628996 0.12402297 0.22045219 0.26482624
0001d0 85 20 94 be 30 b1 b1 bd 29 a3 7a be df 44 6e 3e
       -0.2893106 -0.08676374 -0.24476303 0.2326846
0001e0 3a 1f 1d bc 94 63 8b be e8 13 05 3e 41 2e 40 be
       -0.0095899645 -0.2722441 0.12995875 -0.18767644
0001f0 7c df b9 bb 76 3a 27 3e f1 63 2e 3e ea da 42 3e
       -0.0056723934 0.16330895 0.17030312 0.19028822
000200 e1 76 b5 bb 55 64 f4 bc 9a b7 67 bc 5d 7e 9a be
       -0.005537853 -0.029832998 -0.014142895 -0.30174533
000210 ed dc de bd 02 9a 6e 3e d9 6f 20 3e 5f 6d 8f be
       -0.10881982 0.23300937 0.15667666 -0.2801313
000220 14 6a 9c 3d 43 07 90 3e c1 4f 79 be d3 54 fb bc
       0.0763742 0.2813054 -0.2434683 -0.030680096
000230 36 83 28 be e2 61 90 bb e3 bf 08 be ab 51 89 3e
       -0.16456303 -0.0044062 -0.13354449 0.2682012
000240 6e c9 22 3e 95 00 73 bd ed c4 87 be 07 d7 26 be
       0.15897152 -0.059326727 -0.2651743 -0.16292964
000250 c5 77 04 bd de c4 a8 3d 91 72 fd bd 02 0a 40 be
       -0.032340784 0.082406744 -0.123753674 -0.18753818
000260 bb f8 19 bd 1b 74 79 be 47 98 8b 3d 53 cb 8c be
       -0.037590723 -0.24360697 0.06816154 -0.27498874
000270 07 5c 55 bd 45 4e 83 be 2b b7 f5 bd db 22 5a 3b
       -0.052089717 -0.25645652 -0.11997827 0.0033284936
000280 62 e5 17 be 8f 7b 4d be 41 6e 0d 3d 78 2c 1f be
       -0.14833596 -0.20066665 0.034528974 -0.15544307
000290 f8 1a 89 3c 2c 8e 85 3d 26 bf 04 bd 0c 02 89 be
       0.016736493 0.06521258 -0.032408856 -0.26759374
0002a0 15 b5 b2 bd f0 1c fe bc 62 67 b9 3d 2c f3 7c be
       -0.08725945 -0.031019658 0.09052922 -0.24702138
0002b0 6d 01 5a 3e 11 e1 98 3d df 98 0f 3d eb 8d 92 3c
       0.21289606 0.07464803 0.0350579 0.017889937
0002c0 a4 4d 4e bd 15 d8 e2 3d 5d 71 5a 3e ae 82 7f bd
       -0.050367013 0.110763706 0.21332307 -0.062380485
0002d0 ca fe 05 3e ce a3 36 3e bc 9d 00 3e 8f b3 be 3a
       0.13085476 0.17835924 0.12560171 0.0014549362
0002e0 db a1 d9 3d e2 23 f4 3c 0e f1 45 3e 5f 13 b9 bd
       0.106265746 0.029802267 0.19330236 -0.09036898
0002f0 fe b7 2e 3d 47 5f 4d 3d 4b 24 95 be ae 24 9f 3d
       0.042655937 0.05013969 -0.29129252 0.07770668
000300 f8 01 59 be 0d a0 1b 3e c3 d2 79 bd e3 16 a7 3d
       -0.21192157 0.15197773 -0.060992014 0.08158662
000310 31 14 75 be 33 42 0d 3e 7c 11 4a 3e 75 dc df 3d
       -0.23933484 0.13794784 0.19733232 0.10930721
000320 e4 f1 b7 3d 37 1d 35 be ab 8c 8c 3e 31 12 ae 3d
       0.08981684 -0.17686926 0.2745107 0.084995635
000330 fb b3 93 be 46 b3 c8 bb 28 a3 0e 3c a6 8b d6 3d
       -0.28848252 -0.0061248867 0.008705892 0.104758546
000340 a2 da 68 3d 04 ad 75 3e d6 79 04 bd 97 8e 4e bd
       0.05684913 0.23991781 -0.032342754 -0.050428953
000350 2a a4 5c bc 6d 9d 3d 3e e8 82 89 be 01 ea 74 3e
       -0.013466874 0.18517084 -0.26857686 0.2391739
000360 fb f9 ee bd bb e6 2a 3e 29 f6 52 be 6c bc e1 bd
       -0.11668774 0.16689579 -0.20601715 -0.11022267
000370 50 6b 38 3c d0 d7 11 bd 4c 87 47 be 63 74 8d be
       0.011256054 -0.035606205 -0.19485205 -0.2762786
000380 07 65 82 be 42 be 93 3e c3 f4 1b 3e a6 07 cb bd
       -0.25467703 0.28856093 0.15230088 -0.09913568
000390 64 e5 40 3e 14 b3 29 bd ab 60 8d bc 68 72 3e be
       0.18837506 -0.041430548 -0.017258009 -0.1859833
0003a0 e1 c9 40 be e1 1f 52 3e 57 ac 9c 3e 77 52 9b be
       -0.1882701 0.20519973 0.30600235 -0.30336353
0003b0 ee 22 1c 3d 02 a6 8c 3d 7b 38 2b be 76 03 0b be
       0.03811925 0.06867601 -0.16720764 -0.13575539
0003c0 60 86 69 be 63 a1 aa 3d c9 04 96 3e e1 8f de 3d
       -0.22805166 0.08331563 0.29300526 0.108672865
0003d0 6c 0e 4b bd c8 da 93 3d 7a ce 4b be 9b 76 21 be
       -0.0495743 0.072194636 -0.19902983 -0.157679
0003e0 ae b2 c4 3d a2 c6 87 3e 6a 9a 14 bc 82 63 b8 bd
       0.09604393 0.26518732 -0.009070018 -0.090033546
0003f0 1a 3d f0 3c a2 66 9c be 0e a8 3d 3e d7 97 3f be
       0.02932601 -0.30547053 0.18521139 -0.18710266

convs.3.bias f4 [32]
000000 00 00 00 00 00 00 00 00 00 00 00 00 00 00 00 00
       0.0 0.0 0.0 0.0
000010 00 00 00 00 00 00 00 00 00 00 00 00 00 00 00 00
       0.0 0.0 0.0 0.0
000020 00 00 00 00 00 00 00 00 00 00 00 00 00 00 00 00
       0.0 0.0 0.0 0.0
000030 00 00 00 00 00 00 00 00 00 00 00 00 00 00 00 00
       0.0 0.0 0.0 0.0
000040 00 00 00 00 00 00 00 00 00 00 00 00 00 00 00 00
       0.0 0.0 0.0 0.0
000050 00 00 00 00 00 00 00 00 00 00 00 00 00 00 00 00
       0.0 0.0 0.0 0.0
000060 00 00 00 00 00 00 00 00 00 00 00 00 00 00 00 00
       0.0 0.0 0.0 0.0
000070 00 00 00 00 00 00 00 00 00 00 00 00 00 00 00 00
       0.0 0.0 0.0 0.0

convs.3.lin.weight f4 [32, 32]
000000 76 b9 91 bd ff 09 3e be 3a f3 3e 3e 5d b8 77 3e
       -0.07115452 -0.185585 0.18647471 0.24191423
000010 c5 0e 0a 3d e8 ab 18 bc 86 29 6b be 0c d4 8e be
       0.03370549 -0.009318329 -0.22965059 -0.27896154
000020 ed eb 71 be d7 25 68 be 91 fc 80 be ec 01 13 3e
       -0.23625155 -0.22670685 -0.25192693 0.14356202
000030 27 2b 6f be 0b 40 16 3e 82 9f 50 3e 0e 25 a2 ba
       -0.23356305 0.14672868 0.20373347 -0.0012370662
000040 03 8e 94 3d 8c b0 43 3e 29 29 8e be 43 69 87 3e
       0.07253649 0.19110316 -0.27765778 0.26447496
000050 41 60 9a 3e 03 98 95 3e a3 ca f4 bd f2 79 40 3e
       0.3015156 0.29217538 -0.119527124 0.18796518
000060 64 a5 e6 bd 3a 16 43 3d 04 1a 83 3e 8c 60 83 3d
       -0.112620145 0.04762862 0.25605786 0.06414899
000070 8c 51 e5 3d ce f0 a6 bd 3f d4 14 be 98 cc 7f 3e
       0.111971945 -0.081513986 -0.1453409 0.2498039
000080 d8 7b 8d be 4a 52 5b 3d e6 89 f2 bc 57 a0 b0 bd
       -0.27633548 0.053545274 -0.02960677 -0.086243324
000090 d0 24 99 be a0 70 3a be 1d f5 32 be e9 03 3d 3d
       -0.29910898 -0.18207026 -0.17476316 0.046146307
0000a0 66 95 f4 3d e2 7e 8e be c6 23 f1 bd 5c 7b 95 be
       0.11942558 -0.2783118 -0.11774401 -0.29195678
0000b0 4d 6a 56 3e a1 08 90 be ef c4 27 bd 27 fd 32 bd
       0.20938988 -0.28131583 -0.040959295 -0.043698456
0000c0 2d ea 2b be bd 3d 61 3e 8b 23 06 3e ab 9a 23 3e
       -0.1678855 0.21996208 0.13099496 0.1597697
0000d0 ab 06 5d 3e 18 9a 1c be 95 b1 17 3e 71 70 7d 3e
       0.21584575 -0.15293157 0.14813836 0.24749924
0000e0 d8 f8 8f bd f1 4c cd bc ba 4c ed 3c d9 f1 99 be
       -0.07029885 -0.025061103 0.02896725 -0.30067328
0000f0 c7 78 05 bd eb 08 16 bd 2a f3 63 be f3 5c 65 3e
       -0.032585885 -0.0366296 -0.22260728 0.22398739
000100 84 ef 89 be 7a 22 fb bd 69 a0 38 3e 47 87 42 3d
       -0.26940548 -0.12262435 0.18029942 0.04749229
000110 dd 37 fe 3d e3 08 58 3c cc e0 91 be fa 29 61 be
       0.12412999 0.0131857125 -0.2849182 -0.21988669
000120 96 4d d4 bd 53 1d 53 be 13 4d 43 be 00 f7 ca bd
       -0.10366361 -0.20616655 -0.1907237 -0.09910393
000130 da bb 8b 3e 09 ff 72 3e b1 0c 7c 3d 05 22 49 be
       0.27291757 0.237301 0.06153554 -0.19641884
000140 c7 f5 3c be f8 82 99 3e 10 63 1b 3d 38 02 0e 3d
       -0.18453132 0.29982734 0.03793627 0.034670085
000150 d7 af 31 be ea 12 20 be c4 22 1a 3e 0a 2e d7 bc
       -0.17352234 -0.15632215 0.15052325 -0.02626707
000160 78 ef 02 bd 42 76 1a be 04 56 68 be d3 52 4a be
       -0.031966656 -0.15084174 -0.22689062 -0.19758157
000170 0e 56 9a be 76 92 8f 3e 4f 16 38 3d d4 94 2f 3d
       -0.3014378 0.28041428 0.04494315 0.042866543
000180 d4 68 6b 3e 0e 88 1d 3e 6c 34 37 bd 08 21 42 3e
       0.22989208 0.15383932 -0.044727728 0.18957913
000190 e9 f9 a0 3b 3a d1 98 be 06 27 7e 3e 07 bb 38 be
       0.004912604 -0.29847127 0.24819574 -0.18040095
0001a0 0b ef 6c be 68 da 90 bd 16 10 99 3d 8a a2 76 3e
       -0.23138063 -0.07072908 0.07473771 0.24085441
0001b0 0b 30 9b be ae b5 92 be 2b f0 50 be 0e 29 37 be
       -0.3031009 -0.28654236 -0.20404117 -0.17886755
0001c0 fc 21 9a 3e f8 8d 9b bb 86 90 63 3e 58 ce b0 3d
       0.30104053 -0.0047471486 0.222231 0.08633107
0001d0 cc 31 37 3e 6c 8e 22 be 67 80 08 3e 9d 9d e3 3d
       0.1789009 -0.15874642 0.13330232 0.11114047
0001e0 c7 d8 d7 3d 83 66 6b be 9e 10 d8 bd ef 28 85 3e
       0.10539394 -0.22988324 -0.105500445 0.26007792
0001f0 69 36 89 bd 62 c6 63 be 61 bd 84 be a5 87 7e bd
       -0.06699831 -0.22243646 -0.25925735 -0.06214108
000200 4e 1a 11 3e 03 fb b8 bd 1d 9d 5f 3e 3b a1 05 3e
       0.1417019 -0.09032252 0.21837278 0.13049786
000210 4d d5 7a be 85 04 50 3b 42 ec 8e 3e 5f 0a 43 3e
       -0.2449543 0.0031740975 0.27914625 0.19046925
000220 b1 2f e1 bd 0e b7 68 be 81 db a2 3d 29 82 16 3e
       -0.109954245 -0.2272608 0.07952023 0.1469809
000230 87 12 81 bd 66 c0 85 be ea 73 97 3e 6c 85 17 3e
       -0.06302362 -0.2612335 0.29580623 0.1479699
000240 1b 15 9c be 06 e0 5c 3c f6 f9 8c bd 4c 70 91 3e
       -0.30484852 0.013481146 -0.06883614 0.28405988
000250 7a 89 25 3e bb 2c a6 3d df e4 b8 bd 16 2c 67 be
       0.16165724 0.081140004 -0.09028029 -0.22575411
000260 9c 1c c4 3d 26 a4 fd 3d 0f 9e d6 3b 0a cf 89 3e
       0.09575769 0.123848245 0.006549604 0.2691577
000270 9c f4 33 3e de 06 83 be 42 48 8a bc a5 ce 0b be
       0.1757378 -0.25591177 -0.016880158 -0.13653047
000280 a7 4f 67 bc 32 ae e4 3c 54 0c 1a 3d 34 3c 40 3e
       -0.014118112 0.027915094 0.037609413 0.18772966
000290 cb 25 58 3e cc 16 85 3c 1f 81 eb bd ad 11 1c be
       0.21108167 0.016246222 -0.11499237 -0.15241118
0002a0 7b 70 22 3e 20 0a e3 3d 22 cf 84 3e 77 28 84 be
       0.1586322 0.110859156 0.2593928 -0.25812122
0002b0 f3 5b 6f be 33 a0 3b be 97 62 0a 3e 21 d0 73 3e
       -0.2337492 -0.1832283 0.13514172 0.23809864
0002c0 1d 2c ca bc 7e 34 83 be 84 97 47 3d 1b d5 86 be
       -0.024679238 -0.25625986 0.04872848 -0.26334462
0002d0 26 4c 48 3e 0b 58 6b be d0 30 36 3d 6b 4f 5f 3b
       0.19560298 -0.22982804 0.044480145 0.0034074436
0002e0 23 d7 1d 3e c5 34 59 be 81 b8 0c 3e 19 34 0b 3c
       0.154141 -0.21211536 0.13742258 0.008496308
0002f0 e5 3a 19 3d cb ae 54 be be 1c 94 3e ad 57 62 bd
       0.03740968 -0.20769803 0.2892818 -0.055259395
000300 85 b0 36 be 32 b3 af bd 2d 49 ba bd cd df 9b 3e
       -0.17840774 -0.08579101 -0.090959884 0.30444184
000310 cc 93 65 3e f5 20 b1 3a f9 06 97 3e 2a 4f e8 ba
       0.22419661 0.001351385 0.29497507 -0.0017723788
000320 fa 64 13 3d 60 db 62 3d a5 ba e5 bc 36 48 6d be
       0.03598497 0.055384994 -0.0280431 -0.23172078
000330 a4 82 ba 3d f4 c8 c2 bc cf ad f7 3d 5f 76 2d 3e
       0.09106949 -0.023777463 0.12093698 0.16939686
000340 cf 0f 63 3e ab 62 a7 3d 1d d6 7b 3c 92 fe 06 be
       0.22173999 0.08173116 0.015370873 -0.13183048
000350 a8 cb 92 3e 10 c2 8a be 63 f5 23 be 4d f8 1c 3d
       0.28671002 -0.27101183 -0.16011576 0.038322736
000360 a2 7d 16 3e 52 d9 35 3e 00 9d 8a be 65 d8 d9 3d
       0.14696363 0.17758682 -0.27072906 0.10636977
000370 b8 6f 82 be 60 27 5e 3e ae 35 85 be a3 ad 5e 3d
       -0.2547586 0.21694708 -0.26017517 0.05436481
000380 cf 71 4e 3d a9 b7 85 bd 57 0e 0e 3e 31 25 58 3e
       0.050401505 -0.06529171 0.13872658 0.21107937
000390 ae 5a da 3d 54 85 83 3d 3a 93 99 3e 19 17 94 3e
       0.10661827 0.06421915 0.29995137 0.28923872
0003a0 fd ec 57 be 8f 19 8d 3e 4e 1a 89 3e 34 aa 83 3a
       -0.21086498 0.27558562 0.2677788 0.0010045231
0003b0 55 40 d1 3d f5 49 fd bd 25 4c f4 bd 05 ad 4e 3d
       0.102173485 -0.12367622 -0.11928586 0.050457973
0003c0 f9 ac 0b be c1 4c a3 3d 89 90 04 3e e1 86 37 3e
       -0.13640203 0.07973624 0.12945761 0.17922546
0003d0 c3 8e 5f be 52 e1 1e be 7d db 5a bd a8 ee fa 3d
       -0.21831803 -0.1551564 -0.053431977 0.12252551
0003e0 3e b6 fc bd fc 35 14 be ca e8 93 bd dc df d5 3d
       -0.123394474 -0.14473718 -0.07222135 0.104430884
0003f0 82 03 4e 3c 9e 6f 9d bd 0e 42 9f 3d e4 32 6b be
       0.0125740785 -0.07687305 0.07776271 -0.22968632
