init_arxiv/init_params/ogb-arxiv_GCN_32_32/init_cls_model.pt (torch, 6403 bytes, 2 tensors)

0.weight f4 [40, 32]
-0.05828554 0.009629722 -0.27428156 0.25407994 0.25741398 0.17131786 -0.04906662 0.18490043
-0.15643688 0.23647545 -0.22035341 -0.24524546 -0.052411284 0.26562005 -0.16783477 -0.17669679
0.22571187 -0.035409797 -0.08257297 0.02619382 0.19047922 -0.16746782 0.1549742 -0.04099573
-0.16646552 0.092696436 -0.1932036 -0.04330529 0.2844435 0.113405764 -0.14596274 0.11709198
0.14399512 0.24842961 -0.26013377 -0.24536993 0.12832135 0.2585433 -0.07813979 -0.16079786
0.16072282 0.08029684 -0.1687816 0.11806745 0.2660798 -0.25435308 -0.09482208 -0.2531152
0.117224135 0.03705944 -0.28281254 0.20503046 0.010783891 0.00097013003 -0.22262594 -0.12986033
0.01955904 0.206825 0.20002829 -0.18213327 0.07852833 0.10388003 -0.0341857 0.00059802487
0.17879389 0.055555712 0.029686818 -0.047968525 -0.11774068 0.105518185 -0.015691942 -0.044450358
0.116854645 0.11868702 0.054469164 -0.18873417 0.07202514 0.06853913 0.12606123 0.21818517
0.25761592 -0.008500347 -0.28532982 0.24762474 0.1335021 -0.11197543 0.27239776 0.14284629
-0.139609 -0.07605135 0.07152674 -0.2326426 0.1831548 0.09245989 -0.08407401 0.03967715
0.22794044 -0.1488061 0.08033455 0.16644229 0.0936069 0.22039138 0.14338897 -0.06842046
-0.27065513 0.03363933 0.14287516 0.113732204 0.17440213 0.052339878 -0.240132 0.15900171
-0.19471148 -0.06529294 -0.043656763 -0.06941499 -0.024061605 -0.08663929 -0.24835101 0.041834626
-0.23941818 0.08010258 -0.22575936 0.08289245 0.09549175 0.19441797 -0.051032398 0.25787428
0.00371293 0.19620925 -0.035179507 -0.24002828 -0.08125864 -0.06102994 -0.22886454 0.051374633
0.19894741 0.0046169874 0.12655295 0.22074005 0.24180695 -0.14573242 0.21813737 0.055693228
-0.13689704 0.14231575 0.28791815 -0.2571295 0.23910138 0.27352554 0.043218017 0.26063156
-0.28283176 -0.20517646 -0.065767735 -0.2215507 0.03388648 -0.15456906 0.1233145 0.057464693
0.23083375 -0.1990741 0.06337526 -0.024191067 0.14576542 0.22629303 -0.12458896 0.03444204
0.07804872 -0.100705266 0.26188192 0.24917944 -0.27388743 -0.05680046 -0.037926402 -0.18023519
-0.013827924 0.19448914 0.20787323 0.2610887 -0.06946074 -0.23875204 0.019096121 0.2609225
-0.19499543 -0.06996453 -0.1290353 0.073317066 0.115018204 0.242254 0.09522791 0.23218782
0.24514605 -0.04616819 0.10544557 0.22261506 0.22689684 -0.05171709 -0.14436772 -0.051883306
0.19737647 -0.15556334 -0.15571903 0.23108318 -0.2533601 -0.24284413 0.1235227 0.027272522
0.1765329 -0.18140824 -0.05870393 0.22919616 -0.20230137 -0.24795505 0.049831808 -0.048429623
-0.25413522 0.076908626 0.24416828 0.20099896 0.0402844 0.2249679 -0.27672556 0.01577842
-0.05853486 0.24330257 -0.2471709 0.23961139 -0.011576193 -0.16945422 -0.034219306 -0.1719336
0.2206409 -0.23553751 0.16296956 0.14568025 -0.08452136 0.06740158 0.032327276 -0.04420422
-0.26308292 0.054721273 0.1600696 0.28418308 0.26946124 -0.26772633 0.25724065 -0.21440482
-0.05575875 0.17880312 -0.059259612 -0.22101769 -0.122586414 -0.053966876 -0.28676713 0.114671975
00000000: d2bc 6ebd fbc5 1d3c a26e 8cbe c416 823e
00000010: c4cb 833e f36d 2f3e 15fa 48bd 8a56 3d3e
00000020: fd30 20be 9f26 723e 53a4 61be a021 7bbe
00000030: 37ad 56bd 5aff 873e e1dc 2bbe 01f0 34be
00000040: 0321 673e dd09 11bd 041c a9bd 6c94 d63c
00000050: fc0c 433e af7c 2bbe 8fb1 1e3e 23eb 27bd
00000060: f075 2abe a1d7 bd3d 2ad7 45be e360 31bd
00000070: 94a2 913e 4841 e83d 4277 15be eccd ef3d
00000080: 7573 133e 5564 7e3e 4130 85be 4142 7bbe
00000090: ac66 033e ca5f 843e c107 a0bd 32a8 24be
000000a0: 8694 243e ab72 a43d 15d5 2cbe 59cd f13d
000000b0: 9d3b 883e 913a 82be 1432 c2bd 5198 81be
000000c0: 3513 f03d a4cb 173d cecc 90be 81f3 513e
000000d0: ebae 303c 5350 7e3a 0ef8 63be 1bfa 04be
000000e0: 483a a03c efc9 533e 37d4 4c3e 2581 3abe
000000f0: 76d3 a03d 0ebf d43d 4e06 0cbd c5c4 1c3a
00000100: bf15 373e 638e 633d c531 f33c a57a 44bd
00000110: 0722 f1bd eb19 d83d 638c 80bc 9411 36bd
00000120: 7d51 ef3d 2e12 f33d 0f1b 5f3d 8843 41be
00000130: eb81 933d 3e5e 8c3d 3216 013e ef6b 5f3e
00000140: 3ce6 833e 0a45 0bbc c016 92be 5791 7d3e
00000150: c6b4 083e 6053 e5bd b877 8b3e 4c46 123e
00000160: a9f5 0ebe cfc0 9bbd 9d7c 923d dd39 6ebe
00000170: ef8c 3b3e 9c5b bd3d ff2e acbd 8284 223d
00000180: 3869 693e a060 18be 7186 a43d d96f 2a3e
00000190: f9b4 bf3d 47ae 613e 8fd4 123e 0720 8cbd
000001a0: 4f93 8abe 65c9 093d de4d 123e 6eec e83d
000001b0: 7996 323e 5762 563d 2ae5 75be 58d1 223e
000001c0: 7262 47be 4eb8 85bd 6fd1 32bd 7229 8ebd
000001d0: d81c c5bc f16f b1bd ba4f 7ebe c95a 2b3d
000001e0: 0a2a 75be d20c a43d 762d 67be 84c3 a93d
000001f0: 2e91 c33d 8115 473e 5907 51bd 1908 843e
00000200: a154 733b 14eb 483e 6318 10bd f9c9 75be
00000210: ee6a a6bd 88fa 79bd 775b 6abe 356e 523d
00000220: dfb8 4b3e 194a 973b 1997 013e ae09 623e
00000230: 3e9c 773e e13a 15be 675f 5f3e 951e 643d
00000240: bd2e 0cbe 38bb 113e 026a 933e 7aa6 83be
00000250: fed6 743e 8a0b 8c3e 6005 313d 8071 853e
00000260: 53cf 90be c719 52be 3cb1 86bd 30de 62be
00000270: 8dcc 0a3d 5a47 1ebe 508c fc3d 1960 6b3d
00000280: af5f 6c3e 15da 4bbe e3ca 813d 582c c6bc
00000290: 8843 153e 5cb9 673e 7f28 ffbd 1913 0d3d
000002a0: 02d8 9f3d 903e cebd 6315 863e e528 7f3e
000002b0: f93a 8cbe 99a7 68bd b758 1bbd 938f 38be
000002c0: 848e 62bc 2928 473e b8dc 543e 6bad 853e
000002d0: 6f41 8ebd 6a7b 74be 786f 9c3c a297 853e
000002e0: e2ac 47be 9049 8fbd d421 04be 4227 963d
000002f0: aa8e eb3d 6f11 783e da06 c33d a5c2 6d3e
00000300: 9107 7b3e db1a 3dbd d9f3 d73d 34f5 633e
00000310: a557 683e 4dd5 53bd 22d5 13be 9783 54bd
00000320: 0f1d 4a3e ff4b 1fbe cf74 1fbe 12a1 6c3e
00000330: 6ab8 81be 22ac 78be 78f9 fc3d a06a df3c
00000340: 0ac5 343e 15c3 39be 8873 70bd 66b2 6a3e
00000350: 1728 4fbe eee7 7dbe 701c 4c3d 245e 46bd
00000360: 031e 82be 4582 9d3d 4007 7a3e acd2 4d3e
00000370: 4101 253d fc5d 663e f9ae 8dbe bf41 813c
00000380: 40c2 6fbd 4f24 793e 5e1a 7dbe b05c 753e
00000390: 13aa 3dbc 6885 2dbe 8b29 0cbd 5d0f 30be
000003a0: b0ef 613e bf30 71be 7ee1 263e 342d 153e
000003b0: 8919 adbd d709 8a3d 9b69 043d 7c0f 35bd
000003c0: ceb2 86be 6a23 603d 49e9 233e 7280 913e
000003d0: d3f6 893e 6d13 89be 0cb5 833e f08c 5bbe
000003e0: 4963 64bd 2a18 373e 35ba 72bd 7652 62be
000003f0: 960e fbbd 5f0c 5dbd 24d3 92be 24d9 ea3d

0.bias f4 [40]
0.0 0.0 0.0 0.0 0.0 0.0 0.0 0.0
0.0 0.0 0.0 0.0 0.0 0.0 0.0 0.0
0.0 0.0 0.0 0.0 0.0 0.0 0.0 0.0
0.0 0.0 0.0 0.0 0.0 0.0 0.0 0.0
0.0 0.0 0.0 0.0 0.0 0.0 0.0 0.0
00000000: 0000 0000 0000 0000 0000 0000 0000 0000
00000010: 0000 0000 0000 0000 0000 0000 0000 0000
00000020: 0000 0000 0000 0000 0000 0000 0000 0000
00000030: 0000 0000 0000 0000 0000 0000 0000 0000
00000040: 0000 0000 0000 0000 0000 0000 0000 0000
00000050: 0000 0000 0000 0000 0000 0000 0000 0000
00000060: 0000 0000 0000 0000 0000 0000 0000 0000
00000070: 0000 0000 0000 0000 0000 0000 0000 0000
00000080: 0000 0000 0000 0000 0000 0000 0000 0000
00000090: 0000 0000 0000 0000 0000 0000 0000 0000
