init_cora_amazon/init_params/amazon-photo_GAT_256_32/init_encoder.pt (torch, 812673 bytes, 10 tensors)

convs.0.att_src f4 [1, 1, 256]
000000 ac 29 bd bd 9a 9f 94 bd 88 27 cb 3d 25 8f f6 3c
       -0.09236464 -0.07257004 0.09919649 0.030097554
000010 8a 51 cc 3b 43 29 5d bd 97 93 a3 bd 61 59 ae bd
       0.006235306 -0.05399443 -0.07987135 -0.085131414
000020 2e e4 c3 3d e1 75 0a 3e 01 63 05 bd 88 00 9a 3d
       0.09565006 0.1352153 -0.03256512 0.075196326
000030 e3 98 13 3e d6 67 af bd 60 c5 06 be b8 ef fd bd
       0.1441379 -0.08564727 -0.1316123 -0.12399238
000040 ff db f9 bd 70 17 17 bd c5 80 8b 3b ec 80 e6 bc
       -0.12200164 -0.036887586 0.004257294 -0.028137647
000050 a8 f4 df 3d 0e 65 5a 3d 95 2d bb 3d c0 50 e7 3d
       0.10935336 0.05331903 0.091395535 0.11294699
000060 5f a5 0a be ef 2a 79 bc 03 a0 c4 3d 20 ad 07 be
       -0.13539647 -0.01520799 0.09600832 -0.13249636
000070 ee 79 85 3d 38 99 04 3d 78 04 07 3e 04 bf df 3d
       0.06517397 0.032372683 0.13185298 0.10925105
000080 49 fc 72 bc d3 5b e9 bd 92 5a 8b bd 83 bf b4 bb
       -0.014830657 -0.11394467 -0.06804384 -0.005515994
000090 99 5d c8 bd 8a d4 42 bd 49 08 89 bd 32 22 86 bd
       -0.09783477 -0.047565974 -0.066910334 -0.06549491
0000a0 b3 ed 0a be be 90 87 bc ca a1 92 3d ab 60 b2 bd
       -0.13567238 -0.01654851 0.07159765 -0.08709844
0000b0 65 fd 95 bd dd cc af 3d b5 a6 e2 bd 33 8a bf 3d
       -0.07323722 0.085839964 -0.11066953 0.09352531
0000c0 25 5c 54 bb ac f0 c1 3d 16 24 19 3e 4e c6 03 3c
       -0.0032403555 0.09469733 0.14955172 0.008042885
0000d0 08 4e 00 be c4 3b 12 be cc 96 16 be 6f eb 08 be
       -0.12529767 -0.14280611 -0.14705962 -0.13371061
0000e0 b0 c5 7f 3c 9b 5b 39 bd c4 d3 da bd c8 9f de 3d
       0.015611097 -0.045253377 -0.10684922 0.108703196
0000f0 62 e7 06 be d1 a9 15 3d b1 8e a4 3d 6d 7e 1a 3d
       -0.13174203 0.036538903 0.08035029 0.037718225
000100 78 c7 22 bd 4c 69 0b 3d 3a 8b c2 bd 0b 27 09 be
       -0.03974101 0.034035966 -0.094992116 -0.133938
000110 ad 15 a5 3c ad f3 14 be 4c 8a 38 bd 93 ec 6c 3d
       0.020151937 -0.1454608 -0.045053765 0.057842802
000120 3f b9 6b bd da 51 60 3c 2d 44 92 bd 3d e6 7b bd
       -0.05754971 0.01369139 -0.0714191 -0.06149887
000130 59 d4 04 3e e4 10 8e bd 01 5f d7 bd f6 cf 26 bd
       0.12971629 -0.069368154 -0.105161674 -0.04072567
000140 e9 e2 78 3d 8c 7a 8d bd e0 7e 8d bc 6a 55 23 bc
       0.060763273 -0.069081396 -0.017272413 -0.009969095
000150 6e 29 ae 3d 40 98 f2 bd 9b af a6 bd 57 d9 98 3d
       0.08503996 -0.11845446 -0.08138963 0.07463329
000160 6e dc 84 3d 43 73 02 3e cb ce fb bd 0e 8e 16 3e
       0.06487356 0.12739281 -0.12295302 0.14702627
000170 9e 0c 03 3e e7 11 26 bc 9b 5f 0f 3e 00 e8 c9 3d
       0.12797782 -0.010136104 0.14001314 0.098587036
000180 dd 3b 21 bd 36 53 63 3d 2a 9f b6 3d 94 17 fa bd
       -0.03936373 0.055499278 0.08917077 -0.122115284
000190 b1 e0 fa 3c ab 93 7d bd d6 5e fb 3d 65 d8 c4 ba
       0.03062472 -0.061908405 0.12273948 -0.0015018104
0001a0 25 48 2b bd e8 e4 d5 bd 9f 38 96 bd c3 fc af 3d
       -0.04181685 -0.10444051 -0.07335018 0.08593132
0001b0 4c b0 09 be 1d e2 cc 3d b5 ce f5 3d 0b 46 99 3d
       -0.13446158 0.10004065 0.12002317 0.07484063
0001c0 d1 13 c8 bc f1 d3 14 3d dd cc d8 3d 43 0f 28 3d
       -0.024423512 0.036334936 0.105859496 0.04103018
0001d0 0f 56 cb bd ab 37 17 be 59 99 4e bd 62 09 c4 3d
       -0.09928524 -0.1476733 -0.050439212 0.09572102
0001e0 03 fe 2b 3b c6 ba 97 3c a6 34 71 bd 49 87 17 be
       0.0026243932 0.018521678 -0.0588881 -0.14797701
0001f0 3e 0a be bd a0 31 dd 3d 97 c9 fb 3d d5 81 9a 3d
       -0.09279297 0.10800481 0.122943096 0.07544295
000200 44 94 ac bd b1 cf f0 3d c6 56 70 bd 69 82 23 bc
       -0.08426717 0.11758364 -0.058676504 -0.009979823
000210 1f aa af bc 68 45 4e 3c 9d 15 03 bd 2c 45 96 3d
       -0.021443425 0.01258979 -0.032003034 0.07337412
000220 17 e0 ac 3d e1 2b 5b bd ac ce 99 bd 87 01 d4 bd
       0.08441179 -0.053508643 -0.07510123 -0.10351854
000230 05 b0 a4 bd 8b 9f 93 3b 36 0c b9 3c c2 43 ad 3d
       -0.080413856 0.004505103 0.02258883 0.084601894
000240 97 a3 10 bd 0f b5 8d 3d 61 80 cd 3b f7 95 2c 3c
       -0.03531226 0.069193 0.0062714075 0.010533801
000250 3c 27 fd bd e0 37 85 bc a4 c8 6b bd 20 8e 0e be
       -0.12360999 -0.016261995 -0.057564393 -0.13921404
000260 14 f7 04 3e d7 dc 0c 3e c4 49 12 3e a8 f0 d8 3c
       0.12984878 0.13756119 0.14285952 0.026481941
000270 f8 e5 d2 bd 0c d7 92 bd 44 69 c9 3d 27 4e 68 bd
       -0.10297769 -0.07169923 0.09834531 -0.056715157
000280 db 8e f8 bb b6 b0 70 bd 16 12 b6 3d 7c 37 05 3e
       -0.007585389 -0.058762275 0.08890168 0.13009447
000290 a7 5f 2d bc 92 c3 59 bd a5 a4 bc bd a7 2d 17 be
       -0.010581887 -0.053165026 -0.09211091 -0.14763509
0002a0 95 ba f2 3d b8 c7 16 3e 73 4a e6 bd 75 54 31 bc
       0.11851994 0.14724624 -0.11244669 -0.010823359
0002b0 45 34 11 be 21 5b de 3d af 76 17 bd c1 49 e5 3d
       -0.14180095 0.10857225 -0.03697842 0.11195708
0002c0 fe 31 e8 3d ff 0c d0 bd 7e b5 f9 bd 92 28 58 bd
       0.1133766 -0.10158729 -0.1219282 -0.052773066
0002d0 2a 06 bf 3d ac d5 a6 bc 24 79 76 3c bc 31 ce bc
       0.093273476 -0.020365559 0.015043531 -0.0251702
0002e0 ec b9 b0 bd bf 5a 1a 3d ef 5a b5 3d 46 37 98 bd
       -0.08629212 0.0376842 0.08855235 -0.074324176
0002f0 9b 7a 0d 3e 88 d6 26 bd 07 8a b3 bc 31 0c d7 bd
       0.13816302 -0.040731937 -0.021916403 -0.10500372
000300 79 d5 8c 3d 4f 37 ee bd ff 74 d8 3d fd 09 1e 3d
       0.06876654 -0.11631643 0.1056919 0.038583744
000310 09 67 6a bd 57 cd d3 3d 72 cb 92 bd 0f 2b a5 3d
       -0.05722717 0.103419 -0.0716771 0.080648534
000320 9c 0f 2d 3d 27 18 60 bd be e2 95 bd 26 84 ed bc
       0.042251214 -0.054710533 -0.07318638 -0.028993677
000330 9e 16 02 3d 32 d1 d5 bd 7f 8e 11 be dc 5d be bd
       0.03175985 -0.104402915 -0.14214514 -0.09295246
000340 2f f6 cd 3c 15 fd 57 bd dc 37 09 be bc 6e dd bd
       0.025141804 -0.052731592 -0.13400215 -0.108121365
000350 db 3f b9 3c 33 40 17 3e a7 12 02 be 26 6c 4f bc
       0.022613456 0.14770584 -0.12702428 -0.012660062
000360 ab da ce bd 83 ec 05 be b9 6b c1 bd d8 11 a7 bd
       -0.10100301 -0.13078503 -0.094443746 -0.081577
000370 37 6d b9 bd 26 39 18 be de c8 b7 bd b2 2e 08 3d
       -0.09054034 -0.1486555 -0.08973859 0.033247657
000380 35 97 04 3e 9d 25 e2 bd 17 50 0e bd 40 19 98 bd
       0.12948306 -0.110423304 -0.03474435 -0.07426691
000390 aa 64 11 3e 1f 62 d5 bd dd c7 37 bd 22 47 d7 3d
       0.14198557 -0.10419106 -0.04486834 0.105116144
0003a0 93 23 1a be 26 d4 29 3d b1 90 19 be e7 c6 a3 3d
       -0.15052633 0.041462086 -0.14996602 0.07996922
0003b0 31 dc bf 3d 1c ba 03 be 1a 66 9a 3d 92 97 f4 3c
       0.0936817 -0.12863964 0.075390056 0.02985743
0003c0 d2 97 18 3e 2f 04 0f 3e fb 3a 85 3d db 83 17 3e
       0.14901665 0.1396644 0.0650539 0.14796393
0003d0 73 36 3d 3c 0d ec 4e bd 39 43 52 3c fb 73 80 bd
       0.011548626 -0.050518084 0.01283341 -0.062721215
0003e0 0d 3c 09 3e 92 14 c8 bd 20 f8 d0 3d 6b 7e 36 bd
       0.13401814 -0.097695485 0.10203576 -0.044554155
0003f0 49 ae d1 bd 6d fd cb bd d7 e6 94 bd a1 a9 02 3d
       -0.102383204 -0.099604465 -0.07270592 0.031900052

convs.0.att_dst f4 [1, 1, 256]
000000 1f 01 10 3e cc 24 0a bd d8 3e 81 bd 20 4a ce bd
       0.14062928 -0.0337265 -0.063108146 -0.10072732
000010 3c 01 af bd 5c 03 06 be 1d 04 82 bd 52 46 0d 3e
       -0.08545157 -0.13087219 -0.06348441 0.13796356
000020 0a 8d 29 3d 28 ce 57 bd d2 3e f2 bd d7 50 71 bd
       0.04139427 -0.05268684 -0.11828388 -0.058914986
000030 53 3d fa 3d ff be 10 bd b0 07 6c 3a 1d 18 d9 3c
       0.12218728 -0.035338398 0.0009003831 0.026500756
000040 e6 cb de bd 6a 48 a4 bd db 5c fd ba fe 42 f3 3c
       -0.10878734 -0.080216244 -0.0019330041 0.02969503
000050 18 b6 14 3e e6 a2 98 bd ab 36 0e 3e 21 98 95 bd
       0.14522588 -0.074529454 0.13888042 -0.07304407
000060 22 8c 9e 3d fd f0 22 3d fd fe 59 bc 4a bd e3 bc
       0.07741572 0.039780606 -0.013305423 -0.027800221
000070 a9 0f d4 3d ec 47 27 bc e7 e8 02 3e 37 45 74 bd
       0.103545494 -0.010210019 0.12784158 -0.05963632
000080 01 3a b1 bd db 5e d5 3d 7e 9b 94 bd 8f d0 ad 3d
       -0.086536415 0.10418483 -0.0725622 0.08487045
000090 cc a1 e2 3d e7 f6 18 3e 63 81 ca bc ba 83 19 bd
       0.110660166 0.14937936 -0.0247199 -0.03747914
0000a0 4a 3a d6 3d 22 99 df bd b3 00 c6 3c a2 30 d1 3d
       0.104603365 -0.1091788 0.024170255 0.10214354
0000b0 c7 8d 21 3c 0e e1 6e bc 92 de 69 3d d3 72 2a 3d
       0.0098604625 -0.014580024 0.057097025 0.04161341
0000c0 86 de 7b bd b0 ac c9 3d 4e 84 8f 3d 68 74 50 3d
       -0.06149151 0.09847391 0.07007657 0.050892264
0000d0 da 18 4c 3d a8 c4 a5 bd b1 94 c0 bd 60 dd c0 3d
       0.049828388 -0.0809415 -0.09403361 0.09417224
0000e0 61 24 83 3c 60 ef 85 bd fa 14 0a 3e bb 40 18 3e
       0.016008558 -0.06539798 0.13484564 0.14868443
0000f0 d3 d4 42 bd c5 2f a8 3d 0c 20 12 3e fa d0 8a 3d
       -0.047566246 0.08212236 0.14270037 0.0677814
000100 15 ab 08 be d1 90 9b bd 2c 2e 54 3d 18 58 04 3e
       -0.13346513 -0.07595981 0.051801845 0.1292423
000110 f0 a0 cb 3d 86 69 97 bd 51 86 d4 3b 17 ca 17 3e
       0.09942806 -0.07393174 0.0064857383 0.14823185
000120 39 7c e1 bc ca b8 9c 3d cc 1b 11 3e b7 89 7f bc
       -0.027525054 0.07652433 0.1417076 -0.015596799
000130 a2 d0 c8 3b f5 5e 96 3d 85 a3 48 3d 7a 70 92 3c
       0.0061283866 0.0734233 0.04898407 0.017875899
000140 a7 40 10 bd c0 ad 9c 3b d8 59 c9 bb da df 9f bd
       -0.035217907 0.004781455 -0.0061447434 -0.07806368
000150 ea 10 9d 3d 2f 8d 12 bd 4f 8c 1c 3d 19 11 cd bd
       0.07669242 -0.035779174 0.038219746 -0.10013027
000160 af 22 e1 bc 86 01 d2 3d 88 77 4f ba d8 1b 74 3c
       -0.027482359 0.10254197 -0.0007914235 0.014899217
000170 59 95 e0 bc 16 50 cd bd 92 f4 d8 bd 0c 95 a7 bd
       -0.027414965 -0.10025041 -0.10593523 -0.08182725
000180 35 d8 02 be ab 1a 14 be 0f f8 ea 3d 53 0f 51 bd
       -0.12777789 -0.14463298 0.11473095 -0.051040005
000190 e9 a0 0b 3e dc fd 41 bd 70 0f 87 bc 89 4c 51 bc
       0.13635601 -0.04736124 -0.016486853 -0.012774595
0001a0 8c 4c 19 3d d2 a3 09 bc f2 7a 47 3d b4 27 17 3e
       0.037426516 -0.008400874 0.048701234 0.1476124
0001b0 96 0b de 3d f5 ee c6 3d 73 0f 92 bd 03 52 bd bd
       0.108420536 0.09713546 -0.07131853 -0.09244158
0001c0 6f 00 9b 3c 67 ee 15 3b fb e5 fc 3b c8 dd 0d bd
       0.018921105 0.0022877695 0.0077178455 -0.034635335
0001d0 9d 31 3a bc 24 cf fa 3d ec f5 16 3e 62 01 14 3e
       -0.011364368 0.1224654 0.14742249 0.14453653
0001e0 bf fb 0e be ac e4 fb 3c 9f aa 56 3d 29 1d 02 3e
       -0.13963221 0.030748688 0.05240881 0.12706436
0001f0 e6 48 17 3e 96 51 18 3e f7 43 78 bd 0a 21 c5 3d
       0.14773902 0.14874873 -0.06061169 0.09625442
000200 d3 1d 60 bc 26 09 f9 3d c8 0c c5 3d 00 15 f2 bd
       -0.013678986 0.12159948 0.096215785 -0.11820412
000210 d6 54 c5 3d 83 b1 e5 bd a0 e9 28 bd 8f cf 06 be
       0.09635322 -0.11215498 -0.041238427 -0.13165115
000220 4f b2 fb 3d ea 99 0b 3e db 6a de bd 9c eb 49 bc
       0.12289869 0.13632932 -0.10860225 -0.01232424
000230 cb 8f 95 bd a8 a8 f8 bd dd 45 ab 3d 36 1c cd 3d
       -0.07302817 -0.121415436 0.08362935 0.100151464
000240 01 8c 00 be 59 03 d6 3c 4a ad c7 3d 3b 61 76 bc
       -0.12553407 0.026124643 0.09749849 -0.01503783
000250 39 dd a7 bd 69 29 f8 bd 0a 30 a1 3d fe 5f c4 ba
       -0.08196492 -0.12117273 0.07870491 -0.0014982221
000260 4e d3 3e 3c e1 14 83 bd d7 20 4a bd 55 30 18 bd
       0.011647059 -0.06400467 -0.049347725 -0.037155468
000270 45 8a 13 3d ce 78 47 bd ea 6e 84 3b f6 14 9d 3c
       0.036020536 -0.048699193 0.0040415423 0.019175034
000280 f1 bd e1 bd ee 58 f7 3d 61 e6 d3 bc 5d 37 f1 bc
       -0.110225566 0.12077509 -0.02586669 -0.029445345
000290 1b 1a 1b 3d 7e bf b6 3d f7 d6 fd 3d 4e cd b9 bc
       0.037866693 0.08923243 0.12394517 -0.022680905
0002a0 95 18 fd 3d bd 42 fb bd 2d 59 12 3e 0a 19 31 bd
       0.12358204 -0.12268589 0.1429183 -0.04323677
0002b0 2a e5 41 3d 1e 29 a5 3b df 45 45 3d b6 99 18 3e
       0.04733769 0.005040302 0.048162337 0.14902386
0002c0 a4 eb 1d 3d b6 a8 04 be c5 8c ac 3d 3c 68 85 bd
       0.038554803 -0.12954983 0.08425287 -0.06514022
0002d0 32 9b 0f bd cf 78 0e 3e fa c0 63 3d 37 05 e5 3d
       -0.035060115 0.13913272 0.05560396 0.11182635
0002e0 57 c1 50 3d 90 b9 8f 3c 07 cc db bd f2 e3 fd bd
       0.050965633 0.017544538 -0.107322745 -0.12396993
0002f0 a9 62 85 bd 36 48 87 3d b3 49 94 3d bc 67 e3 bd
       -0.065129586 0.0660557 0.072406195 -0.1110377
000300 02 db a0 3b 2c a3 0e be b9 25 84 bb e4 da b5 3d
       0.0049089203 -0.13929433 -0.004032817 0.08879641
000310 34 f3 bb 3d 04 3e 1e 3d 87 34 12 be 4d 41 03 be
       0.09177247 0.03863336 -0.1427785 -0.12817879
000320 4e 82 62 3b 82 1a 09 3e 29 73 1a 3e 11 1e 5d bd
       0.003456253 0.13389018 0.15082993 -0.05398375
000330 f4 f3 44 bd 82 a2 e5 3d 0c 6f 07 3e cc a0 3d bc
       -0.048084214 0.112126365 0.13225955 -0.0115739815
000340 45 a0 9f 3d c7 7d 73 3d 76 a9 71 bb f2 03 3c bc
       0.07794241 0.059446122 -0.0036874688 -0.01147555
000350 a1 a1 c7 bd f6 23 b8 bd 62 ba 48 bd d3 05 f3 3d
       -0.09747625 -0.08991234 -0.049005874 0.11866345
000360 9b c3 c8 bc b7 4c df 3d 69 2f 17 3e eb 21 e8 3d
       -0.024507334 0.10903304 0.1476418 0.11334594
000370 ea 02 eb bd 6f 50 6e 3c 76 55 5b bd 0d 37 32 bc
       -0.11475165 0.014545544 -0.0535483 -0.010877383
000380 18 db 34 bd 9a 8c 9c 3d a0 6d f7 bd 5f 57 96 bc
       -0.044154257 0.07644005 -0.12081456 -0.018352209
000390 3b 5f e5 bd 2d a8 3e bd f2 3d 12 3e 72 0b 45 bd
       -0.111998044 -0.046547104 0.14281443 -0.04810662
0003a0 79 8b 92 bd dc 92 1b be 84 b2 ba bd 1b 80 b3 3d
       -0.071555085 -0.15192741 -0.091160804 0.087646686
0003b0 8a fc 0a be 77 3f ca 3d 73 89 d5 3d 76 97 1b 3e
       -0.13572899 0.09875386 0.10426607 0.15194497
0003c0 c2 f8 ed 3d 4c c9 00 3d 7f 54 23 3d f7 e6 9a bd
       0.116197124 0.03144197 0.039875504 -0.07563584
0003d0 75 e2 88 3d e2 ec 33 bc ec 1d c6 bc f8 aa 1d 3d
       0.06683818 -0.01098177 -0.02418419 0.038493127
0003e0 98 36 f4 bd b7 41 9c 3d 75 1c 61 bb 2c 28 d6 3c
       -0.119244754 0.076297216 -0.0034349237 0.026142202
0003f0 0e 7e e1 3d dc 68 11 be 2d 5f 51 3c e7 29 bc bd
       0.11010371 -0.14200157 0.012779039 -0.0918768

convs.0.bias f4 [256]
000000 00 00 00 00 00 00 00 00 00 00 00 00 00 00 00 00
       0.0 0.0 0.0 0.0
000010 00 00 00 00 00 00 00 00 00 00 00 00 00 00 00 00
       0.0 0.0 0.0 0.0
000020 00 00 00 00 00 00 00 00 00 00 00 00 00 00 00 00
       0.0 0.0 0.0 0.0
000030 00 00 00 00 00 00 00 00 00 00 00 00 00 00 00 00
       0.0 0.0 0.0 0.0
000040 00 00 00 00 00 00 00 00 00 00 00 00 00 00 00 00
       0.0 0.0 0.0 0.0
000050 00 00 00 00 00 00 00 00 00 00 00 00 00 00 00 00
       0.0 0.0 0.0 0.0
000060 00 00 00 00 00 00 00 00 00 00 00 00 00 00 00 00
       0.0 0.0 0.0 0.0
000070 00 00 00 00 00 00 00 00 00 00 00 00 00 00 00 00
       0.0 0.0 0.0 0.0
000080 00 00 00 00 00 00 00 00 00 00 00 00 00 00 00 00
       0.0 0.0 0.0 0.0
000090 00 00 00 00 00 00 00 00 00 00 00 00 00 00 00 00
       0.0 0.0 0.0 0.0
0000a0 00 00 00 00 00 00 00 00 00 00 00 00 00 00 00 00
       0.0 0.0 0.0 0.0
0000b0 00 00 00 00 00 00 00 00 00 00 00 00 00 00 00 00
       0.0 0.0 0.0 0.0
0000c0 00 00 00 00 00 00 00 00 00 00 00 00 00 00 00 00
       0.0 0.0 0.0 0.0
0000d0 00 00 00 00 00 00 00 00 00 00 00 00 00 00 00 00
       0.0 0.0 0.0 0.0
0000e0 00 00 00 00 00 00 00 00 00 00 00 00 00 00 00 00
       0.0 0.0 0.0 0.0
0000f0 00 00 00 00 00 00 00 00 00 00 00 00 00 00 00 00
       0.0 0.0 0.0 0.0
000100 00 00 00 00 00 00 00 00 00 00 00 00 00 00 00 00
       0.0 0.0 0.0 0.0
000110 00 00 00 00 00 00 00 00 00 00 00 00 00 00 00 00
       0.0 0.0 0.0 0.0
000120 00 00 00 00 00 00 00 00 00 00 00 00 00 00 00 00
       0.0 0.0 0.0 0.0
000130 00 00 00 00 00 00 00 00 00 00 00 00 00 00 00 00
       0.0 0.0 0.0 0.0
000140 00 00 00 00 00 00 00 00 00 00 00 00 00 00 00 00
       0.0 0.0 0.0 0.0
000150 00 00 00 00 00 00 00 00 00 00 00 00 00 00 00 00
       0.0 0.0 0.0 0.0
000160 00 00 00 00 00 00 00 00 00 00 00 00 00 00 00 00
       0.0 0.0 0.0 0.0
000170 00 00 00 00 00 00 00 00 00 00 00 00 00 00 00 00
       0.0 0.0 0.0 0.0
000180 00 00 00 00 00 00 00 00 00 00 00 00 00 00 00 00
       0.0 0.0 0.0 0.0
000190 00 00 00 00 00 00 00 00 00 00 00 00 00 00 00 00
       0.0 0.0 0.0 0.0
0001a0 00 00 00 00 00 00 00 00 00 00 00 00 00 00 00 00
       0.0 0.0 0.0 0.0
0001b0 00 00 00 00 00 00 00 00 00 00 00 00 00 00 00 00
       0.0 0.0 0.0 0.0
0001c0 00 00 00 00 00 00 00 00 00 00 00 00 00 00 00 00
       0.0 0.0 0.0 0.0
0001d0 00 00 00 00 00 00 00 00 00 00 00 00 00 00 00 00
       0.0 0.0 0.0 0.0
0001e0 00 00 00 00 00 00 00 00 00 00 00 00 00 00 00 00
       0.0 0.0 0.0 0.0
0001f0 00 00 00 00 00 00 00 00 00 00 00 00 00 00 00 00
       0.0 0.0 0.0 0.0
000200 00 00 00 00 00 00 00 00 00 00 00 00 00 00 00 00
       0.0 0.0 0.0 0.0
000210 00 00 00 00 00 00 00 00 00 00 00 00 00 00 00 00
       0.0 0.0 0.0 0.0
000220 00 00 00 00 00 00 00 00 00 00 00 00 00 00 00 00
       0.0 0.0 0.0 0.0
000230 00 00 00 00 00 00 00 00 00 00 00 00 00 00 00 00
       0.0 0.0 0.0 0.0
000240 00 00 00 00 00 00 00 00 00 00 00 00 00 00 00 00
       0.0 0.0 0.0 0.0
000250 00 00 00 00 00 00 00 00 00 00 00 00 00 00 00 00
       0.0 0.0 0.0 0.0
000260 00 00 00 00 00 00 00 00 00 00 00 00 00 00 00 00
       0.0 0.0 0.0 0.0
000270 00 00 00 00 00 00 00 00 00 00 00 00 00 00 00 00
       0.0 0.0 0.0 0.0
000280 00 00 00 00 00 00 00 00 00 00 00 00 00 00 00 00
       0.0 0.0 0.0 0.0
000290 00 00 00 00 00 00 00 00 00 00 00 00 00 00 00 00
       0.0 0.0 0.0 0.0
0002a0 00 00 00 00 00 00 00 00 00 00 00 00 00 00 00 00
       0.0 0.0 0.0 0.0
0002b0 00 00 00 00 00 00 00 00 00 00 00 00 00 00 00 00
       0.0 0.0 0.0 0.0
0002c0 00 00 00 00 00 00 00 00 00 00 00 00 00 00 00 00
       0.0 0.0 0.0 0.0
0002d0 00 00 00 00 00 00 00 00 00 00 00 00 00 00 00 00
       0.0 0.0 0.0 0.0
0002e0 00 00 00 00 00 00 00 00 00 00 00 00 00 00 00 00
       0.0 0.0 0.0 0.0
0002f0 00 00 00 00 00 00 00 00 00 00 00 00 00 00 00 00
       0.0 0.0 0.0 0.0
000300 00 00 00 00 00 00 00 00 00 00 00 00 00 00 00 00
       0.0 0.0 0.0 0.0
000310 00 00 00 00 00 00 00 00 00 00 00 00 00 00 00 00
       0.0 0.0 0.0 0.0
000320 00 00 00 00 00 00 00 00 00 00 00 00 00 00 00 00
       0.0 0.0 0.0 0.0
000330 00 00 00 00 00 00 00 00 00 00 00 00 00 00 00 00
       0.0 0.0 0.0 0.0
000340 00 00 00 00 00 00 00 00 00 00 00 00 00 00 00 00
       0.0 0.0 0.0 0.0
000350 00 00 00 00 00 00 00 00 00 00 00 00 00 00 00 00
       0.0 0.0 0.0 0.0
000360 00 00 00 00 00 00 00 00 00 00 00 00 00 00 00 00
       0.0 0.0 0.0 0.0
000370 00 00 00 00 00 00 00 00 00 00 00 00 00 00 00 00
       0.0 0.0 0.0 0.0
000380 00 00 00 00 00 00 00 00 00 00 00 00 00 00 00 00
       0.0 0.0 0.0 0.0
000390 00 00 00 00 00 00 00 00 00 00 00 00 00 00 00 00
       0.0 0.0 0.0 0.0
0003a0 00 00 00 00 00 00 00 00 00 00 00 00 00 00 00 00
       0.0 0.0 0.0 0.0
0003b0 00 00 00 00 00 00 00 00 00 00 00 00 00 00 00 00
       0.0 0.0 0.0 0.0
0003c0 00 00 00 00 00 00 00 00 00 00 00 00 00 00 00 00
       0.0 0.0 0.0 0.0
0003d0 00 00 00 00 00 00 00 00 00 00 00 00 00 00 00 00
       0.0 0.0 0.0 0.0
0003e0 00 00 00 00 00 00 00 00 00 00 00 00 00 00 00 00
       0.0 0.0 0.0 0.0
0003f0 00 00 00 00 00 00 00 00 00 00 00 00 00 00 00 00
       0.0 0.0 0.0 0.0

convs.0.lin_src.weight f4 [256, 755]
000000 40 b8 79 bc a7 28 b5 3b b1 66 a3 3b d2 12 56 bb
       -0.0152416825 0.005528528 0.004986607 -0.0032665026
000010 5f f2 88 3d e3 4d 06 3d f3 cd 70 3c 2d cd 6f bd
       0.066868536 0.032789122 0.01469754 -0.05854528
000020 03 80 43 3d 24 70 d1 bc 34 fc be bc 53 66 70 3d
       0.047729503 -0.025566168 -0.02331362 0.058691334
000030 e5 40 c0 3c 56 5c 8d bd a5 92 12 bd 31 ac d1 bc
       0.023468444 -0.06902377 -0.035784382 -0.025594803
000040 cf 72 17 3d 56 f5 4e bd cf 82 0c 3d 22 1c 9a 3d
       0.036974724 -0.05052694 0.034304436 0.07524897
000050 00 0e 61 3d 23 52 c3 3c 34 31 13 bc 13 58 bb bc
       0.054944992 0.023842877 -0.008983899 -0.022869145
000060 57 bf 87 bd a0 2c b4 3c d9 27 aa 3c 81 47 7b 3d
       -0.06628292 0.021993935 0.020770954 0.06134749
000070 9e eb 31 bc 3a 60 90 bd da 40 ea 3b ad 4f d0 3c
       -0.010859398 -0.07049604 0.007148844 0.025428617
000080 b0 b2 5f 3d f3 91 f8 bc 72 2b 35 3d ce 7d 78 3d
       0.05461377 -0.030343032 0.044230886 0.06066685
000090 ad 9c 97 3d 9b 5c 22 bc 21 d9 7c 3d cc 1e 80 bd
       0.074029304 -0.009909774 0.061730508 -0.06255874
0000a0 a8 60 9a bd b3 32 ba 3c 9d 90 15 bd 80 db 45 3d
       -0.07537967 0.022729253 -0.036514867 0.048305035
0000b0 52 2f da bc e1 e3 60 3d bb 74 42 bd 54 35 25 bd
       -0.026633892 0.054904822 -0.047474604 -0.04033406
0000c0 17 f8 5f 3d 0f c0 b0 bc 23 f2 0f 3d ac c6 86 3d
       0.054679956 -0.021575956 0.03514303 0.065808624
0000d0 7d 0a d8 3c e6 7f 3a 3d 69 94 49 3d f3 01 83 3d
       0.026372189 0.04553213 0.0492138 0.06396856
0000e0 7b f1 72 bd a3 0f 90 bd 2d 6f 73 bc 8f 23 29 bd
       -0.059312325 -0.070342325 -0.014858049 -0.041293677
0000f0 8f 97 80 3c f5 35 25 bd 30 1d 16 3d cb 4a 92 3d
       0.015697269 -0.04033466 0.03664893 0.07143172
000100 22 8a 8b bc 53 1d 97 3d 37 a3 6c bb df 64 f0 3c
       -0.01703364 0.0737864 -0.0036108026 0.029344974
000110 51 10 8a 3d e0 c4 c1 3c f4 f3 8d bd 05 71 24 3d
       0.06741393 0.023653448 -0.06931296 0.040146846
000120 0d 0f d5 bc 98 30 14 bd 03 03 7b bd f9 43 3a 3c
       -0.026008153 -0.036179155 -0.06128217 0.011368745
000130 d1 bb 11 bd 7a 47 0b bd be 87 45 bc e0 46 31 3b
       -0.035579506 -0.034003712 -0.012056289 0.0027050301
000140 a3 9a 65 bd d0 76 23 3d 2c aa 5e bd 80 8c 60 3d
       -0.056055676 0.03990823 -0.054361507 0.05482149
000150 e9 8b 86 3b 21 77 03 3c 8d 26 39 3d 11 0f 74 3d
       0.004106034 0.008024008 0.04520278 0.05958468
000160 5c 5b 98 3d 11 7a 8d bd 86 5d f5 3c a7 b7 90 bd
       0.074393004 -0.06908048 0.029951822 -0.07066279
000170 55 c8 82 3a 3b b4 88 bc 73 e2 8f bd 9f 28 3b bd
       0.0009977916 -0.016687503 -0.07025614 -0.045693036
000180 7d 57 87 3d 8d 05 8f 3d 3a 04 4e 3a f3 0f 78 3d
       0.06608484 0.069834806 0.0007858906 0.060562085
000190 6c 01 99 3d 14 b0 44 bc 45 1f 99 3d 1a cc 62 37
       0.07470974 -0.012004871 0.07476667 1.3518171e-05
0001a0 1f 5d ee 3c 39 96 8a bd f2 a5 91 bc 1e 7a 60 bd
       0.029097138 -0.06766934 -0.017779324 -0.05480396
0001b0 c3 bf 2e bb a1 b7 0d bd 54 b8 82 bc a9 f6 68 bd
       -0.0026664592 -0.03459895 -0.015957035 -0.05687586
0001c0 6b f7 28 ba 33 06 9d bd 70 de 9e bc 39 d4 4f 3c
       -0.00064455596 -0.07667198 -0.019393176 0.012684875
0001d0 7d 0f c8 bc 15 56 62 3d ef 1f 36 bd 88 30 a4 bb
       -0.024421448 0.055257875 -0.044464048 -0.005010668
0001e0 2f 59 04 bd b1 e9 e4 bc 49 7c 21 bd 18 86 d1 3c
       -0.032311615 -0.027943464 -0.03942517 0.025576636
0001f0 36 79 62 bc 3a e9 f6 3c f5 36 9c 3d 9d 04 d5 3c
       -0.013822844 0.030140508 0.0762767 0.026003176
000200 11 e2 96 3d 33 52 53 bc 3e 00 23 bd d2 36 16 bd
       0.073673375 -0.012898016 -0.039795153 -0.036673374
000210 40 77 1d 3d ae 89 4a bc 9b 1b 11 3b 16 12 75 3d
       0.038443804 -0.012361927 0.0022141698 0.0598317
000220 5f e0 98 3d c2 2c e8 3b 03 ee 60 3d d8 45 72 3d
       0.074646704 0.0070854137 0.054914486 0.05914864
000230 77 e9 4d bd f1 f0 90 3d e1 d5 04 3b 4d eb 83 3b
       -0.050271478 0.07077206 0.0020269083 0.004025853
000240 3e ae 09 bd 26 d8 87 bd 56 11 8b bd 3a 7c 8e 3d
       -0.033613436 -0.06633024 -0.06790416 0.06957288
000250 14 84 63 bd f7 34 19 bd 39 98 f9 3c 5a 90 9d 3d
       -0.05554588 -0.037404027 0.030468093 0.076935485
000260 7d 6b 45 bd 5b f8 4d bd a2 a5 8f bd d4 3b 9d 3d
       -0.048198212 -0.05028568 -0.07014014 0.07677427
000270 9a 94 3f 3d 86 a0 09 3d f3 50 51 3d e1 b4 68 3c
       0.046772577 0.033600353 0.05110259 0.014203281
000280 f4 bc a7 bb 68 df 98 3d 02 4f 29 bc d4 df c6 bb
       -0.0051189605 0.07464486 -0.010333778 -0.006069163
000290 e4 4c 90 bd bb ec 4d bc c5 34 53 3d c2 9a 11 bd
       -0.07045916 -0.012568648 0.051563997 -0.03554798
0002a0 0f 8d 4f 3d cf a6 4d 3d f5 42 62 bd 77 4c f4 3c
       0.050671633 0.05020791 -0.055239636 0.029821618
0002b0 0e fd 50 3d 4c ab 1f bd ef 9d 88 3d 45 7b e6 bb
       0.05102258 -0.03898172 0.066707484 -0.007033738
0002c0 a1 51 72 3d bf 43 8c bd 61 8c 27 3d 69 8f c8 bc
       0.05915988 -0.06848859 0.04090536 -0.024482446
0002d0 23 18 8b bd 20 85 be 3b 2a 70 35 3d fc d0 19 3d
       -0.06791713 0.0058142096 0.04429642 0.03755282
0002e0 88 4e df bc 8d a8 62 bc 7a b9 ce bc 53 a7 96 3d
       -0.027259126 -0.013834131 -0.025234926 0.07356133
0002f0 72 ca 17 bc 5e 18 89 3d 80 34 5a bd fe 9c 8d bc
       -0.009264575 0.06694101 -0.053272724 -0.017286774
000300 c9 9c 89 3c 0d b7 e6 3b 5a 0c 95 3c e7 5a 96 bb
       0.016798394 0.0070408643 0.018194366 -0.004588473
000310 fa 0d 90 3b 61 b7 56 3d 89 77 0d 3c 06 e4 32 bd
       0.0043961974 0.052420978 0.008634456 -0.04367449
000320 dc 30 0c 3c 70 4e 7b 3d f0 6e ea 3c 96 f2 68 3b
       0.008556571 0.0613541 0.028617352 0.0035544983
000330 25 94 b1 3c 4f 0a f8 3c c7 2d 96 3d 91 3a f2 bc
       0.021677086 0.030278353 0.0733295 -0.029568942
000340 63 54 9d 3d 96 c5 95 bd cf 89 86 bd cb 7d 66 3d
       0.07682111 -0.07313077 -0.06569254 0.05627231
000350 c4 c5 7c 3d 74 42 dc 3c 93 bb 99 bd 89 91 9a 3d
       0.06171204 0.026887156 -0.0750648 0.0754729
000360 80 3a 19 3d 1a 97 12 3d 81 69 0f bd 46 f5 07 bd
       0.037409306 0.035788633 -0.035012726 -0.033192895
000370 39 25 32 bd 49 26 ae 3c af 08 27 3d 8f 7a 9c 3d
       -0.04349253 0.02125849 0.040779766 0.07640564
000380 b8 c3 b0 3c 01 17 8a bc 95 65 74 bd 99 14 9c 3d
       0.021577701 -0.016856672 -0.05966719 0.07621116
000390 06 68 4a 3d 97 4b d7 3c 68 e4 77 3c 0d 16 8a 3d
       0.04941561 0.026281161 0.01513014 0.06742487
0003a0 90 0b 02 bd 86 54 6c 3d 1a 6a 20 3d 32 48 b6 3c
       -0.031749308 0.057697795 0.039163686 0.022251222
0003b0 c7 22 21 3d df e4 09 ba 9e bb 28 3d 35 15 1c bd
       0.039339807 -0.00052602397 0.04119455 -0.038106162
0003c0 d4 62 8f 3d ba 92 84 3d b4 80 12 3d 8d ae 12 3d
       0.07001272 0.06473298 0.035767272 0.035810996
0003d0 8f 40 7f 3d 53 67 f2 3b 57 75 67 bd 48 fb 2d 3d
       0.062317427 0.007397571 -0.05650839 0.04247597
0003e0 d8 8d 83 bd 03 9c 85 3d a9 8a 34 3d c2 12 16 bc
       -0.06423539 0.065238975 0.04407755 -0.009159746
0003f0 eb b0 80 3d e9 ae 1a 3d de a5 35 bd de e8 0b 3c
       0.062837444 0.037764464 -0.044347636 0.008539407

convs.0.lin_dst.weight f4 [256, 755]
000000 40 b8 79 bc a7 28 b5 3b b1 66 a3 3b d2 12 56 bb
       -0.0152416825 0.005528528 0.004986607 -0.0032665026
000010 5f f2 88 3d e3 4d 06 3d f3 cd 70 3c 2d cd 6f bd
       0.066868536 0.032789122 0.01469754 -0.05854528
000020 03 80 43 3d 24 70 d1 bc 34 fc be bc 53 66 70 3d
       0.047729503 -0.025566168 -0.02331362 0.058691334
000030 e5 40 c0 3c 56 5c 8d bd a5 92 12 bd 31 ac d1 bc
       0.023468444 -0.06902377 -0.035784382 -0.025594803
000040 cf 72 17 3d 56 f5 4e bd cf 82 0c 3d 22 1c 9a 3d
       0.036974724 -0.05052694 0.034304436 0.07524897
000050 00 0e 61 3d 23 52 c3 3c 34 31 13 bc 13 58 bb bc
       0.054944992 0.023842877 -0.008983899 -0.022869145
000060 57 bf 87 bd a0 2c b4 3c d9 27 aa 3c 81 47 7b 3d
       -0.06628292 0.021993935 0.020770954 0.06134749
000070 9e eb 31 bc 3a 60 90 bd da 40 ea 3b ad 4f d0 3c
       -0.010859398 -0.07049604 0.007148844 0.025428617
000080 b0 b2 5f 3d f3 91 f8 bc 72 2b 35 3d ce 7d 78 3d
       0.05461377 -0.030343032 0.044230886 0.06066685
000090 ad 9c 97 3d 9b 5c 22 bc 21 d9 7c 3d cc 1e 80 bd
       0.074029304 -0.009909774 0.061730508 -0.06255874
0000a0 a8 60 9a bd b3 32 ba 3c 9d 90 15 bd 80 db 45 3d
       -0.07537967 0.022729253 -0.036514867 0.048305035
0000b0 52 2f da bc e1 e3 60 3d bb 74 42 bd 54 35 25 bd
       -0.026633892 0.054904822 -0.047474604 -0.04033406
0000c0 17 f8 5f 3d 0f c0 b0 bc 23 f2 0f 3d ac c6 86 3d
       0.054679956 -0.021575956 0.03514303 0.065808624
0000d0 7d 0a d8 3c e6 7f 3a 3d 69 94 49 3d f3 01 83 3d
       0.026372189 0.04553213 0.0492138 0.06396856
0000e0 7b f1 72 bd a3 0f 90 bd 2d 6f 73 bc 8f 23 29 bd
       -0.059312325 -0.070342325 -0.014858049 -0.041293677
0000f0 8f 97 80 3c f5 35 25 bd 30 1d 16 3d cb 4a 92 3d
       0.015697269 -0.04033466 0.03664893 0.07143172
000100 22 8a 8b bc 53 1d 97 3d 37 a3 6c bb df 64 f0 3c
       -0.01703364 0.0737864 -0.0036108026 0.029344974
000110 51 10 8a 3d e0 c4 c1 3c f4 f3 8d bd 05 71 24 3d
       0.06741393 0.023653448 -0.06931296 0.040146846
000120 0d 0f d5 bc 98 30 14 bd 03 03 7b bd f9 43 3a 3c
       -0.026008153 -0.036179155 -0.06128217 0.011368745
000130 d1 bb 11 bd 7a 47 0b bd be 87 45 bc e0 46 31 3b
       -0.035579506 -0.034003712 -0.012056289 0.0027050301
000140 a3 9a 65 bd d0 76 23 3d 2c aa 5e bd 80 8c 60 3d
       -0.056055676 0.03990823 -0.054361507 0.05482149
000150 e9 8b 86 3b 21 77 03 3c 8d 26 39 3d 11 0f 74 3d
       0.004106034 0.008024008 0.04520278 0.05958468
000160 5c 5b 98 3d 11 7a 8d bd 86 5d f5 3c a7 b7 90 bd
       0.074393004 -0.06908048 0.029951822 -0.07066279
000170 55 c8 82 3a 3b b4 88 bc 73 e2 8f bd 9f 28 3b bd
       0.0009977916 -0.016687503 -0.07025614 -0.045693036
000180 7d 57 87 3d 8d 05 8f 3d 3a 04 4e 3a f3 0f 78 3d
       0.06608484 0.069834806 0.0007858906 0.060562085
000190 6c 01 99 3d 14 b0 44 bc 45 1f 99 3d 1a cc 62 37
       0.07470974 -0.012004871 0.07476667 1.3518171e-05
0001a0 1f 5d ee 3c 39 96 8a bd f2 a5 91 bc 1e 7a 60 bd
       0.029097138 -0.06766934 -0.017779324 -0.05480396
0001b0 c3 bf 2e bb a1 b7 0d bd 54 b8 82 bc a9 f6 68 bd
       -0.0026664592 -0.03459895 -0.015957035 -0.05687586
0001c0 6b f7 28 ba 33 06 9d bd 70 de 9e bc 39 d4 4f 3c
       -0.00064455596 -0.07667198 -0.019393176 0.012684875
0001d0 7d 0f c8 bc 15 56 62 3d ef 1f 36 bd 88 30 a4 bb
       -0.024421448 0.055257875 -0.044464048 -0.005010668
0001e0 2f 59 04 bd b1 e9 e4 bc 49 7c 21 bd 18 86 d1 3c
       -0.032311615 -0.027943464 -0.03942517 0.025576636
0001f0 36 79 62 bc 3a e9 f6 3c f5 36 9c 3d 9d 04 d5 3c
       -0.013822844 0.030140508 0.0762767 0.026003176
000200 11 e2 96 3d 33 52 53 bc 3e 00 23 bd d2 36 16 bd
       0.073673375 -0.012898016 -0.039795153 -0.036673374
000210 40 77 1d 3d ae 89 4a bc 9b 1b 11 3b 16 12 75 3d
       0.038443804 -0.012361927 0.0022141698 0.0598317
000220 5f e0 98 3d c2 2c e8 3b 03 ee 60 3d d8 45 72 3d
       0.074646704 0.0070854137 0.054914486 0.05914864
000230 77 e9 4d bd f1 f0 90 3d e1 d5 04 3b 4d eb 83 3b
       -0.050271478 0.07077206 0.0020269083 0.004025853
000240 3e ae 09 bd 26 d8 87 bd 56 11 8b bd 3a 7c 8e 3d
       -0.033613436 -0.06633024 -0.06790416 0.06957288
000250 14 84 63 bd f7 34 19 bd 39 98 f9 3c 5a 90 9d 3d
       -0.05554588 -0.037404027 0.030468093 0.076935485
000260 7d 6b 45 bd 5b f8 4d bd a2 a5 8f bd d4 3b 9d 3d
       -0.048198212 -0.05028568 -0.07014014 0.07677427
000270 9a 94 3f 3d 86 a0 09 3d f3 50 51 3d e1 b4 68 3c
       0.046772577 0.033600353 0.05110259 0.014203281
000280 f4 bc a7 bb 68 df 98 3d 02 4f 29 bc d4 df c6 bb
       -0.0051189605 0.07464486 -0.010333778 -0.006069163
000290 e4 4c 90 bd bb ec 4d bc c5 34 53 3d c2 9a 11 bd
       -0.07045916 -0.012568648 0.051563997 -0.03554798
0002a0 0f 8d 4f 3d cf a6 4d 3d f5 42 62 bd 77 4c f4 3c
       0.050671633 0.05020791 -0.055239636 0.029821618
0002b0 0e fd 50 3d 4c ab 1f bd ef 9d 88 3d 45 7b e6 bb
       0.05102258 -0.03898172 0.066707484 -0.007033738
0002c0 a1 51 72 3d bf 43 8c bd 61 8c 27 3d 69 8f c8 bc
       0.05915988 -0.06848859 0.04090536 -0.024482446
0002d0 23 18 8b bd 20 85 be 3b 2a 70 35 3d fc d0 19 3d
       -0.06791713 0.0058142096 0.04429642 0.03755282
0002e0 88 4e df bc 8d a8 62 bc 7a b9 ce bc 53 a7 96 3d
       -0.027259126 -0.013834131 -0.025234926 0.07356133
0002f0 72 ca 17 bc 5e 18 89 3d 80 34 5a bd fe 9c 8d bc
       -0.009264575 0.06694101 -0.053272724 -0.017286774
000300 c9 9c 89 3c 0d b7 e6 3b 5a 0c 95 3c e7 5a 96 bb
       0.016798394 0.0070408643 0.018194366 -0.004588473
000310 fa 0d 90 3b 61 b7 56 3d 89 77 0d 3c 06 e4 32 bd
       0.0043961974 0.052420978 0.008634456 -0.04367449
000320 dc 30 0c 3c 70 4e 7b 3d f0 6e ea 3c 96 f2 68 3b
       0.008556571 0.0613541 0.028617352 0.0035544983
000330 25 94 b1 3c 4f 0a f8 3c c7 2d 96 3d 91 3a f2 bc
       0.021677086 0.030278353 0.0733295 -0.029568942
000340 63 54 9d 3d 96 c5 95 bd cf 89 86 bd cb 7d 66 3d
       0.07682111 -0.07313077 -0.06569254 0.05627231
000350 c4 c5 7c 3d 74 42 dc 3c 93 bb 99 bd 89 91 9a 3d
       0.06171204 0.026887156 -0.0750648 0.0754729
000360 80 3a 19 3d 1a 97 12 3d 81 69 0f bd 46 f5 07 bd
       0.037409306 0.035788633 -0.035012726 -0.033192895
000370 39 25 32 bd 49 26 ae 3c af 08 27 3d 8f 7a 9c 3d
       -0.04349253 0.02125849 0.040779766 0.07640564
000380 b8 c3 b0 3c 01 17 8a bc 95 65 74 bd 99 14 9c 3d
       0.021577701 -0.016856672 -0.05966719 0.07621116
000390 06 68 4a 3d 97 4b d7 3c 68 e4 77 3c 0d 16 8a 3d
       0.04941561 0.026281161 0.01513014 0.06742487
0003a0 90 0b 02 bd 86 54 6c 3d 1a 6a 20 3d 32 48 b6 3c
       -0.031749308 0.057697795 0.039163686 0.022251222
0003b0 c7 22 21 3d df e4 09 ba 9e bb 28 3d 35 15 1c bd
       0.039339807 -0.00052602397 0.04119455 -0.038106162
0003c0 d4 62 8f 3d ba 92 84 3d b4 80 12 3d 8d ae 12 3d
       0.07001272 0.06473298 0.035767272 0.035810996
0003d0 8f 40 7f 3d 53 67 f2 3b 57 75 67 bd 48 fb 2d 3d
       0.062317427 0.007397571 -0.05650839 0.04247597
0003e0 d8 8d 83 bd 03 9c 85 3d a9 8a 34 3d c2 12 16 bc
       -0.06423539 0.065238975 0.04407755 -0.009159746
0003f0 eb b0 80 3d e9 ae 1a 3d de a5 35 bd de e8 0b 3c
       0.062837444 0.037764464 -0.044347636 0.008539407

convs.1.att_src f4 [1, 1, 32]
000000 d8 15 13 3e ba 28 01 3e 7f e8 ca 3e 7a 30 0b 3e
       0.14363801 0.12613192 0.39630505 0.13592711
000010 2c ce 3a be 1e 71 b9 3e be a2 c3 3e b3 0c b1 3e
       -0.18242711 0.36219114 0.382101 0.3458
000020 7b f5 7d be a1 26 d3 be c2 15 5f 3e a5 08 d7 be
       -0.24800675 -0.4124041 0.21785644 -0.41998783
000030 b1 6a 5f be c6 29 b5 be 45 d9 82 bd 3c cd f8 3d
       -0.21818043 -0.35383433 -0.06389097 0.1214852
000040 20 b2 a9 3e e9 05 c0 be 0f f3 60 3d c9 d0 98 bd
       0.3314371 -0.3750451 0.0549193 -0.074616976
000050 d1 97 c8 bd d3 13 97 3e 0e e0 95 bd e4 90 83 3d
       -0.09794582 0.29507312 -0.07318126 0.0642412
000060 96 88 b3 3e b1 7d 60 be 0a 9a 8d bd 93 ce 5e 3e
       0.35065144 -0.21922947 -0.06914146 0.2175849
000070 61 35 92 3e 2e e9 34 3e 2b e0 a6 3e 31 9d 88 3e
       0.2855635 0.17667076 0.32592902 0.26682428

convs.1.att_dst f4 [1, 1, 32]
000000 cd de fc bd 4c be 44 3e 71 4c 99 3e 74 04 d3 bd
       -0.123471834 0.19213217 0.29941133 -0.10303584
000010 6b 76 3e 3e 53 fa 2e 3b dd 27 a0 be 2a 00 aa be
       0.1859986 0.0026699498 -0.31280413 -0.3320325
000020 35 4e 97 3e 81 cb b2 3e 5a c4 86 3c ed 48 9c be
       0.29551855 0.34920886 0.01645105 -0.30524388
000030 66 c2 d0 be 40 5d f8 bc 33 6f e7 3b 57 5d 99 3a
       -0.40773314 -0.030317903 0.0070628165 0.0011700791
000040 3c 61 d6 be b1 08 24 3e 1d 2b c1 3e cd a6 98 3e
       -0.4187106 0.1601894 0.37728205 0.2981476
000050 69 bf ba 3d cc e5 d4 be c0 4f ac be 4e 35 36 3e
       0.0911854 -0.4158157 -0.33654594 0.17793772
000060 a5 fc b9 be 11 53 74 bd 6e 19 9c be ab 93 d0 3e
       -0.36325565 -0.05964953 -0.3048815 0.40737662
000070 2e 82 03 be 42 bb 21 3d 18 48 bc be 90 eb a7 be
       -0.12842628 0.039485224 -0.36773753 -0.32796907

convs.1.bias f4 [32]
000000 00 00 00 00 00 00 00 00 00 00 00 00 00 00 00 00
       0.0 0.0 0.0 0.0
000010 00 00 00 00 00 00 00 00 00 00 00 00 00 00 00 00
       0.0 0.0 0.0 0.0
000020 00 00 00 00 00 00 00 00 00 00 00 00 00 00 00 00
       0.0 0.0 0.0 0.0
000030 00 00 00 00 00 00 00 00 00 00 00 00 00 00 00 00
       0.0 0.0 0.0 0.0
000040 00 00 00 00 00 00 00 00 00 00 00 00 00 00 00 00
       0.0 0.0 0.0 0.0
000050 00 00 00 00 00 00 00 00 00 00 00 00 00 00 00 00
       0.0 0.0 0.0 0.0
000060 00 00 00 00 00 00 00 00 00 00 00 00 00 00 00 00
       0.0 0.0 0.0 0.0
000070 00 00 00 00 00 00 00 00 00 00 00 00 00 00 00 00
       0.0 0.0 0.0 0.0

convs.1.lin_src.weight f4 [32, 256]
000000 3a b8 86 bd 13 c1 d2 3d 7a d1 a3 3d 1c 97 3b bd
       -0.06578107 0.10290732 0.07998939 -0.045798406
000010 3f 73 f2 bc b2 d6 d9 bc e8 f7 d4 3d 1c fd d1 bd
       -0.02959597 -0.026591633 0.10398847 -0.10253355
000020 91 14 fa 3d 64 9e 49 bd 58 15 18 bd 3c e8 c4 3c
       0.12210954 -0.04922332 -0.03712973 0.02403652
000030 b8 f5 99 bc f7 25 aa bd 02 fc b6 3d e5 6f 94 3d
       -0.018793926 -0.083080225 0.089347854 0.07247905
000040 6a 0c d9 3d b5 16 a8 3c a1 2c fe 3d 01 37 a8 bc
       0.10598071 0.02051864 0.12410856 -0.02053404
000050 74 36 4b 3d 34 49 c7 bd 9c 1f af 3d a2 bb db 3d
       0.049612477 -0.09730759 0.08550951 0.107291475
000060 da fd ca bd 2f 38 b3 bd 4a 86 1b bc e9 2a d3 3d
       -0.099116996 -0.087509505 -0.009492466 0.10310919
000070 d5 87 71 bc ca 2b 34 3d 6c e6 e8 3d 4a f3 8a bd
       -0.014741858 0.043987073 0.113720745 -0.06784685
000080 bc b1 19 bd 8f a0 4d bd 88 7b 5c 3d 42 54 04 be
       -0.037523016 -0.05020195 0.053828746 -0.12922767
000090 a7 74 f2 bd 1b 46 27 bd ba 46 c2 3d 7b 26 f6 3d
       -0.11838656 -0.040838342 0.09486146 0.12019058
0000a0 9f 4c c5 3d 3d d6 c5 bd c3 81 8e 3d 5b c6 7d bd
       0.09633755 -0.09660003 0.06958344 -0.061956745
0000b0 28 25 03 be 34 83 f1 bd d7 ec cb 3c 98 62 3f bc
       -0.12807143 -0.11792603 0.024893207 -0.011681221
0000c0 d9 cf 0c be 6e f0 fc bb 49 1d a8 bd c4 e0 0c 3e
       -0.13751163 -0.007719091 -0.08208711 0.13757616
0000d0 0c 89 05 be e4 06 88 3d ba ee 04 be 31 14 99 3c
       -0.1304056 0.06641939 -0.12981692 0.018686386
0000e0 13 f0 6b 3b 6e 97 99 bb 0e 32 07 3e b6 c8 3c 3d
       0.003600125 -0.0046872413 0.13202688 0.04608985
0000f0 91 b6 45 bd 94 14 c1 bc 40 72 06 bd 58 50 00 be
       -0.048269812 -0.023569383 -0.0328238 -0.12530649
000100 f2 cc 52 bd aa 99 fd 3d 99 4a 83 bd 9d 49 ca 3c
       -0.051464982 0.12382825 -0.06410713 0.024693305
000110 02 d4 5b 3d f7 e0 87 bd 77 59 07 be 59 6f 3c bd
       0.053668983 -0.066347055 -0.13217722 -0.046004627
000120 8c 54 18 3c dd 9c c4 bd 29 68 f5 bd d3 45 82 3d
       0.009297501 -0.09600232 -0.119827576 0.06360974
000130 d9 a2 14 3a 2a df 97 bc 98 61 ab 3d 54 5a 23 3d
       0.0005670018 -0.01853903 0.08368224 0.039881065
000140 8b 56 c1 bc e1 25 f2 bc 88 fa 87 bd 5a 56 81 3d
       -0.023600837 -0.029559078 -0.06639582 0.063152984
000150 19 2c 4d 3d b6 65 6c 3d ac dd e9 3c 3c 18 b9 bd
       0.050090883 0.057714187 0.028548084 -0.090378255
000160 01 a0 54 bb 7f 25 06 3e fe fb fb bd 53 31 df bc
       -0.0032444003 0.13100241 -0.12303923 -0.0272452
000170 99 dc a0 3d 5a 66 2d bd f6 bf fd 3d df 33 97 bc
       0.07854576 -0.04233394 0.12390129 -0.018457351
000180 03 0a 95 3c 01 25 0c 3e 8a 65 7b bd 6b cf 69 bd
       0.01819325 0.13685991 -0.061376132 -0.057082575
000190 3a b4 b5 bd 0e 6e a1 bd db 08 01 3e cb 28 00 3b
       -0.08872266 -0.078823194 0.12601034 0.0019555565
0001a0 71 e9 c0 bd b7 17 b0 bd 36 9c e6 bd 76 1b a5 3d
       -0.094195254 -0.08598273 -0.112602636 0.080618784
0001b0 cc 9e ec 3d 70 1b 77 bd 4d 89 7f bd 13 37 70 bd
       0.115537256 -0.0603289 -0.0623868 -0.058646273
0001c0 a0 75 d5 bd e9 8a 01 be 04 ea 09 bd 34 25 c8 3d
       -0.10422826 -0.12650646 -0.03367044 0.09772721
0001d0 35 a3 94 bd ce 2f bf bd 1d 34 22 bd 96 58 d6 3d
       -0.07257692 -0.0933529 -0.03960048 0.10466115
0001e0 85 fd ae 3d d9 7d 0e 3e 6c ba cb bd 0b 7e a3 bd
       0.08544449 0.13915195 -0.099476665 -0.07983025
0001f0 47 69 4c bd 80 ad a3 3d cd d0 0e 3e 26 2e 07 be
       -0.049905088 0.07992077 0.13946839 -0.13201198
000200 81 27 cd bd 6c b2 13 3e ad 28 fe bd 36 ca 09 be
       -0.100173004 0.14423531 -0.12410102 -0.13456044
000210 fb 74 92 3b 87 85 0e 3e cf 62 fe bd a0 ce ee 3d
       0.0044695116 0.13918124 -0.1242119 0.11660504
000220 4e af 87 bd f5 ed 7b bd 8a 6d 6a 3c 30 79 7d 3d
       -0.066252336 -0.06150623 0.014308343 0.06188315
000230 a7 b3 ef bd 7d f7 02 be 32 54 c1 3d bd 30 06 3d
       -0.11704188 -0.12789722 0.09439887 0.032761324
000240 a9 43 f5 bd f0 ec 07 be 73 f9 5f bc 99 c3 90 bd
       -0.11975796 -0.13273978 -0.013670313 -0.07068557
000250 2d 60 d8 bd 3e 59 c7 bd 05 67 14 3d fd 6a a2 3d
       -0.10565219 -0.097338185 0.03623106 0.07930563
000260 15 68 ab bd 15 66 bd 3d 95 b3 d6 3d 46 2a 82 bd
       -0.083694614 0.09247986 0.10483471 -0.06355719
000270 7e 3f 02 bd 19 2c 9c 3c d2 b8 44 3b f0 61 87 bd
       -0.031798832 0.019063996 0.0030017388 -0.06610477
000280 45 fb 01 3e d2 9f dd 3d 96 93 49 bd 02 7b 0e 3e
       0.12693508 0.10821499 -0.049213015 0.13914111
000290 84 64 4c bd 29 06 0d 3e f6 28 de bd b3 67 b3 3d
       -0.049900547 0.13771881 -0.108476564 0.087600134
0002a0 f4 21 17 bd fb 16 08 be 89 28 aa 3c 81 7e 72 bc
       -0.036897615 -0.13290016 0.020771282 -0.014800669
0002b0 47 40 0d bd 27 d0 4c 3d 56 be 0d bd e1 16 12 3e
       -0.034485128 0.050003197 -0.034605347 0.1426654
0002c0 95 b6 a9 3c 54 4e a2 bd 3b 40 fe 3c 94 66 0a be
       0.020716945 -0.07925096 0.031036487 -0.13515693
0002d0 1e 01 e4 bd a9 f8 d0 bd 5b 71 91 3c 43 aa ef bd
       -0.111330256 -0.10203678 0.017754247 -0.11702397
0002e0 4a 38 f8 3d a1 7f c8 bc 51 c8 dc bd 9d a2 a1 bd
       0.12120111 -0.02447492 -0.10780395 -0.07892344
0002f0 be f5 a1 3d 15 17 11 3e 9f 20 e5 3b 22 74 f6 3d
       0.079082 0.14168961 0.006992414 0.12033869
000300 f1 2d 95 3d 36 b8 00 be 93 ed 11 be 58 93 a8 bd
       0.07284153 -0.12570271 -0.14250784 -0.082312286
000310 4f 2c ea bd 5c a3 92 3d 9f 87 78 3d 3f a3 ca 3c
       -0.114342324 0.071600646 0.060676213 0.024736045
000320 e0 9e 2d 3c ee 9d 94 bd 11 63 9e bd 79 79 e9 bd
       0.010596961 -0.07256685 -0.07733739 -0.11400122
000330 51 76 90 3c c1 d5 e0 bd 36 8f 25 3d cd c6 f6 3d
       0.017634543 -0.1097827 0.04041978 0.12049637
000340 d8 7a 44 bd 47 42 bd 3d 08 94 5a 3d c8 f7 94 3d
       -0.047968715 0.09241157 0.05336383 0.07273823
000350 0f 42 6c 3b b7 dd 42 3d 38 fb 17 3d 47 55 c9 3d
       0.0036050116 0.047574725 0.037104815 0.098307185
000360 37 fe fc bd 9c d3 a8 bc 9a 4d f4 bd 25 3d 4b 3c
       -0.12353175 -0.020608716 -0.11928864 0.012404715
000370 d8 be 8e 3d 46 5c f8 3d e6 c8 60 bd 00 10 77 bc
       0.06969994 0.12126975 -0.05487909 -0.015079498
000380 6a 35 70 bd 6c db f4 3d 5a a6 d8 3d a1 ad 8d 3d
       -0.05864469 0.11955914 0.10578604 0.06917883
000390 ab b7 11 3e 15 3b 04 be 95 7a a8 bd 0a 81 cc bc
       0.1423022 -0.12913163 -0.08226506 -0.024963874
0003a0 20 b7 b7 3d 4a 86 ef bd a8 35 a1 bd 90 77 fb 3b
       0.08970475 -0.116955355 -0.07871562 0.007674165
0003b0 fe 00 be bd d4 7a e1 bc fd a9 74 bc fb 12 03 be
       -0.09277533 -0.02752439 -0.0149331065 -0.12800209
0003c0 54 4c d6 bc 8e 54 a2 3c a4 f5 12 be 25 2b c7 bd
       -0.026159443 0.01981571 -0.14351517 -0.09725026
0003d0 66 ec 56 bd 41 cf 66 3c 6a fd 0e bd 85 ef f2 bd
       -0.05247154 0.014087499 -0.034909643 -0.11862091
0003e0 63 e3 f3 3d 16 04 22 bd ec 71 06 3d 47 a6 b1 3d
       0.11908605 -0.039554678 0.032823488 0.08674293
0003f0 50 83 31 bc 8b 29 a5 3d be 6f ca bd b8 7a b9 3d
       -0.01083453 0.08064564 -0.098845944 0.0905661

convs.1.lin_dst.weight f4 [32, 256]
000000 3a b8 86 bd 13 c1 d2 3d 7a d1 a3 3d 1c 97 3b bd
       -0.06578107 0.10290732 0.07998939 -0.045798406
000010 3f 73 f2 bc b2 d6 d9 bc e8 f7 d4 3d 1c fd d1 bd
       -0.02959597 -0.026591633 0.10398847 -0.10253355
000020 91 14 fa 3d 64 9e 49 bd 58 15 18 bd 3c e8 c4 3c
       0.12210954 -0.04922332 -0.03712973 0.02403652
000030 b8 f5 99 bc f7 25 aa bd 02 fc b6 3d e5 6f 94 3d
       -0.018793926 -0.083080225 0.089347854 0.07247905
000040 6a 0c d9 3d b5 16 a8 3c a1 2c fe 3d 01 37 a8 bc
       0.10598071 0.02051864 0.12410856 -0.02053404
000050 74 36 4b 3d 34 49 c7 bd 9c 1f af 3d a2 bb db 3d
       0.049612477 -0.09730759 0.08550951 0.107291475
000060 da fd ca bd 2f 38 b3 bd 4a 86 1b bc e9 2a d3 3d
       -0.099116996 -0.087509505 -0.009492466 0.10310919
000070 d5 87 71 bc ca 2b 34 3d 6c e6 e8 3d 4a f3 8a bd
       -0.014741858 0.043987073 0.113720745 -0.06784685
000080 bc b1 19 bd 8f a0 4d bd 88 7b 5c 3d 42 54 04 be
       -0.037523016 -0.05020195 0.053828746 -0.12922767
000090 a7 74 f2 bd 1b 46 27 bd ba 46 c2 3d 7b 26 f6 3d
       -0.11838656 -0.040838342 0.09486146 0.12019058
0000a0 9f 4c c5 3d 3d d6 c5 bd c3 81 8e 3d 5b c6 7d bd
       0.09633755 -0.09660003 0.06958344 -0.061956745
0000b0 28 25 03 be 34 83 f1 bd d7 ec cb 3c 98 62 3f bc
       -0.12807143 -0.11792603 0.024893207 -0.011681221
0000c0 d9 cf 0c be 6e f0 fc bb 49 1d a8 bd c4 e0 0c 3e
       -0.13751163 -0.007719091 -0.08208711 0.13757616
0000d0 0c 89 05 be e4 06 88 3d ba ee 04 be 31 14 99 3c
       -0.1304056 0.06641939 -0.12981692 0.018686386
0000e0 13 f0 6b 3b 6e 97 99 bb 0e 32 07 3e b6 c8 3c 3d
       0.003600125 -0.0046872413 0.13202688 0.04608985
0000f0 91 b6 45 bd 94 14 c1 bc 40 72 06 bd 58 50 00 be
       -0.048269812 -0.023569383 -0.0328238 -0.12530649
000100 f2 cc 52 bd aa 99 fd 3d 99 4a 83 bd 9d 49 ca 3c
       -0.051464982 0.12382825 -0.06410713 0.024693305
000110 02 d4 5b 3d f7 e0 87 bd 77 59 07 be 59 6f 3c bd
       0.053668983 -0.066347055 -0.13217722 -0.046004627
000120 8c 54 18 3c dd 9c c4 bd 29 68 f5 bd d3 45 82 3d
       0.009297501 -0.09600232 -0.119827576 0.06360974
000130 d9 a2 14 3a 2a df 97 bc 98 61 ab 3d 54 5a 23 3d
       0.0005670018 -0.01853903 0.08368224 0.039881065
000140 8b 56 c1 bc e1 25 f2 bc 88 fa 87 bd 5a 56 81 3d
       -0.023600837 -0.029559078 -0.06639582 0.063152984
000150 19 2c 4d 3d b6 65 6c 3d ac dd e9 3c 3c 18 b9 bd
       0.050090883 0.057714187 0.028548084 -0.090378255
000160 01 a0 54 bb 7f 25 06 3e fe fb fb bd 53 31 df bc
       -0.0032444003 0.13100241 -0.12303923 -0.0272452
000170 99 dc a0 3d 5a 66 2d bd f6 bf fd 3d df 33 97 bc
       0.07854576 -0.04233394 0.12390129 -0.018457351
000180 03 0a 95 3c 01 25 0c 3e 8a 65 7b bd 6b cf 69 bd
       0.01819325 0.13685991 -0.061376132 -0.057082575
000190 3a b4 b5 bd 0e 6e a1 bd db 08 01 3e cb 28 00 3b
       -0.08872266 -0.078823194 0.12601034 0.0019555565
0001a0 71 e9 c0 bd b7 17 b0 bd 36 9c e6 bd 76 1b a5 3d
       -0.094195254 -0.08598273 -0.112602636 0.080618784
0001b0 cc 9e ec 3d 70 1b 77 bd 4d 89 7f bd 13 37 70 bd
       0.115537256 -0.0603289 -0.0623868 -0.058646273
0001c0 a0 75 d5 bd e9 8a 01 be 04 ea 09 bd 34 25 c8 3d
       -0.10422826 -0.12650646 -0.03367044 0.09772721
0001d0 35 a3 94 bd ce 2f bf bd 1d 34 22 bd 96 58 d6 3d
       -0.07257692 -0.0933529 -0.03960048 0.10466115
0001e0 85 fd ae 3d d9 7d 0e 3e 6c ba cb bd 0b 7e a3 bd
       0.08544449 0.13915195 -0.099476665 -0.07983025
0001f0 47 69 4c bd 80 ad a3 3d cd d0 0e 3e 26 2e 07 be
       -0.049905088 0.07992077 0.13946839 -0.13201198
000200 81 27 cd bd 6c b2 13 3e ad 28 fe bd 36 ca 09 be
       -0.100173004 0.14423531 -0.12410102 -0.13456044
000210 fb 74 92 3b 87 85 0e 3e cf 62 fe bd a0 ce ee 3d
       0.0044695116 0.13918124 -0.1242119 0.11660504
000220 4e af 87 bd f5 ed 7b bd 8a 6d 6a 3c 30 79 7d 3d
       -0.066252336 -0.06150623 0.014308343 0.06188315
000230 a7 b3 ef bd 7d f7 02 be 32 54 c1 3d bd 30 06 3d
       -0.11704188 -0.12789722 0.09439887 0.032761324
000240 a9 43 f5 bd f0 ec 07 be 73 f9 5f bc 99 c3 90 bd
       -0.11975796 -0.13273978 -0.013670313 -0.07068557
000250 2d 60 d8 bd 3e 59 c7 bd 05 67 14 3d fd 6a a2 3d
       -0.10565219 -0.097338185 0.03623106 0.07930563
000260 15 68 ab bd 15 66 bd 3d 95 b3 d6 3d 46 2a 82 bd
       -0.083694614 0.09247986 0.10483471 -0.06355719
000270 7e 3f 02 bd 19 2c 9c 3c d2 b8 44 3b f0 61 87 bd
       -0.031798832 0.019063996 0.0030017388 -0.06610477
000280 45 fb 01 3e d2 9f dd 3d 96 93 49 bd 02 7b 0e 3e
       0.12693508 0.10821499 -0.049213015 0.13914111
000290 84 64 4c bd 29 06 0d 3e f6 28 de bd b3 67 b3 3d
       -0.049900547 0.13771881 -0.108476564 0.087600134
0002a0 f4 21 17 bd fb 16 08 be 89 28 aa 3c 81 7e 72 bc
       -0.036897615 -0.13290016 0.020771282 -0.014800669
0002b0 47 40 0d bd 27 d0 4c 3d 56 be 0d bd e1 16 12 3e
       -0.034485128 0.050003197 -0.034605347 0.1426654
0002c0 95 b6 a9 3c 54 4e a2 bd 3b 40 fe 3c 94 66 0a be
       0.020716945 -0.07925096 0.031036487 -0.13515693
0002d0 1e 01 e4 bd a9 f8 d0 bd 5b 71 91 3c 43 aa ef bd
       -0.111330256 -0.10203678 0.017754247 -0.11702397
0002e0 4a 38 f8 3d a1 7f c8 bc 51 c8 dc bd 9d a2 a1 bd
       0.12120111 -0.02447492 -0.10780395 -0.07892344
0002f0 be f5 a1 3d 15 17 11 3e 9f 20 e5 3b 22 74 f6 3d
       0.079082 0.14168961 0.006992414 0.12033869
000300 f1 2d 95 3d 36 b8 00 be 93 ed 11 be 58 93 a8 bd
       0.07284153 -0.12570271 -0.14250784 -0.082312286
000310 4f 2c ea bd 5c a3 92 3d 9f 87 78 3d 3f a3 ca 3c
       -0.114342324 0.071600646 0.060676213 0.024736045
000320 e0 9e 2d 3c ee 9d 94 bd 11 63 9e bd 79 79 e9 bd
       0.010596961 -0.07256685 -0.07733739 -0.11400122
000330 51 76 90 3c c1 d5 e0 bd 36 8f 25 3d cd c6 f6 3d
       0.017634543 -0.1097827 0.04041978 0.12049637
000340 d8 7a 44 bd 47 42 bd 3d 08 94 5a 3d c8 f7 94 3d
       -0.047968715 0.09241157 0.05336383 0.07273823
000350 0f 42 6c 3b b7 dd 42 3d 38 fb 17 3d 47 55 c9 3d
       0.0036050116 0.047574725 0.037104815 0.098307185
000360 37 fe fc bd 9c d3 a8 bc 9a 4d f4 bd 25 3d 4b 3c
       -0.12353175 -0.020608716 -0.11928864 0.012404715
000370 d8 be 8e 3d 46 5c f8 3d e6 c8 60 bd 00 10 77 bc
       0.06969994 0.12126975 -0.05487909 -0.015079498
000380 6a 35 70 bd 6c db f4 3d 5a a6 d8 3d a1 ad 8d 3d
       -0.05864469 0.11955914 0.10578604 0.06917883
000390 ab b7 11 3e 15 3b 04 be 95 7a a8 bd 0a 81 cc bc
       0.1423022 -0.12913163 -0.08226506 -0.024963874
0003a0 20 b7 b7 3d 4a 86 ef bd a8 35 a1 bd 90 77 fb 3b
       0.08970475 -0.116955355 -0.07871562 0.007674165
0003b0 fe 00 be bd d4 7a e1 bc fd a9 74 bc fb 12 03 be
       -0.09277533 -0.02752439 -0.0149331065 -0.12800209
0003c0 54 4c d6 bc 8e 54 a2 3c a4 f5 12 be 25 2b c7 bd
       -0.026159443 0.01981571 -0.14351517 -0.09725026
0003d0 66 ec 56 bd 41 cf 66 3c 6a fd 0e bd 85 ef f2 bd
       -0.05247154 0.014087499 -0.034909643 -0.11862091
0003e0 63 e3 f3 3d 16 04 22 bd ec 71 06 3d 47 a6 b1 3d
       0.11908605 -0.039554678 0.032823488 0.08674293
0003f0 50 83 31 bc 8b 29 a5 3d be 6f ca bd b8 7a b9 3d
       -0.01083453 0.08064564 -0.098845944 0.0905661
