init_arxiv/init_params/ogb-arxiv_MLP_128_16/init_cls_model.pt (torch, 3843 bytes, 2 tensors)

0.weight f4 [40, 16]
0	0xbd8759fb	-0.06608959
1	0x3c32e5ef	0.010919078
2	0xbe9f3c30	-0.31100607
3	0x3e9381ca	0.2880996
4	0x3e95714d	0.29188004
5	0x3e46eb18	0.19425619
6	0xbd63e2e9	-0.05563632
7	0x3e56b06d	0.20965739
8	0xbe35a3d3	-0.17738275
9	0x3e894961	0.26813796
10	0xbe7fda97	-0.24985729
11	0xbe8e60cb	-0.27808222
12	0xbd736ba0	-0.05942881
13	0x3e9a34e6	0.30118483
14	0xbe42dfc6	-0.19030675
15	0xbe4d29f3	-0.20035534
16	0x3e8309ad	0.2559332
17	0xbd24754f	-0.040150937
18	0xbdbfc088	-0.09362894
19	0x3cf34f84	0.029701002
20	0x3e5d2aaf	0.21598314
21	0xbe4272b3	-0.18989067
22	0x3e33f10e	0.17572424
23	0xbd3e66d5	-0.046484787
24	0xbe4148c5	-0.18875416
25	0x3dd742cd	0.10510788
26	0xbe60547d	-0.2190723
27	0xbd4920d7	-0.049103584
28	0x3ea52278	0.3225286
29	0x3e03ad1c	0.12859005
30	0xbe297a75	-0.1655062
31	0x3e07f4d1	0.13276984
32	0x3e273198	0.16327512
33	0x3e903a07	0.2816927
34	0xbe970584	-0.29496396
35	0xbe8e734b	-0.27822337
36	0x3e14feab	0.14550273
37	0x3e961924	0.29316056
38	0xbdb57512	-0.0886022
39	0xbe3ab418	-0.18232763
40	0x3e3a9dcb	0.18224256
41	0x3dba7767	0.091048054
42	0xbe43f936	-0.19138035
43	0x3e0916c4	0.1338759
44	0x3e9a793b	0.30170617
45	0xbe93aa61	-0.28840926
46	0xbddc3278	-0.10751814
47	0xbe92f268	-0.28700566
48	0x3e081c18	0.13291967
49	0x3d2c1eb1	0.042021457
50	0xbea43013	-0.32067928
51	0x3e6e0ff1	0.23248269
52	0x3c48570b	0.012227784
53	0x3a902eaf	0.0011000241
54	0xbe813f0b	-0.2524341
55	0xbe16c81f	-0.14724778
56	0x3cb5ae5c	0.022177868
57	0x3e70255c	0.23451751
58	0x3e684114	0.22681075
59	0xbe5379e8	-0.20651972
60	0x3db65c0c	0.08904275
61	0x3df13b4d	0.11778889
62	0xbd1ec5e4	-0.038762942
63	0x3a31c249	0.0006780965
64	0x3e4f994c	0.20273322
65	0x3d810322	0.06299426
66	0x3d09e0d7	0.03366169
67	0xbd5ec94e	-0.054391198
68	0xbe08b5a3	-0.13350539
69	0x3df50929	0.11964638
70	0xbc91c29b	-0.01779299
71	0xbd4e724b	-0.050401967
72	0x3e07ae44	0.13250071
73	0x3e09ceee	0.13457844
74	0x3d7cfa64	0.06176223
75	0xbe5b23fa	-0.21400443
76	0x3da741fe	0.08166884
77	0x3d9f299a	0.07771607
78	0x3e125edd	0.14294
79	0x3e7d5618	0.24739873
80	0x3e958f50	0.292109
81	0xbc1deabf	-0.009638487
82	0xbea5a632	-0.3235336
83	0x3e8fc268	0.28078008
84	0x3e1b029c	0.15137714
85	0xbe0203f4	-0.1269682
86	0x3e9e2436	0.30887002
87	0x3e25dc1c	0.16197246
88	0xbe2219d9	-0.15830173
89	0xbdb09b85	-0.08623413
90	0x3da619b3	0.081103705
91	0xbe870fbc	-0.26379192
92	0x3e54a98d	0.20767803
93	0x3dd6b62d	0.10483966
94	0xbdc33ce2	-0.09533097
95	0x3d384714	0.04498966
96	0x3e8454e4	0.25846016
97	0xbe2cc7a0	-0.16873026
98	0x3dba8dd3	0.09109082
99	0x3e4141de	0.18872783
100	0x3dd9600f	0.10614025
101	0x3e7fe5e0	0.24990034
102	0x3e267d6c	0.16258782
103	0xbd9ee30e	-0.07758151
104	0xbe9d2138	-0.30689406
105	0x3d1c3c45	0.038143415
106	0x3e25e4b1	0.1620052
107	0x3e040e24	0.12896019
108	0x3e4a7fe0	0.19775343
109	0x3d7316b9	0.059347842
110	0xbe8b68d3	-0.27228412
111	0x3e389e33	0.18029098
112	0xbe6214b2	-0.22078207
113	0xbd979fc9	-0.074035235
114	0xbd4ac2bc	-0.04950212
115	0xbda1324a	-0.0787092
116	0xbcdf8139	-0.027283298
117	0xbdc931e9	-0.09823973
118	0xbe902e58	-0.28160357
119	0x3d424c42	0.047436006
120	0xbe8afebc	-0.27147472
121	0x3dba03eb	0.090827785
122	0xbe8310bc	-0.25598705
123	0x3dc07e76	0.093991205
124	0x3dddc094	0.10827747
125	0x3e61bd73	0.22044925
126	0xbd6d042b	-0.057865303
127	0x3e95b5b5	0.29240194
128	0x3b89f49a	0.004210067
129	0x3e63d1e6	0.22248039
130	0xbd236380	-0.039889812
131	0xbe8b5968	-0.2721665
132	0xbdbcb32e	-0.09213863
133	0xbd8db97d	-0.06920145
134	0xbe84de3b	-0.25950798
135	0x3d6e9b13	0.05825336
136	0x3e66ffcc	0.22558516
137	0x3bab8bce	0.005235172
138	0x3e12f106	0.14349756
139	0x3e8026c2	0.2502957
140	0x3e8c61c1	0.2741833
141	0xbe2935fe	-0.16524503
142	0x3e7d47e3	0.24734454
143	0x3d8154e2	0.06315018
144	0xbe1ef3bd	-0.15522666
145	0x3e253e69	0.16137089
146	0x3ea726e1	0.3264685
147	0xbe954705	-0.29155746
148	0x3e8acfa6	0.27111548
149	0x3e9ecbd3	0.3101488
150	0x3d48b913	0.049004626
151	0x3e974f80	0.2955284
152	0xbea432ef	-0.3207011
153	0xbe6e3b57	-0.23264824
154	0xbd98ba0b	-0.0745736
155	0xbe809f3d	-0.2512149
156	0x3d1d6221	0.03842366
157	0xbe3378a1	-0.17526485
158	0x3e0f2e6b	0.13982551
159	0x3d8571ff	0.06515884
160	0x3e8602e7	0.2617409
161	0xbe672574	-0.22572881
162	0x3d932bc0	0.07186079
163	0xbce0b513	-0.027430093
164	0x3e293fce	0.16528246
165	0x3e83600d	0.25659218
166	0xbe10a93e	-0.14127061
167	0x3d1ff6ac	0.039053604
168	0x3db53eed	0.08849893
169	0xbde9dbf2	-0.11418904
170	0x3e980954	0.29694617
171	0x3e90a977	0.2825429
172	0xbe9f019c	-0.31055915
173	0xbd83e71e	-0.064405665
174	0xbd30257c	-0.043004498
175	0xbe5145b7	-0.2043675
176	0xbc807211	-0.015679391
177	0x3e61d29b	0.22052996
178	0x3e715cef	0.23570608
179	0x3e979371	0.29604676
180	0xbda14d7d	-0.07876108
181	0xbe8a9bbb	-0.27071938
182	0x3cb16190	0.021652967
183	0x3e977abd	0.2958583
184	0xbe62691a	-0.22110406
185	0xbda278fb	-0.079332314
186	0xbe15d2e3	-0.14631228
187	0x3daa4206	0.08313374
188	0x3e058c66	0.13041839
189	0x3e8ca433	0.27469024
190	0x3ddd23ba	0.1079783
191	0x3e86cc25	0.26327625
192	0x3e8e5205	0.2779695
193	0xbd566cc0	-0.052349806
194	0x3df4ddfe	0.11956404
195	0x3e813d6d	0.25242177
196	0x3e83b9ca	0.25727683
197	0xbd703240	-0.058641672
198	0xbe27a059	-0.16369762
199	0xbd70f7df	-0.05883014
200	0x3e652cd8	0.22380388
201	0xbe34a02c	-0.17639226
202	0xbe34ce73	-0.17656879
203	0x3e8627f8	0.2620237
204	0xbe9316cd	-0.28728333
205	0xbe8cfbe7	-0.27535936
206	0x3e0f6c4d	0.14006157
207	0x3cfd549c	0.030924134
208	0x3e4cf93c	0.2001695
209	0xbe52a265	-0.20569761
210	0xbd8852b5	-0.066564
211	0x3e850f85	0.25988403
212	0xbe6ae4bd	-0.22938819
213	0xbe8ff37f	-0.2811546
214	0x3d6770b2	0.05650396
215	0xbd60ed89	-0.05491403
216	0xbe938a01	-0.28816226
217	0x3db29928	0.087206185
218	0x3e8dc0b3	0.2768608
219	0x3e69619b	0.2279114
220	0x3d3b1915	0.045678217
221	0x3e829b1b	0.2550896
222	0xbea0a76b	-0.3137773
223	0x3c92903f	0.017891048
224	0xbd87ee33	-0.0663723
225	0x3e8d4009	0.27587917
226	0xbe8f7ef4	-0.28026545
227	0x3e8b1b72	0.27169377
228	0xbc570f25	-0.013126169
229	0xbe44c125	-0.19214304
230	0xbd1eedd9	-0.038801048
231	0xbe47a21f	-0.19495438
232	0x3e801806	0.25018328
233	0xbe88bdfb	-0.26707444
234	0x3e3d399f	0.18479012
235	0x3e29267c	0.16518587
236	0xbdc446d4	-0.09583822
237	0x3d9c8559	0.076426215
238	0x3d162446	0.036655687
239	0xbd4d4da4	-0.050122872
240	0xbe98bbd3	-0.29830799
241	0x3d7e2624	0.062048092
242	0x3e39dba0	0.18150187
243	0x3ea4fbc5	0.32223335
244	0x3e9c6fc9	0.30554035
245	0xbe9b6df1	-0.30357316
246	0x3e95578a	0.2916835
247	0xbe78f269	-0.24311222
248	0xbd817bd6	-0.06322448
249	0x3e4f9c0a	0.20274368
250	0xbd899d0d	-0.06719408
251	0xbe805005	-0.2506105
252	0xbe0e55ff	-0.13899992
253	0xbd7aa52f	-0.061192688
254	0xbea67bd0	-0.32516336
255	0x3e05257c	0.1300258

0.bias f4 [40]
0	0x00000000	0.0
1	0x00000000	0.0
2	0x00000000	0.0
3	0x00000000	0.0
4	0x00000000	0.0
5	0x00000000	0.0
6	0x00000000	0.0
7	0x00000000	0.0
8	0x00000000	0.0
9	0x00000000	0.0
10	0x00000000	0.0
11	0x00000000	0.0
12	0x00000000	0.0
13	0x00000000	0.0
14	0x00000000	0.0
15	0x00000000	0.0
16	0x00000000	0.0
17	0x00000000	0.0
18	0x00000000	0.0
19	0x00000000	0.0
20	0x00000000	0.0
21	0x00000000	0.0
22	0x00000000	0.0
23	0x00000000	0.0
24	0x00000000	0.0
25	0x00000000	0.0
26	0x00000000	0.0
27	0x00000000	0.0
28	0x00000000	0.0
29	0x00000000	0.0
30	0x00000000	0.0
31	0x00000000	0.0
32	0x00000000	0.0
33	0x00000000	0.0
34	0x00000000	0.0
35	0x00000000	0.0
36	0x00000000	0.0
37	0x00000000	0.0
38	0x00000000	0.0
39	0x00000000	0.0
