init_arxiv/init_params/ogb-arxiv_MLP_128_16/init_encoder.pt (torch, 79618 bytes, 8 tensors)

lins.0.weight f4 [128, 128]
000000 53 90 86 bd 01 38 90 3d 00 90 9e bd 34 ea 0e bd
       -0.065704964 0.07041932 -0.077423096 -0.034891322
000010 9e 28 c5 3c 02 24 20 3d 4b d4 b4 3d 96 33 94 3d
       0.02406722 0.03909684 0.08829554 0.07236402
000020 bf fa 76 3c 7e 8a 8f 3d 6f ab 86 3b 8d 99 22 bd
       0.015074431 0.07008837 0.004109792 -0.03969722
000030 88 df 98 3a 98 f7 4b 3c 24 ab db 3a a0 61 74 bb
       0.0011663297 0.012449168 0.0016759378 -0.0037289634
000040 9a 89 56 bd f3 f0 0a 3d f2 ac 08 3d 42 82 36 3d
       -0.05237732 0.033921193 0.03336806 0.044557817
000050 46 a4 06 bd 5f 64 b8 3c 36 1a 6b 3d 87 fd 27 bd
       -0.032871507 0.022508798 0.057398044 -0.041013267
000060 bb 66 d2 bc 69 b8 4c 3d 22 5e 4e bd 49 97 81 3c
       -0.025683751 0.049980555 -0.05038274 0.015819209
000070 8f 23 ac bc a1 83 f9 bc 00 7c ab bd 99 93 f6 3c
       -0.02101305 -0.030458273 -0.083732605 0.030099677
000080 fb 19 4f 3b 8f d5 9a bd d5 14 6d bc d2 0b f0 3b
       0.003160118 -0.07560264 -0.014470299 0.007325628
000090 44 80 88 3c 28 61 92 bd a9 6a 07 bc df 08 87 3d
       0.016662724 -0.07147437 -0.008265176 0.06593489
0000a0 6c 24 a3 bd 5c 4b 7f bd e2 35 63 3d 13 4f 13 bd
       -0.07965931 -0.062327728 0.05547131 -0.035964083
0000b0 fb de 2f bd 03 5a 63 bd d3 d4 bc 3c 45 53 09 3c
       -0.04293726 -0.055505764 0.023050701 0.008381669
0000c0 00 53 c5 3a c0 e6 e5 3c 31 0f d9 3c 3e d6 5b bd
       0.0015054643 0.028064132 0.026496502 -0.053671114
0000d0 2d e1 77 3b 5d 42 b3 bd 4a 4d 90 bd 96 a4 36 3d
       0.0037823424 -0.08752892 -0.07045992 0.044590555
0000e0 b3 62 11 3c 7a 15 68 bd 0b 39 48 bd 5f 60 80 3d
       0.008873629 -0.056661107 -0.048882525 0.06268381
0000f0 25 d6 98 bd ac 06 5f bd 9b 01 8a 3d 09 59 90 bd
       -0.0746272 -0.054449722 0.067385875 -0.07048232
000100 f6 6e 50 bd 0c 98 4f 3d 96 ea 8a bd b8 d7 af 3c
       -0.05088707 0.050682113 -0.06783025 0.021465167
000110 44 d2 8d 3d 60 d8 35 3c ba 88 3d bd 7c f3 6c bd
       0.069248706 0.011098951 -0.04627297 -0.057849392
000120 2f 40 a6 bd 35 90 41 3d 5d 8e 19 bb ce a0 eb ba
       -0.08117711 0.047256667 -0.0023430802 -0.0017977001
000130 fc 4f 5e bd 4a f1 8b bd 01 d1 89 bc e1 89 d8 3c
       -0.054275498 -0.068331316 -0.016823294 0.026432933
000140 43 ff 62 3d 3a 7e 85 3d 92 13 fe bb f4 0b b1 bd
       0.055419218 0.065182164 -0.007753798 -0.08644858
000150 ce 67 7c 3d 60 2c 10 bd a0 dc 09 3c d1 62 8b bc
       0.061622433 -0.03519857 0.0084144175 -0.017014893
000160 25 1d 4c bd ab 63 f6 bc 7e f2 74 bc c8 29 8f bd
       -0.049832482 -0.030076822 -0.014950393 -0.06990391
000170 70 c9 5b bd 4c 46 3c bc 4a a2 fb 3c 0c aa b3 3d
       -0.053658903 -0.011491369 0.030717034 0.08772668
000180 1b ae 69 3d a0 b8 71 3d 25 97 7c bb 7c 0f 9d 3c
       0.057050806 0.059013963 -0.0038542238 0.019172423
000190 6d 90 f4 bc c4 03 74 bd c6 04 8b 3d ed 26 28 3d
       -0.029854024 -0.059573904 0.0678802 0.041052748
0001a0 46 48 9c 3d 51 f7 34 3d 8e 6d 59 bd ca 00 a4 bd
       0.076309726 0.04418117 -0.053082995 -0.08007963
0001b0 4c fe b2 3d 68 fc 82 bd 13 31 cf bc 64 3b 43 bd
       0.087399095 -0.06395799 -0.025291955 -0.04766406
0001c0 9b c3 08 3d 8b 47 73 3d 06 23 4e bc 41 b6 57 3c
       0.03338967 0.0593944 -0.012581592 0.013166011
0001d0 c8 17 8e bb cb 3b 2b bd a1 99 af 3d 1a c3 2b 3d
       -0.004336331 -0.04180507 0.08574224 0.04193411
0001e0 14 30 be bc d8 db 74 bd 8b 78 2e bd 2f 96 bb bc
       -0.023216285 -0.05977997 -0.042595427 -0.022898762
0001f0 aa 51 a2 3d 71 e2 19 bd 16 a3 2b 3c b7 6c 59 3d
       0.079257324 -0.037569467 0.010475894 0.053082194
000200 42 06 1f 3a f2 dd 26 3d 84 ad 31 bd 45 05 d0 3a
       0.0006066301 0.040739007 -0.043378368 0.0015870711
000210 9e 95 07 3c b5 48 55 3d b7 94 94 3d 2d 8a 6d bd
       0.008275418 0.052071292 0.072549276 -0.057993103
000220 04 47 a5 bc 52 55 5c bd bf a0 a3 3d 73 e8 98 3d
       -0.020175464 -0.053792305 0.07989644 0.07466211
000230 b0 51 89 3d 0d 2f fb 3c e8 3a d3 bc 22 83 ea 3c
       0.06705034 0.030662084 -0.025784925 0.028626982
000240 b4 89 94 bd c4 c7 81 ba 81 06 53 bd 48 98 8c bd
       -0.07252827 -0.0009901454 -0.051519874 -0.06864983
000250 c8 b4 b4 bd ec 26 0b 3d 6d 98 80 3d 44 9d db bc
       -0.08823544 0.033972666 0.06279073 -0.026808389
000260 b8 04 ab bd 62 20 0b bd d9 93 12 3d 50 b8 a3 3d
       -0.083505094 -0.03396643 0.03578553 0.07994139
000270 67 79 3f 3d ae 29 0a bd 76 9f a7 3d 8a 09 4d 3d
       0.046746638 -0.033731155 0.08184712 0.050057925
000280 2e 0a a1 3b e4 83 73 3d a4 4b 63 bd fe 65 32 3c
       0.0049145436 0.059451953 -0.05549206 0.010888575
000290 eb a8 09 3c 97 d2 86 ba 77 9a 77 3d 56 2e 46 3d
       0.00840209 -0.0010286149 0.060450044 0.048384033
0002a0 8d 3f a4 3c 6b f9 d1 3c 7b 0b 76 bd 19 11 88 3d
       0.020049835 0.025631627 -0.060069542 0.06643886
0002b0 de 34 bb 39 ae a2 2a bd 7e 30 bb 3c ff 02 0f bd
       0.0003570681 -0.04165905 0.022850271 -0.034914967
0002c0 29 b2 11 3c 89 4f e6 3b 9f 79 4a 3c ed ed 66 3d
       0.008892574 0.0070285243 0.012358098 0.056379247
0002d0 a7 15 68 3d 10 92 8f 3d 1c 1f 86 bd 3b 7f 4f bc
       0.056661274 0.07010281 -0.065489024 -0.012664611
0002e0 d9 b9 b3 bc 2f c7 f4 bc 16 7b b1 bd f5 48 71 3d
       -0.021939205 -0.029880134 -0.08666055 0.058907468
0002f0 66 49 00 bb 81 33 96 3d c4 c1 aa 3d f0 27 fb 3c
       -0.0019575 0.07334042 0.08337739 0.030658692
000300 dd ca dd bc 32 31 a2 3d 15 13 54 3d 38 09 54 3d
       -0.027074272 0.079195395 0.05177601 0.051766604
000310 f8 db 84 bc 4b 25 99 3c 2b 54 92 bd 25 6d 96 3d
       -0.01621817 0.01869454 -0.0714496 0.073450364
000320 38 3b 9a 3d 99 1d 37 bc fb 2c 95 bb 5d b7 86 bb
       0.07530826 -0.01117649 -0.004552481 -0.004111214
000330 25 78 eb 3c b1 4a 52 3b 7b ba 99 bd 70 90 1e bc
       0.028743813 0.0032087977 -0.075062715 -0.009677991
000340 2b ff 00 bd cd 40 5d 3d c2 4c 73 bd 21 43 8d bd
       -0.031493347 0.054016877 -0.059399374 -0.068975694
000350 39 60 8f 3d a1 50 94 bd fb 3d 29 3d c7 ed 7a bc
       0.07000775 -0.07241941 0.041318875 -0.01531548
000360 a1 b1 aa bd 8b ca a7 bd ce 03 45 3b 3f 84 f5 bb
       -0.08334661 -0.08192929 0.0030062082 -0.0074925716
000370 00 05 0c 3d 03 50 7d 3c 94 69 35 bd 7d c8 9a 3d
       0.034184456 0.015460971 -0.04429014 0.07557771
000380 d8 2f c1 bb 6e 7d 8e 3c e9 6a 0c bd e6 87 a8 bc
       -0.005895596 0.017393794 -0.034281645 -0.020572614
000390 5a 15 49 bd 5a 78 59 bd 08 27 84 bd c6 18 2a 3d
       -0.049092628 -0.05309329 -0.06452757 0.041527532
0003a0 60 83 51 3d 4f 0b 14 3d 73 ed b2 bd 28 56 c6 3b
       0.05115068 0.036143597 -0.08736696 0.006052751
0003b0 7b 49 aa bd 9e a6 10 bd 3f 66 2c 3b 52 b6 48 3d
       -0.083147965 -0.03531515 0.002630606 0.049002
0003c0 58 8a 0e bd f0 f6 52 3d 71 45 02 3d 01 c0 ce 3a
       -0.034799904 0.05150503 0.031804506 0.0015773774
0003d0 4d 56 b3 3d 1f ec b2 bc 62 d5 9d 3c 79 3c 19 bd
       0.08756695 -0.021841107 0.019266788 -0.037411187
0003e0 11 84 2e 3b df 10 e5 3c 54 e2 b3 bd a3 1c 7f 3d
       0.002662901 0.027962146 -0.08783403 0.06228317
0003f0 14 d3 29 3d 6e ec 0f bd 4e d3 65 bd 49 94 26 bd
       0.041461065 -0.035137586 -0.05610972 -0.04066876

lins.0.bias f4 [128]
000000 26 58 8a bc 3d bd b9 3c 46 33 33 3d 7a 0b e6 bb
       -0.016887736 0.022673244 0.04375007 -0.007020411
000010 6a 95 c7 3a 65 b5 8f 3c b2 62 46 3d 9a 9d 43 3d
       0.0015227024 0.01754255 0.048433967 0.047757722
000020 6b c4 af 3d 5f 1f 98 bd ca ed 85 bd 6b 55 98 bd
       0.08582386 -0.074278586 -0.06539495 -0.07438167
000030 00 f8 56 3d a9 55 74 bd d7 5d 8b bd 22 fb 59 bd
       0.052482605 -0.059652004 -0.06805008 -0.053218015
000040 2e 9d 5c bd b3 6c a0 3d a9 83 bc bc 0a b6 fc bc
       -0.053860836 0.07833233 -0.023012 -0.030848522
000050 ce 38 60 3d 44 e6 65 3b 03 24 c7 bc c8 32 7c bd
       0.054741673 0.0035079876 -0.024309164 -0.061571866
000060 f9 01 5e 3c 44 08 3d 3d 22 26 cb bc 8b 78 86 3d
       0.013550275 0.04615046 -0.024798457 0.065659605
000070 8c e3 54 bd 79 c9 a6 bc 72 24 9a 3b 1f 99 a0 bd
       -0.051974818 -0.020359742 0.0047040517 -0.078417055
000080 f4 a2 72 3c 00 f2 7e bd 44 ec 73 bd 67 f0 40 3d
       0.014809359 -0.062242508 -0.059551492 0.047104266
000090 d9 e3 5e bc 87 62 d7 3c aa de 13 3d db bf 81 3d
       -0.013604128 0.026292099 0.03610102 0.06335422
0000a0 3f f8 82 bd 48 56 dc 3c f7 27 6d 3d 60 58 e6 bc
       -0.063950054 0.02689661 0.05789944 -0.028118312
0000b0 b0 59 0c 3d 93 f9 2f bd d9 e9 b6 3c 5f 51 05 3d
       0.03426522 -0.042962622 0.022328304 0.032548305
0000c0 5e e3 b0 bd 24 0a 70 3c 0f d7 ae 3d c7 f2 ae bd
       -0.08637117 0.014650855 0.08537113 -0.085424
0000d0 9b 88 8c 3d fb 77 7e bc 9e 4f d6 3b 1b 33 4f bd
       0.06861993 -0.015531535 0.006540253 -0.050585847
0000e0 25 0f d1 3c aa 36 29 bd ad 8e 29 3c 04 6c 0e bb
       0.025519917 -0.041311897 0.010348958 -0.0021731863
0000f0 8a 72 89 bc 06 15 5d bd f5 1b 10 bd 09 ad af 3d
       -0.01677825 -0.053975128 -0.035182912 0.08577926
000100 e6 2b 98 3d 68 9c 43 3d 8b 72 1b 3d 1e 6c 36 bc
       0.07430248 0.047756582 0.037951034 -0.011134176
000110 59 4f a7 3d f1 22 a3 3d 62 3c 98 bd 6d 63 0f 3d
       0.08169431 0.07965649 -0.07433392 0.03500693
000120 45 93 84 bd 0f e6 5a bd 10 96 63 3a ba f0 93 bc
       -0.06473402 -0.053442057 0.0008681724 -0.018059123
000130 a6 c8 21 3d a1 e7 10 bd 2b fe 44 bd 3d 2b 88 bd
       0.039497994 -0.03537715 -0.048093956 -0.06648872
000140 d9 c1 8b 3d 73 66 7f bd 28 e4 47 bd 9f 33 93 bd
       0.06824083 -0.062353563 -0.04880157 -0.0718758
000150 af b7 e9 bc 60 02 92 3d cf 98 a2 3d 3a 4d c2 bc
       -0.02852997 0.07129359 0.07939302 -0.023718465
000160 9d e1 24 3d 45 0d aa 3c ab 42 a5 bd d3 7b 5c bd
       0.040254224 0.02075828 -0.080693565 -0.053829025
000170 7f 7e 2c bd 2a c6 64 3c ab 0b 8f bc 1a a3 2c bd
       -0.042112824 0.013963262 -0.017461618 -0.042147733
000180 1c e8 8f 3d b1 aa fe 3c 72 ec 62 3c 48 37 8f bd
       0.07026693 0.031087251 0.013850318 -0.06992966
000190 8a 73 ba 3c f2 9d 77 3d b4 20 1e bd a2 ac 61 3d
       0.022760171 0.060453363 -0.038605407 0.055096276
0001a0 21 d8 27 bd a9 70 9f 3d ef d8 01 bd 96 6d 73 3c
       -0.0409776 0.0778516 -0.031701025 0.01485767
0001b0 3f d9 7f bd 78 d5 4a 3d f6 8f 5d 3d 52 0c a2 3d
       -0.06246304 0.049519986 0.05409237 0.07912506
0001c0 90 64 1a 3d 1c ee 95 3c c6 8a 98 bd 03 a8 7b 3c
       0.03769356 0.018302016 -0.07448344 0.015359881
0001d0 20 1a b8 bc 02 ce 9b 3d 16 78 9d bd 20 26 44 3b
       -0.022473395 0.07607652 -0.0768892 0.002992995
0001e0 ac a5 18 bd 1c 38 a7 bd 64 c0 7c bd 80 4a 9b bd
       -0.037267372 -0.08164999 -0.061706915 -0.07582569
0001f0 63 06 39 bc be 67 ac 3d a5 34 01 3d 30 66 48 bc
       -0.011293027 0.08418225 0.031544346 -0.012231395

lins.1.weight f4 [16, 128]
000000 3e 57 6f bd 77 db 64 bd 46 88 f8 bc 0c f1 d0 bc
       -0.05843281 -0.05587336 -0.030338418 -0.025505565
000010 fa 05 bb bc 67 71 8b 3b a4 c2 48 3a b2 4d 9b bb
       -0.022829998 0.004255462 0.0007658398 -0.0047394866
000020 94 9c 7d bd ab 1a 95 bd 98 a4 5e bd 87 a5 1e bd
       -0.061916903 -0.07280477 -0.054356188 -0.038732078
000030 55 3e a6 3d cd 7d 3d bd a7 27 76 3d b8 4b b1 3d
       0.08117358 -0.04626255 0.06009641 0.0865702
000040 0c e5 33 3d 51 68 95 bd db 98 b1 bd ed 40 a3 3c
       0.043919608 -0.072952874 -0.08671733 0.01992842
000050 2c 20 8e bd 8f 45 42 3c 01 f5 bf 3c 44 b6 55 b9
       -0.0693973 0.011857404 0.023432257 -0.00020381162
000060 77 da d4 bc 0a d2 71 3d 18 fc 86 3d cf 80 77 bd
       -0.025983078 0.0590382 0.06591052 -0.060425576
000070 66 ed b7 3c 7b a0 48 bd e0 fa de bb 7a 44 1c 3d
       0.022452068 -0.04898117 -0.006804809 0.03815124
000080 1a c6 6b bc a5 10 1f 3d 21 4f 7f bd a5 e3 67 3c
       -0.014390493 0.038834233 -0.062331323 0.014153396
000090 e0 06 8a bc 43 15 8e 3d cd 8d 56 bc ef da be bc
       -0.016848981 0.06937649 -0.013095331 -0.023297755
0000a0 09 85 22 3d 17 34 2b bd 4c 7f 68 bb dc 6b 2c 3c
       0.039677653 -0.041797724 -0.0035476265 0.010523763
0000b0 8f 15 98 3d a9 ce 87 bd 48 1f 15 bb 62 90 1e 3d
       0.07425987 -0.06631214 -0.002275424 0.038711913
0000c0 c5 c9 93 3d e2 db a8 3d 5f 33 fd 3c c8 6d e7 bc
       0.07216219 0.08245064 0.030908285 -0.02825059
0000d0 ed 52 3c 3d 4b 37 47 bd 2f a5 12 3b b3 b1 47 bd
       0.04597752 -0.048636716 0.002237629 -0.04875345
0000e0 c1 02 96 bd aa 75 7b 3d 7b 3e 0f 3d b4 61 b3 3c
       -0.07324744 0.06139151 0.034971695 0.021897174
0000f0 1d 81 8b 3c 4c ea 5f bd be 76 98 3d dd 3c 40 bb
       0.01702934 -0.054666802 0.07444523 -0.0029333152
000100 39 2d 3f 3d 57 2f 42 3d 87 f1 77 bc 80 2e 89 3d
       0.046673987 0.047408428 -0.015133268 0.06698322
000110 14 59 89 3d ea da b1 3d f1 14 25 bd f8 93 21 3d
       0.067064434 0.08684333 -0.040303174 0.039447755
000120 80 f7 8f 3d d1 bd af bd 61 5b af bb 09 5f 53 3c
       0.07029629 -0.085811265 -0.0053514694 0.012901076
000130 01 98 83 bc 32 22 aa 3c 81 b1 46 bc 10 52 cf bc
       -0.016063692 0.020768259 -0.012127281 -0.025307685
000140 5b be 72 bd 83 d2 9c bd f6 d0 48 3b b7 26 72 3d
       -0.05926357 -0.076573394 0.0030642129 0.059118953
000150 4e 0f 58 3a 9f cb a9 bc f0 b9 7a bc 03 f5 48 3d
       0.00082420267 -0.020726977 -0.01530312 0.049061786
000160 88 09 94 3d 8e dc 73 bc a1 17 51 3b 03 6c 4c 3d
       0.072283804 -0.014884127 0.0031904953 0.049907696
000170 fd 43 3e 3c 03 75 3c bd af f5 66 bd a0 a0 24 3c
       0.011612889 -0.04601003 -0.056386646 0.010048062
000180 31 3f 92 3d fb d2 2b 3d 89 ec a7 3c d3 43 7f 3d
       0.07140959 0.041949254 0.020498531 0.06232054
000190 89 51 87 3d 7d 76 eb bc 1b d2 60 3d fc cc 4e bd
       0.066073485 -0.028743023 0.054887872 -0.050488457
0001a0 6f 8f 15 bd 98 90 fa bc 08 a6 8d 3d 31 30 40 bd
       -0.036513742 -0.030586526 0.069164336 -0.04692096
0001b0 a0 4e ae bd 6a 39 5e 3d d9 e8 57 3d 57 db 9d bd
       -0.0851109 0.054253973 0.052712295 -0.077078514
0001c0 5a 15 51 bd a9 97 5b 3d ae ba 0e bb cc 3d 91 bc
       -0.051045753 0.05361143 -0.002177875 -0.017729662
0001d0 e1 5b 35 bc 11 e4 69 bd 65 10 f4 bc 8e 48 31 3d
       -0.011069269 -0.057102267 -0.029792974 0.043282084
0001e0 c0 e2 b7 3c bf 86 85 bd 7b 88 c8 bc be eb 92 3d
       0.02244699 -0.065198414 -0.024479141 0.071738705
0001f0 80 83 5d 3d 26 ba a8 bd ed 60 51 3d ec 33 58 3d
       0.054080486 -0.0823863 0.051117826 0.05278389
000200 80 5a ae bc 89 1e 96 3d 91 3a b1 bd d9 65 d2 bc
       -0.021283388 0.07330043 -0.08653749 -0.02568333
000210 69 14 58 bd 15 2f 8e bd 16 15 90 bd 8c 35 c9 3a
       -0.05275384 -0.06942574 -0.07035272 0.0015351041
000220 56 89 02 bd ad 2b 9f bd 23 38 72 3b 79 f6 81 3d
       -0.031869255 -0.07772002 0.003695973 0.06345839
000230 82 1f 79 3d 95 f6 70 3c d3 f9 4b bd b2 58 9b 3d
       0.060821064 0.014707227 -0.049798798 0.07585277
000240 67 99 f3 3c da 71 8f bd a7 7b d7 bc fa 37 36 bd
       0.029736234 -0.07004137 -0.02630408 -0.044486977
000250 0f aa 44 3d d3 0e 07 bc 8a 2a 06 bd cb 68 46 3d
       0.048013743 -0.00824328 -0.032755412 0.048439782
000260 4b 54 4b bc bc b0 9b bd 8b 77 3c 3d fd d3 09 3d
       -0.012410234 -0.07602069 0.046012443 0.033649433
000270 c5 72 8b 3d 1a b3 6b bd 79 74 8e bd a6 1e 5b 3c
       0.06809 -0.05754385 -0.06955809 0.013374006
000280 58 24 0c 3c 3e c5 5c bd fd ec be 3a af d0 2d 3d
       0.008553587 -0.053899042 0.0014566478 0.042435344
000290 87 9e 9f bc 73 80 05 bd 3a 83 17 bd 4b f6 07 bd
       -0.019484771 -0.0325932 -0.03699038 -0.033193868
0002a0 12 a9 73 bd f2 2a ee bc 4d d9 d7 3c de a6 ab 3d
       -0.05948741 -0.029073212 0.026348734 0.08381437
0002b0 a6 00 7b bc 4d ee 8e ba ee 6b 77 bc 49 d1 95 3d
       -0.015319979 -0.0010904759 -0.015101416 0.073153086
0002c0 6b 10 63 3d ed bb 7a bc 8f cc a7 bb 17 64 99 3c
       0.05543558 -0.015303594 -0.005120821 0.018724484
0002d0 64 00 aa 3d d3 dd 80 bc 5a ef c2 b9 65 6a 99 bd
       0.08300856 -0.015730774 -0.00037180894 -0.07490996
0002e0 2e 0e 56 3d 64 25 5a 3c 0d ee 42 bd 34 62 9a 3d
       0.052259617 0.013314579 -0.047590304 0.07538262
0002f0 47 e3 35 3d bc ec ad 3d 15 d7 93 3d bd 7a 89 bb
       0.0444062 0.08492419 0.07218758 -0.0041955397
000300 50 df 93 bb 95 df 8e 3d 76 84 5d bd f7 8c 81 bc
       -0.004512705 0.06976239 -0.054081403 -0.015814288
000310 79 ab e3 bc 96 7c 3b 3d 4f f9 16 bd 46 fa f4 bb
       -0.027791725 0.04577311 -0.036858853 -0.007476124
000320 74 10 6d 3d 2b 47 4b 3b ae 95 1d 3b c6 91 57 3d
       0.05787702 0.0031017761 0.0024045515 0.052629255
000330 34 8e ff bc 2b 77 98 3c bb 2b 72 bd 7a 29 8f bd
       -0.031195737 0.018611511 -0.059123736 -0.06990333
000340 36 ad 7a bc 16 56 01 bd 9d 98 b1 bd 3e ef 2b bd
       -0.015300086 -0.03157624 -0.08671687 -0.041976206
000350 7b 41 ab 3c 98 64 6a 3d f9 eb 57 3d ee 1c b1 bd
       0.020905247 0.05722484 0.052715275 -0.08648096
000360 39 66 bd 3b 5b 0c 28 3d c5 75 8b bd b9 15 97 3c
       0.005780008 0.041027408 -0.06809572 0.018442975
000370 89 e5 91 bd 16 5b 7e bd 64 84 d5 bc f0 dc 80 bc
       -0.071238585 -0.062098585 -0.026064105 -0.015730351
000380 38 fe aa 3c 10 69 04 bc 37 48 52 3b 15 07 a7 bd
       0.020873174 -0.0080816895 0.00320865 -0.08155648
000390 aa a2 9c bd 37 87 b4 3c 14 33 a2 3c e4 9a d4 3c
       -0.07648213 0.022037132 0.019799747 0.025952764
0003a0 0e 32 43 bd 00 e9 ee 3c 2a 65 41 bd c7 e0 8a bd
       -0.047655158 0.029163837 -0.04721562 -0.06781154
0003b0 80 0b 05 3d 66 25 42 3d 19 c0 c0 3c 9d f5 73 3c
       0.03248167 0.047398947 0.0235291 0.014890102
0003c0 f4 74 b1 bd a7 16 c1 3c a7 4b 88 bd a7 fa 27 bd
       -0.08664885 0.023570372 -0.066550545 -0.041010525
0003d0 f4 24 16 3c 36 fc b2 bc f2 ce 92 bd 9a b6 98 bd
       0.009164084 -0.02184878 -0.07168378 -0.074567035
0003e0 a1 7c ce 3c df 98 8d bd 97 f3 dc 3a 0d f9 90 3d
       0.025205912 -0.069139235 0.0016857263 0.07078753
0003f0 03 f4 b3 3d ab 80 88 bd 33 f7 39 bd b4 2a 97 bd
       0.08786776 -0.066651665 -0.045401763 -0.07381192

lins.1.bias f4 [16]
000000 ba 1d 4d bd 0f 4e 1e bb e3 e1 a2 bc 2e 5a 37 bd
       -0.050077178 -0.0024155413 -0.019883102 -0.044763736
000010 97 f2 9e bd f0 3d c6 3c f2 37 03 bc 5f 09 97 bc
       -0.07761114 0.024199456 -0.008008944 -0.018437086
000020 38 34 96 bd b7 a6 b3 3d 75 d6 f3 bc 37 b0 e9 3c
       -0.07334179 0.08772033 -0.029765347 0.028526409
000030 1b 6c 21 bd 74 cc 26 3c a3 bf 93 bd 7b 92 ad 3c
       -0.039409738 0.010180581 -0.07214286 0.021188011

norms.0.module.weight f4 [128]
000000 00 00 80 3f 00 00 80 3f 00 00 80 3f 00 00 80 3f
       1.0 1.0 1.0 1.0
000010 00 00 80 3f 00 00 80 3f 00 00 80 3f 00 00 80 3f
       1.0 1.0 1.0 1.0
000020 00 00 80 3f 00 00 80 3f 00 00 80 3f 00 00 80 3f
       1.0 1.0 1.0 1.0
000030 00 00 80 3f 00 00 80 3f 00 00 80 3f 00 00 80 3f
       1.0 1.0 1.0 1.0
000040 00 00 80 3f 00 00 80 3f 00 00 80 3f 00 00 80 3f
       1.0 1.0 1.0 1.0
000050 00 00 80 3f 00 00 80 3f 00 00 80 3f 00 00 80 3f
       1.0 1.0 1.0 1.0
000060 00 00 80 3f 00 00 80 3f 00 00 80 3f 00 00 80 3f
       1.0 1.0 1.0 1.0
000070 00 00 80 3f 00 00 80 3f 00 00 80 3f 00 00 80 3f
       1.0 1.0 1.0 1.0
000080 00 00 80 3f 00 00 80 3f 00 00 80 3f 00 00 80 3f
       1.0 1.0 1.0 1.0
000090 00 00 80 3f 00 00 80 3f 00 00 80 3f 00 00 80 3f
       1.0 1.0 1.0 1.0
0000a0 00 00 80 3f 00 00 80 3f 00 00 80 3f 00 00 80 3f
       1.0 1.0 1.0 1.0
0000b0 00 00 80 3f 00 00 80 3f 00 00 80 3f 00 00 80 3f
       1.0 1.0 1.0 1.0
0000c0 00 00 80 3f 00 00 80 3f 00 00 80 3f 00 00 80 3f
       1.0 1.0 1.0 1.0
0000d0 00 00 80 3f 00 00 80 3f 00 00 80 3f 00 00 80 3f
       1.0 1.0 1.0 1.0
0000e0 00 00 80 3f 00 00 80 3f 00 00 80 3f 00 00 80 3f
       1.0 1.0 1.0 1.0
0000f0 00 00 80 3f 00 00 80 3f 00 00 80 3f 00 00 80 3f
       1.0 1.0 1.0 1.0
000100 00 00 80 3f 00 00 80 3f 00 00 80 3f 00 00 80 3f
       1.0 1.0 1.0 1.0
000110 00 00 80 3f 00 00 80 3f 00 00 80 3f 00 00 80 3f
       1.0 1.0 1.0 1.0
000120 00 00 80 3f 00 00 80 3f 00 00 80 3f 00 00 80 3f
       1.0 1.0 1.0 1.0
000130 00 00 80 3f 00 00 80 3f 00 00 80 3f 00 00 80 3f
       1.0 1.0 1.0 1.0
000140 00 00 80 3f 00 00 80 3f 00 00 80 3f 00 00 80 3f
       1.0 1.0 1.0 1.0
000150 00 00 80 3f 00 00 80 3f 00 00 80 3f 00 00 80 3f
       1.0 1.0 1.0 1.0
000160 00 00 80 3f 00 00 80 3f 00 00 80 3f 00 00 80 3f
       1.0 1.0 1.0 1.0
000170 00 00 80 3f 00 00 80 3f 00 00 80 3f 00 00 80 3f
       1.0 1.0 1.0 1.0
000180 00 00 80 3f 00 00 80 3f 00 00 80 3f 00 00 80 3f
       1.0 1.0 1.0 1.0
000190 00 00 80 3f 00 00 80 3f 00 00 80 3f 00 00 80 3f
       1.0 1.0 1.0 1.0
0001a0 00 00 80 3f 00 00 80 3f 00 00 80 3f 00 00 80 3f
       1.0 1.0 1.0 1.0
0001b0 00 00 80 3f 00 00 80 3f 00 00 80 3f 00 00 80 3f
       1.0 1.0 1.0 1.0
0001c0 00 00 80 3f 00 00 80 3f 00 00 80 3f 00 00 80 3f
       1.0 1.0 1.0 1.0
0001d0 00 00 80 3f 00 00 80 3f 00 00 80 3f 00 00 80 3f
       1.0 1.0 1.0 1.0
0001e0 00 00 80 3f 00 00 80 3f 00 00 80 3f 00 00 80 3f
       1.0 1.0 1.0 1.0
0001f0 00 00 80 3f 00 00 80 3f 00 00 80 3f 00 00 80 3f
       1.0 1.0 1.0 1.0

norms.0.module.bias f4 [128]
000000 00 00 00 00 00 00 00 00 00 00 00 00 00 00 00 00
       0.0 0.0 0.0 0.0
000010 00 00 00 00 00 00 00 00 00 00 00 00 00 00 00 00
       0.0 0.0 0.0 0.0
000020 00 00 00 00 00 00 00 00 00 00 00 00 00 00 00 00
       0.0 0.0 0.0 0.0
000030 00 00 00 00 00 00 00 00 00 00 00 00 00 00 00 00
       0.0 0.0 0.0 0.0
000040 00 00 00 00 00 00 00 00 00 00 00 00 00 00 00 00
       0.0 0.0 0.0 0.0
000050 00 00 00 00 00 00 00 00 00 00 00 00 00 00 00 00
       0.0 0.0 0.0 0.0
000060 00 00 00 00 00 00 00 00 00 00 00 00 00 00 00 00
       0.0 0.0 0.0 0.0
000070 00 00 00 00 00 00 00 00 00 00 00 00 00 00 00 00
       0.0 0.0 0.0 0.0
000080 00 00 00 00 00 00 00 00 00 00 00 00 00 00 00 00
       0.0 0.0 0.0 0.0
000090 00 00 00 00 00 00 00 00 00 00 00 00 00 00 00 00
       0.0 0.0 0.0 0.0
0000a0 00 00 00 00 00 00 00 00 00 00 00 00 00 00 00 00
       0.0 0.0 0.0 0.0
0000b0 00 00 00 00 00 00 00 00 00 00 00 00 00 00 00 00
       0.0 0.0 0.0 0.0
0000c0 00 00 00 00 00 00 00 00 00 00 00 00 00 00 00 00
       0.0 0.0 0.0 0.0
0000d0 00 00 00 00 00 00 00 00 00 00 00 00 00 00 00 00
       0.0 0.0 0.0 0.0
0000e0 00 00 00 00 00 00 00 00 00 00 00 00 00 00 00 00
       0.0 0.0 0.0 0.0
0000f0 00 00 00 00 00 00 00 00 00 00 00 00 00 00 00 00
       0.0 0.0 0.0 0.0
000100 00 00 00 00 00 00 00 00 00 00 00 00 00 00 00 00
       0.0 0.0 0.0 0.0
000110 00 00 00 00 00 00 00 00 00 00 00 00 00 00 00 00
       0.0 0.0 0.0 0.0
000120 00 00 00 00 00 00 00 00 00 00 00 00 00 00 00 00
       0.0 0.0 0.0 0.0
000130 00 00 00 00 00 00 00 00 00 00 00 00 00 00 00 00
       0.0 0.0 0.0 0.0
000140 00 00 00 00 00 00 00 00 00 00 00 00 00 00 00 00
       0.0 0.0 0.0 0.0
000150 00 00 00 00 00 00 00 00 00 00 00 00 00 00 00 00
       0.0 0.0 0.0 0.0
000160 00 00 00 00 00 00 00 00 00 00 00 00 00 00 00 00
       0.0 0.0 0.0 0.0
000170 00 00 00 00 00 00 00 00 00 00 00 00 00 00 00 00
       0.0 0.0 0.0 0.0
000180 00 00 00 00 00 00 00 00 00 00 00 00 00 00 00 00
       0.0 0.0 0.0 0.0
000190 00 00 00 00 00 00 00 00 00 00 00 00 00 00 00 00
       0.0 0.0 0.0 0.0
0001a0 00 00 00 00 00 00 00 00 00 00 00 00 00 00 00 00
       0.0 0.0 0.0 0.0
0001b0 00 00 00 00 00 00 00 00 00 00 00 00 00 00 00 00
       0.0 0.0 0.0 0.0
0001c0 00 00 00 00 00 00 00 00 00 00 00 00 00 00 00 00
       0.0 0.0 0.0 0.0
0001d0 00 00 00 00 00 00 00 00 00 00 00 00 00 00 00 00
       0.0 0.0 0.0 0.0
0001e0 00 00 00 00 00 00 00 00 00 00 00 00 00 00 00 00
       0.0 0.0 0.0 0.0
0001f0 00 00 00 00 00 00 00 00 00 00 00 00 00 00 00 00
       0.0 0.0 0.0 0.0

norms.0.module.running_mean f4 [128]
000000 00 00 00 00 00 00 00 00 00 00 00 00 00 00 00 00
       0.0 0.0 0.0 0.0
000010 00 00 00 00 00 00 00 00 00 00 00 00 00 00 00 00
       0.0 0.0 0.0 0.0
000020 00 00 00 00 00 00 00 00 00 00 00 00 00 00 00 00
       0.0 0.0 0.0 0.0
000030 00 00 00 00 00 00 00 00 00 00 00 00 00 00 00 00
       0.0 0.0 0.0 0.0
000040 00 00 00 00 00 00 00 00 00 00 00 00 00 00 00 00
       0.0 0.0 0.0 0.0
000050 00 00 00 00 00 00 00 00 00 00 00 00 00 00 00 00
       0.0 0.0 0.0 0.0
000060 00 00 00 00 00 00 00 00 00 00 00 00 00 00 00 00
       0.0 0.0 0.0 0.0
000070 00 00 00 00 00 00 00 00 00 00 00 00 00 00 00 00
       0.0 0.0 0.0 0.0
000080 00 00 00 00 00 00 00 00 00 00 00 00 00 00 00 00
       0.0 0.0 0.0 0.0
000090 00 00 00 00 00 00 00 00 00 00 00 00 00 00 00 00
       0.0 0.0 0.0 0.0
0000a0 00 00 00 00 00 00 00 00 00 00 00 00 00 00 00 00
       0.0 0.0 0.0 0.0
0000b0 00 00 00 00 00 00 00 00 00 00 00 00 00 00 00 00
       0.0 0.0 0.0 0.0
0000c0 00 00 00 00 00 00 00 00 00 00 00 00 00 00 00 00
       0.0 0.0 0.0 0.0
0000d0 00 00 00 00 00 00 00 00 00 00 00 00 00 00 00 00
       0.0 0.0 0.0 0.0
0000e0 00 00 00 00 00 00 00 00 00 00 00 00 00 00 00 00
       0.0 0.0 0.0 0.0
0000f0 00 00 00 00 00 00 00 00 00 00 00 00 00 00 00 00
       0.0 0.0 0.0 0.0
000100 00 00 00 00 00 00 00 00 00 00 00 00 00 00 00 00
       0.0 0.0 0.0 0.0
000110 00 00 00 00 00 00 00 00 00 00 00 00 00 00 00 00
       0.0 0.0 0.0 0.0
000120 00 00 00 00 00 00 00 00 00 00 00 00 00 00 00 00
       0.0 0.0 0.0 0.0
000130 00 00 00 00 00 00 00 00 00 00 00 00 00 00 00 00
       0.0 0.0 0.0 0.0
000140 00 00 00 00 00 00 00 00 00 00 00 00 00 00 00 00
       0.0 0.0 0.0 0.0
000150 00 00 00 00 00 00 00 00 00 00 00 00 00 00 00 00
       0.0 0.0 0.0 0.0
000160 00 00 00 00 00 00 00 00 00 00 00 00 00 00 00 00
       0.0 0.0 0.0 0.0
000170 00 00 00 00 00 00 00 00 00 00 00 00 00 00 00 00
       0.0 0.0 0.0 0.0
000180 00 00 00 00 00 00 00 00 00 00 00 00 00 00 00 00
       0.0 0.0 0.0 0.0
000190 00 00 00 00 00 00 00 00 00 00 00 00 00 00 00 00
       0.0 0.0 0.0 0.0
0001a0 00 00 00 00 00 00 00 00 00 00 00 00 00 00 00 00
       0.0 0.0 0.0 0.0
0001b0 00 00 00 00 00 00 00 00 00 00 00 00 00 00 00 00
       0.0 0.0 0.0 0.0
0001c0 00 00 00 00 00 00 00 00 00 00 00 00 00 00 00 00
       0.0 0.0 0.0 0.0
0001d0 00 00 00 00 00 00 00 00 00 00 00 00 00 00 00 00
       0.0 0.0 0.0 0.0
0001e0 00 00 00 00 00 00 00 00 00 00 00 00 00 00 00 00
       0.0 0.0 0.0 0.0
0001f0 00 00 00 00 00 00 00 00 00 00 00 00 00 00 00 00
       0.0 0.0 0.0 0.0

norms.0.module.running_var f4 [128]
000000 00 00 80 3f 00 00 80 3f 00 00 80 3f 00 00 80 3f
       1.0 1.0 1.0 1.0
000010 00 00 80 3f 00 00 80 3f 00 00 80 3f 00 00 80 3f
       1.0 1.0 1.0 1.0
000020 00 00 80 3f 00 00 80 3f 00 00 80 3f 00 00 80 3f
       1.0 1.0 1.0 1.0
000030 00 00 80 3f 00 00 80 3f 00 00 80 3f 00 00 80 3f
       1.0 1.0 1.0 1.0
000040 00 00 80 3f 00 00 80 3f 00 00 80 3f 00 00 80 3f
       1.0 1.0 1.0 1.0
000050 00 00 80 3f 00 00 80 3f 00 00 80 3f 00 00 80 3f
       1.0 1.0 1.0 1.0
000060 00 00 80 3f 00 00 80 3f 00 00 80 3f 00 00 80 3f
       1.0 1.0 1.0 1.0
000070 00 00 80 3f 00 00 80 3f 00 00 80 3f 00 00 80 3f
       1.0 1.0 1.0 1.0
000080 00 00 80 3f 00 00 80 3f 00 00 80 3f 00 00 80 3f
       1.0 1.0 1.0 1.0
000090 00 00 80 3f 00 00 80 3f 00 00 80 3f 00 00 80 3f
       1.0 1.0 1.0 1.0
0000a0 00 00 80 3f 00 00 80 3f 00 00 80 3f 00 00 80 3f
       1.0 1.0 1.0 1.0
0000b0 00 00 80 3f 00 00 80 3f 00 00 80 3f 00 00 80 3f
       1.0 1.0 1.0 1.0
0000c0 00 00 80 3f 00 00 80 3f 00 00 80 3f 00 00 80 3f
       1.0 1.0 1.0 1.0
0000d0 00 00 80 3f 00 00 80 3f 00 00 80 3f 00 00 80 3f
       1.0 1.0 1.0 1.0
0000e0 00 00 80 3f 00 00 80 3f 00 00 80 3f 00 00 80 3f
       1.0 1.0 1.0 1.0
0000f0 00 00 80 3f 00 00 80 3f 00 00 80 3f 00 00 80 3f
       1.0 1.0 1.0 1.0
000100 00 00 80 3f 00 00 80 3f 00 00 80 3f 00 00 80 3f
       1.0 1.0 1.0 1.0
000110 00 00 80 3f 00 00 80 3f 00 00 80 3f 00 00 80 3f
       1.0 1.0 1.0 1.0
000120 00 00 80 3f 00 00 80 3f 00 00 80 3f 00 00 80 3f
       1.0 1.0 1.0 1.0
000130 00 00 80 3f 00 00 80 3f 00 00 80 3f 00 00 80 3f
       1.0 1.0 1.0 1.0
000140 00 00 80 3f 00 00 80 3f 00 00 80 3f 00 00 80 3f
       1.0 1.0 1.0 1.0
000150 00 00 80 3f 00 00 80 3f 00 00 80 3f 00 00 80 3f
       1.0 1.0 1.0 1.0
000160 00 00 80 3f 00 00 80 3f 00 00 80 3f 00 00 80 3f
       1.0 1.0 1.0 1.0
000170 00 00 80 3f 00 00 80 3f 00 00 80 3f 00 00 80 3f
       1.0 1.0 1.0 1.0
000180 00 00 80 3f 00 00 80 3f 00 00 80 3f 00 00 80 3f
       1.0 1.0 1.0 1.0
000190 00 00 80 3f 00 00 80 3f 00 00 80 3f 00 00 80 3f
       1.0 1.0 1.0 1.0
0001a0 00 00 80 3f 00 00 80 3f 00 00 80 3f 00 00 80 3f
       1.0 1.0 1.0 1.0
0001b0 00 00 80 3f 00 00 80 3f 00 00 80 3f 00 00 80 3f
       1.0 1.0 1.0 1.0
0001c0 00 00 80 3f 00 00 80 3f 00 00 80 3f 00 00 80 3f
       1.0 1.0 1.0 1.0
0001d0 00 00 80 3f 00 00 80 3f 00 00 80 3f 00 00 80 3f
       1.0 1.0 1.0 1.0
0001e0 00 00 80 3f 00 00 80 3f 00 00 80 3f 00 00 80 3f
       1.0 1.0 1.0 1.0
0001f0 00 00 80 3f 00 00 80 3f 00 00 80 3f 00 00 80 3f
       1.0 1.0 1.0 1.0
