init_arxiv/init_params/ogb-arxiv_GIN_128_16/init_encoder.pt (torch, 145411 bytes, 8 tensors)

convs.0.nn.lins.0.weight f4 [128, 128]
0	0x3d3e8188	0.04651025
1	0x3d8de13f	0.06927728
2	0x3d5ac20d	0.053407717
3	0x3da601aa	0.08105786
4	0xbd878cb4	-0.06618634
5	0x3d4fcfd7	0.05073532
6	0x3d9ee268	0.07758027
7	0x3ce55308	0.027993694
8	0xbd3aa1db	-0.045564514
9	0xbb8a2f0d	-0.0042170347
10	0xbd519f5c	-0.051177368
11	0xbd5937b7	-0.05303165
12	0xbd881761	-0.06645084
13	0xbd413e10	-0.047178328
14	0x3da6bfad	0.08142028
15	0xbd7defa1	-0.061996106
16	0xbd491146	-0.04908874
17	0xbcdc0a39	-0.026860343
18	0x3d32b69a	0.043631174
19	0xbcafd462	-0.021463577
20	0x3c3dd75c	0.01158699
21	0xbca41c5a	-0.02003305
22	0xbda64237	-0.08118098
23	0xbdb3bcc8	-0.087762415
24	0x3d578cc2	0.05262447
25	0x3d212d1e	0.039349668
26	0xbd4bea3c	-0.04978393
27	0x3cd4e983	0.025990253
28	0xbd97bab5	-0.074086584
29	0x3db03ec8	0.086057246
30	0x3d5e3252	0.054247208
31	0x3d59d819	0.053184602
32	0xbc3a5f0f	-0.011375203
33	0xbb582c79	-0.0032985492
34	0x3c85a17e	0.016312357
35	0x3d9478cd	0.072496034
36	0xbd5c0b43	-0.053721678
37	0xbc5d62f6	-0.013512364
38	0xbd893b3f	-0.067007534
39	0x3d73d593	0.059529852
40	0xbd309c9b	-0.0431181
41	0xbd7163df	-0.058933135
42	0xbce9695a	-0.028492618
43	0xbdafbcac	-0.08580908
44	0x3d854496	0.06507222
45	0x3a8dca9e	0.0010817831
46	0xbd341434	-0.04396458
47	0xbda94807	-0.08265691
48	0x3d767192	0.060166903
49	0xbd379d17	-0.044827547
50	0xbd7800bb	-0.06054757
51	0x3db3324f	0.0874983
52	0x3d881e1b	0.06646367
53	0x3ced3649	0.02895655
54	0x3c8287c4	0.015933879
55	0x3d5597d4	0.052146748
56	0x3b2217ad	0.002473335
57	0x3d4479d2	0.04796774
58	0x3b4e97b2	0.0031523523
59	0xbd203bce	-0.039119534
60	0xbd8c915b	-0.06863662
61	0xbb78c866	-0.0037961244
62	0xbcd0be61	-0.025481405
63	0x3d6f6e1d	0.05845462
64	0xbdaf8941	-0.08571101
65	0x3d68da37	0.05684873
66	0x3dac49bc	0.08412501
67	0xbd744826	-0.05963912
68	0x3d49d1e8	0.049272448
69	0xbd4641d3	-0.04840262
70	0x3d53f89a	0.051750757
71	0x3d881d25	0.06646184
72	0xbd7b2b8d	-0.06132083
73	0x3d5149d0	0.051095784
74	0xbd8070bb	-0.06271502
75	0xbd3b4429	-0.0457193
76	0x3b9bafcf	0.0047511826
77	0xbc0c56d0	-0.00856562
78	0x3d0c2ef0	0.03422445
79	0x3d214440	0.03937173
80	0x3d85eb6e	0.06539045
81	0x3d8f42a2	0.06995131
82	0xbda5a0ef	-0.08087336
83	0xbbed990f	-0.007250912
84	0xbd96315a	-0.07333632
85	0xbd4a7641	-0.049429182
86	0xbd921304	-0.07132533
87	0x3caa4b4c	0.020787857
88	0x3d842d87	0.06453996
89	0xbcbde9b9	-0.023182737
90	0x3c25eb98	0.010126971
91	0x3d91fdf5	0.071285166
92	0x3d7b0fb2	0.061294265
93	0xbc3bc584	-0.011460666
94	0x3d82e52d	0.06391368
95	0xbb5a3f83	-0.0033302016
96	0xbce1870c	-0.027530216
97	0x3d374072	0.044739194
98	0x3d6f96f6	0.058493577
99	0x3d552d82	0.052045353
100	0xbcfc68fc	-0.03081178
101	0xbd8137d3	-0.06309476
102	0x3d768457	0.060184803
103	0x3b051f30	0.0020312779
104	0xbccfbb9a	-0.02535801
105	0xbd2f9be5	-0.042873282
106	0xb8b663ad	-8.697002e-05
107	0xbd2c1da0	-0.04202044
108	0x3aa17ec4	0.0012321104
109	0xbd82e9fa	-0.06392284
110	0xbd82008f	-0.06347763
111	0xbdab1b52	-0.0835482
112	0x3ca2eb31	0.019887539
113	0x3b70d394	0.0036747204
114	0xbd40c254	-0.047060326
115	0xbce4a12c	-0.027908884
116	0x3c170fe4	0.009220097
117	0xbd7c2bfa	-0.061565377
118	0xbcd37dff	-0.025816916
119	0x3d77b7f4	0.060478166
120	0x3d0e6ad0	0.034769833
121	0xbbc73ff1	-0.0060806205
122	0xbc8b1892	-0.01697949
123	0x3c858196	0.016297143
124	0x3d8b6f02	0.068082824
125	0xbdaca8b5	-0.08430616
126	0xbd26eb2e	-0.04075163
127	0xbd957e6a	-0.07299502
128	0xbd27172d	-0.040793587
129	0xbd9906bd	-0.07471988
130	0x3d34a9e6	0.04410734
131	0xbcc9e28b	-0.024644157
132	0x3cb06fa9	0.021537619
133	0xbc46d8f8	-0.01213669
134	0x3c600957	0.013674102
135	0xbd04f99f	-0.03246462
136	0x3d6188d3	0.055062126
137	0xbd479c9b	-0.048733335
138	0x3d63c5d6	0.055608593
139	0xbdb10ea2	-0.08645369
140	0x3d0e528d	0.034746695
141	0xb90d6bde	-0.00013486992
142	0x3bd9e999	0.0066501615
143	0xbcce3969	-0.02517386
144	0x3d01eac7	0.03171804
145	0xbdb3fd8c	-0.087885946
146	0x3dab43d4	0.083625466
147	0xbb8ab0b7	-0.004232492
148	0xbd15646f	-0.036472734
149	0xbcdc775d	-0.026912386
150	0x3c3dec2d	0.011591953
151	0x3d8b9ad8	0.068166435
152	0x3db30df0	0.08742893
153	0xbb5fd055	-0.0034151275
154	0xbd732d5f	-0.05936944
155	0x3d807607	0.06272512
156	0x3d8c294f	0.068438165
157	0x3cd13b24	0.025540896
158	0xbd3d11f5	-0.046159703
159	0x3d184a6c	0.03718035
160	0x3d9e450d	0.07728014
161	0xbd8c8461	-0.06861187
162	0xbdb2d123	-0.08731296
163	0xbd9bbda3	-0.0760453
164	0xbdb3e831	-0.08784521
165	0x3b86feb2	0.0041197175
166	0x3d9593d5	0.07303587
167	0x3d34a2dc	0.044100627
168	0xbd8cc182	-0.06872846
169	0xbc6afacf	-0.014342024
170	0xbda60ba7	-0.08107691
171	0xbd058100	-0.032593727
172	0xbcc8a34f	-0.024491934
173	0xbd979de1	-0.0740316
174	0x3d66252a	0.056187786
175	0x3caa515a	0.020790745
176	0x3d33bf89	0.043883834
177	0xbc87b603	-0.016566282
178	0x3db3a0a4	0.08770874
179	0x3c0a3526	0.008435523
180	0x3d9241e9	0.071414776
181	0xbb715f69	-0.003683055
182	0xbd96555a	-0.07340498
183	0xbd98bf8a	-0.07458408
184	0x3cec4ca7	0.028845144
185	0x3d4b2dec	0.04960434
186	0x3c4acd81	0.0123780975
187	0x3dac212c	0.084047645
188	0xbdaa3ecd	-0.083127595
189	0x3d87bf19	0.06628246
190	0xbcabc9cc	-0.020970248
191	0xbda672a4	-0.08127335
192	0x3bc8c76a	0.0061272876
193	0xbd9259a3	-0.07146003
194	0x3d6331b0	0.055467308
195	0x3b7dd6ef	0.0038732847
196	0xbd344e02	-0.044019707
197	0x3ca8f75b	0.02062576
198	0x3d6649ef	0.056222852
199	0x3d48dbd5	0.049037773
200	0xbd7812da	-0.060564853
201	0x3ce21910	0.027599841
202	0xbda9f69b	-0.082989894
203	0xbd23e678	-0.040014714
204	0x3daa9925	0.08329991
205	0xbd74cd1e	-0.059765927
206	0x3c32ae1e	0.010905771
207	0x3d931a75	0.07182781
208	0x3d0fe9be	0.035135023
209	0x3c78f816	0.015195867
210	0x3c811390	0.015756398
211	0xbc8798cd	-0.016552353
212	0x3d57d706	0.052695297
213	0x3da1f8f3	0.079088114
214	0x3d9b5993	0.07585444
215	0xbca397c5	-0.01996983
216	0xbba05091	-0.0048924168
217	0x3d153f28	0.036437184
218	0xbc066a12	-0.008204
219	0xbc8cf628	-0.01720722
220	0x3d5fc2cf	0.054629143
221	0xbce3f62a	-0.027827341
222	0x3c73f647	0.01489026
223	0x3d7e3c73	0.062069368
224	0x3da420ea	0.0801409
225	0x3d977295	0.07394902
226	0x3d1bdc4a	0.03805188
227	0xbd7045e4	-0.058660403
228	0x3cb5cb40	0.022191644
229	0x3c808d3c	0.015692346
230	0x3d5a5fe5	0.05331411
231	0xbd8cf99a	-0.06883545
232	0xbd9b4946	-0.07582335
233	0xbda4e118	-0.08050746
234	0xbd02a892	-0.031899042
235	0x3bc46991	0.00599403
236	0x3d4e75d3	0.050405335
237	0xbd02041d	-0.031742204
238	0xbd543342	-0.051806696
239	0x3d85e222	0.06537272
240	0xbd9e3e24	-0.07726696
241	0x3d395b57	0.045253124
242	0xbdafbcab	-0.085809074
243	0x3d88e592	0.06684412
244	0x3d2e85f5	0.04260822
245	0x3db301c7	0.087405734
246	0xbd113d30	-0.035458744
247	0x3d75d70b	0.060019534
248	0xbc593fce	-0.013259841
249	0x3c445608	0.011983402
250	0x3d21d0c4	0.039505735
251	0x3d265ae3	0.04061402
252	0x3cc8eef8	0.024528012
253	0xbd58e6b0	-0.052954376
254	0xbd70daa3	-0.05880226
255	0x3d6223b1	0.05520982

convs.0.nn.lins.0.bias f4 [128]
0	0x3d5bdccb	0.05367736
1	0x3d734772	0.059394307
2	0x37879675	1.6163316e-05
3	0x3dabc327	0.08386832
4	0x3d168437	0.036747184
5	0x3d46b127	0.04850879
6	0xbd733ef6	-0.059386216
7	0x3c4a5ffd	0.012351987
8	0xbd233209	-0.03984264
9	0x3c6491ed	0.013950807
10	0xbd3515f1	-0.044210378
11	0x3c13acd8	0.009013377
12	0x3cbe6698	0.02324228
13	0xbd3b7934	-0.045769885
14	0x3be30c88	0.006928984
15	0xbd69c83f	-0.057075735
16	0x3c7cb08f	0.015422954
17	0xbc41414d	-0.011795354
18	0xbd944eb2	-0.072415724
19	0x3cf8e290	0.03038147
20	0xbdabf2e8	-0.0839594
21	0xbda781db	-0.08179065
22	0x3d58233a	0.05276797
23	0xbcca9c94	-0.024732865
24	0x3d18385e	0.03716313
25	0x3cbf82bd	0.02337777
26	0xbd9192bb	-0.07108065
27	0xbd262342	-0.04056097
28	0x3da336ae	0.07969414
29	0x3d945353	0.07242455
30	0xbcaa37f1	-0.020778628
31	0x3c0d2577	0.008614889
32	0xbda684af	-0.08130776
33	0xbd9ca148	-0.076479495
34	0x3d6f24a1	0.05838454
35	0x3dac6413	0.08417525
36	0xbd7feeb9	-0.062483523
37	0x3cd4bd1f	0.025969086
38	0x3d01ee8c	0.031721637
39	0x3c2962e1	0.010338516
40	0x3d06bd4f	0.032895382
41	0xbd531b0e	-0.051539473
42	0xbd8aca48	-0.06776863
43	0xbd538d90	-0.051648676
44	0x3d99c3ae	0.07508026
45	0xb9022137	-0.0001241014
46	0x3d62c205	0.055360813
47	0xbd628df2	-0.05531115
48	0xbcd01c52	-0.02540413
49	0xbd7ae581	-0.06125403
50	0x3ca175e7	0.01970954
51	0x3c11555a	0.008870447
52	0xbb2e216d	-0.0026570216
53	0x3b8e335c	0.0043396186
54	0xbcc9d1c0	-0.02463615
55	0x3d7c7ca7	0.061642315
56	0xbd09d213	-0.033647608
57	0x3cee0802	0.029056553
58	0x3d4da74b	0.05020837
59	0xbd2155aa	-0.039388336
60	0x3d59f541	0.053212408
61	0x3d70b1f5	0.058763463
62	0x3d212b04	0.039347664
63	0xbcd2eaac	-0.025746666
64	0xbd23b988	-0.03997186
65	0xbd9fcbda	-0.078025535
66	0xbd2ddc1e	-0.04244625
67	0x3c8b6c57	0.017019434
68	0xbd23780c	-0.039909407
69	0x3d132046	0.03591945
70	0xbd25e4ae	-0.04050129
71	0xbd2c5234	-0.042070583
72	0xbda94b04	-0.08266261
73	0xbd61e323	-0.055148255
74	0xbda88c87	-0.082299285
75	0x3d6b7c36	0.057491504
76	0x3d2ef931	0.042718116
77	0xbd249062	-0.040176757
78	0xbd847111	-0.06466878
79	0x3d8043e2	0.062629476
80	0xbd18c1de	-0.03729426
81	0x3d91d330	0.07120359
82	0xbd9d75cc	-0.076884836
83	0xbc856964	-0.016285606
84	0x3d40ab4e	0.04703837
85	0x3d89e15e	0.067324385
86	0xbda55df5	-0.080745615
87	0x3d2cdb81	0.042201523
88	0xbae221c5	-0.0017252496
89	0x3d14cda4	0.036328927
90	0x3d3ec443	0.04657389
91	0xbda9990a	-0.08281143
92	0x3dafec2d	0.08589969
93	0x3c2e1bd0	0.010626748
94	0x3cc04921	0.02347237
95	0xbd39025d	-0.04516827
96	0x3da8ef78	0.082488
97	0x3c4a592f	0.012350365
98	0x3d8cb787	0.068709426
99	0x3d1785bc	0.036992773
100	0xbd9585a7	-0.07300883
101	0x3db3ef0a	0.087858275
102	0x3d2be70e	0.041968398
103	0x3d4e3560	0.05034387
104	0xbd2ad37e	-0.0417056
105	0x3cce4bcb	0.025182625
106	0x3d04f09b	0.03245602
107	0xbd89fe6e	-0.06737982
108	0x3c47ea2e	0.012201829
109	0xbd3cdd3b	-0.04610942
110	0x3d611282	0.05494929
111	0xbcc2476a	-0.023715694
112	0x3cf1a180	0.029495955
113	0xbd8ac385	-0.06775574
114	0xbd9bd709	-0.07609374
115	0xbda5a3da	-0.08087893
116	0xbc2b5559	-0.01045736
117	0x3ce3f098	0.027824685
118	0x3caa877e	0.02081656
119	0x3ab91794	0.0014121407
120	0xbdb16fc5	-0.086638965
121	0xbd8705c5	-0.06592897
122	0x3d642e2e	0.055708103
123	0xbd3dc770	-0.046332777
124	0x3cb633d5	0.022241512
125	0xbbad1aa5	-0.0052827173
126	0xbc9a55ca	-0.018839736
127	0xbd02359c	-0.031789407

convs.0.nn.lins.1.weight f4 [128, 128]
0	0x3d1cc16d	0.038270403
1	0xbd96c550	-0.07361853
2	0xbd828107	-0.06372266
3	0x3d4d184a	0.050071992
4	0xbd733ce5	-0.059384245
5	0xbc25f7d6	-0.0101298895
6	0xbd88f852	-0.06687988
7	0x3cc9ef46	0.024650227
8	0xbb92ed4f	-0.004483856
9	0x3d1d0029	0.03833023
10	0xbd96f315	-0.07370583
11	0xbd3cdce7	-0.046109106
12	0xbc9eb430	-0.01937303
13	0xbd0360d6	-0.03207477
14	0xbc004ab9	-0.007830315
15	0xbc121e91	-0.00891842
16	0xbd4f7867	-0.050651934
17	0x3b675a07	0.0035301463
18	0xbda18673	-0.07886972
19	0xbbbe6e98	-0.0058115236
20	0xbda5b016	-0.08090226
21	0x3d3039fd	0.043024052
22	0x3d9f4ea2	0.0777867
23	0x3dab3599	0.08359832
24	0x3d469056	0.048477493
25	0xbd9ff44e	-0.07810269
26	0x3d9fbbd4	0.07799497
27	0xbd96f7ac	-0.073714584
28	0xbd80ebef	-0.06295001
29	0xbcaba2e3	-0.020951694
30	0x3d1877c3	0.03722359
31	0x3da68441	0.08130694
32	0x3d6d9d4a	0.05801133
33	0x3d7dd8a6	0.06197419
34	0xbd45ce61	-0.04829252
35	0xbd8000a0	-0.06250119
36	0xbd143863	-0.036186587
37	0xbcee639a	-0.029100228
38	0x3d7c5ba1	0.06161082
39	0xbd9bec96	-0.076134846
40	0xbce5efe6	-0.028068494
41	0x3bad2cc4	0.0052848775
42	0x3da3ce41	0.07998324
43	0xbcc7b262	-0.024377052
44	0x3d9fcdaa	0.07802899
45	0xbd3fd239	-0.046831343
46	0x3d8c98bb	0.068650685
47	0xbda50e53	-0.08059373
48	0x3c221512	0.009892719
49	0x3d9de668	0.07709962
50	0x3b2b2ec4	0.0026120404
51	0x3d9f32bc	0.07773349
52	0x3bf19597	0.007372569
53	0xbd4d987d	-0.050194252
54	0xbd2a7e14	-0.041624144
55	0xbd09f284	-0.033678547
56	0xbda24d9c	-0.07924959
57	0xbd4a5893	-0.049400877
58	0xbce88f84	-0.028388746
59	0xbdb4ebc6	-0.08834033
60	0x3c1d97b6	0.00961869
61	0xbcbdb357	-0.023156805
62	0x3cf890bd	0.030342454
63	0x3daa15bf	0.08304929
64	0x3cd408cf	0.025883107
65	0xbaba8eb3	-0.0014233202
66	0xbabf5e20	-0.0014600195
67	0xbd389417	-0.045063104
68	0xbc0f149e	-0.008732943
69	0xbc034f5f	-0.008014529
70	0x3bcee1ae	0.006313524
71	0x3c8f7e49	0.017516272
72	0xbd8092b6	-0.06277983
73	0xbc44eaf8	-0.012018912
74	0xbd8d4a69	-0.06898958
75	0xbc740b89	-0.014895328
76	0xbd8402aa	-0.06445821
77	0xbd9d0b38	-0.076681554
78	0x3d0039a1	0.03130496
79	0xbd2c3569	-0.042043123
80	0x3d4edabb	0.050501566
81	0xbda87793	-0.08225932
82	0x3c3c64cb	0.01149864
83	0xbd268e79	-0.040663216
84	0x3dae86db	0.085218154
85	0xbc9f01e2	-0.019410077
86	0x3dad2d8a	0.084559515
87	0xbce35908	-0.027752414
88	0x3cf7c5d2	0.030245695
89	0x3c1dfe05	0.0096430825
90	0xbd76ed6f	-0.060285028
91	0x3cac66ee	0.021045174
92	0xbd63dd92	-0.055631228
93	0x3d721c1b	0.059108835
94	0x3cec0a40	0.028813481
95	0x3a575dd2	0.00082155794
96	0x3ca0613a	0.019577611
97	0x3d3e49b9	0.046457026
98	0x3db1f41b	0.086891375
99	0x3da512d2	0.0806023
100	0x3d20344e	0.03911238
101	0x3d00b6bc	0.03142427
102	0xbbc1e54e	-0.005917228
103	0x3bc8a798	0.0061234944
104	0xbd830e88	-0.06399256
105	0xbd08f60e	-0.03343778
106	0x3d807b77	0.06273549
107	0xbd6cbf31	-0.05779952
108	0x3d023065	0.031784434
109	0xbd21ddc8	-0.039518148
110	0x3d0d4242	0.034487016
111	0x3c202e23	0.009776625
112	0x3a883adc	0.0010393518
113	0x3d2ff39e	0.04295694
114	0x3d302553	0.043004345
115	0xbd8667e5	-0.06562785
116	0xbd508331	-0.050906364
117	0x3d0341fd	0.032045353
118	0x3d7dd0f8	0.061966866
119	0x3d535104	0.051590934
120	0xbd45ca89	-0.048288856
121	0xbbe1db97	-0.006892632
122	0xbdae7f8c	-0.085204214
123	0x3ca2a787	0.019855274
124	0xbd98d976	-0.074633524
125	0xbda92d6f	-0.08260619
126	0xbcd27699	-0.025691317
127	0xbd06c790	-0.03290516
128	0xbd1fde89	-0.039030585
129	0x3da66b66	0.081259534
130	0xbc255bbe	-0.010092674
131	0x3d830e48	0.06399208
132	0x3d9667d3	0.07344022
133	0xbbde5dcf	-0.006786085
134	0x3d873c02	0.066032425
135	0x3c9338d6	0.017971437
136	0xbd8fe84a	-0.070267275
137	0xbd307036	-0.043075763
138	0xbd25da81	-0.040491585
139	0xbd3fc3af	-0.046817478
140	0xbd5a6a9d	-0.05332433
141	0x3c7f7476	0.015591731
142	0x3d3a9d37	0.045560088
143	0xbd81d416	-0.0633928
144	0xbda0e097	-0.07855337
145	0x3d39b7fe	0.045341484
146	0xbd54f282	-0.051989086
147	0x3cdbbddb	0.026823929
148	0x3d9ba612	0.07600035
149	0x3daae77e	0.08344935
150	0xbd67e277	-0.056612458
151	0xbce0886c	-0.027408801
152	0x3d12ef21	0.035872582
153	0xbcb84e40	-0.02249825
154	0xbda03616	-0.07822816
155	0x3d9449f0	0.07240665
156	0xbd4667b0	-0.048438728
157	0x3d889bc3	0.06670334
158	0x3c921ccd	0.017835999
159	0xbd70d36a	-0.05879537
160	0x3c978a16	0.018498462
161	0x3d41cfdf	0.047317382
162	0x3ce90ee8	0.02844949
163	0xbd8da900	-0.06917
164	0x3cf0d701	0.029399397
165	0xbdac6a0f	-0.084186666
166	0xbd0184f7	-0.031620946
167	0x3d7baeee	0.061446123
168	0xbd27273b	-0.040808897
169	0x3c858081	0.016296627
170	0x3da0f34f	0.078589074
171	0x3c33fc18	0.010985397
172	0xbcfce32f	-0.030870048
173	0xbd882334	-0.066473395
174	0xbc8843cf	-0.016633896
175	0x3ad5d944	0.001631536
176	0xbd4ad457	-0.04951891
177	0xbcececb4	-0.028921463
178	0x3d568277	0.052370515
179	0x3d9e29bc	0.07722804
180	0xbd3b881f	-0.045784112
181	0xbd82f501	-0.06394387
182	0x3d5b83c1	0.053592447
183	0xbd48226a	-0.048860945
184	0x3cb7f0f0	0.022453755
185	0xbdb0cec1	-0.08633185
186	0x3d83e039	0.064392515
187	0xbd9ff792	-0.07810892
188	0x3db22054	0.08697572
189	0xbd265b65	-0.040614504
190	0x3d847e69	0.06469423
191	0xbc92951e	-0.01789337
192	0x3d842fa5	0.064544
193	0xbc88471a	-0.016635466
194	0x3d23cdad	0.03999107
195	0xbd816b70	-0.0631932
196	0x3bdefe7f	0.0068052406
197	0x3d827263	0.06369474
198	0x3dab7f44	0.08373883
199	0x3cfc9a54	0.030835308
200	0xbc723eae	-0.014785452
201	0xbd9a8d41	-0.07546473
202	0xbb9cb1ba	-0.004781929
203	0xbda08d5f	-0.078394644
204	0x3d9f73fd	0.07785795
205	0x3d8b5863	0.06803968
206	0xbd6e91aa	-0.058244385
207	0xbda8715c	-0.082247466
208	0x3d450c9f	0.04810774
209	0x3ce44e65	0.027869413
210	0xbd94994b	-0.07255801
211	0xbb9b0631	-0.0047309627
212	0xbd0d7f20	-0.034545064
213	0x3d20c8ff	0.039254185
214	0xbd7bdfaf	-0.06149262
215	0x3d670609	0.05640224
216	0x3d2dcf47	0.042434003
217	0x3d4632c1	0.048388246
218	0xbd87d8af	-0.06633126
219	0x3d11d6e8	0.03560534
220	0xbdacab90	-0.084311604
221	0xbcab1fc9	-0.02088918
222	0xbc6d164a	-0.014470646
223	0x3b802923	0.003911154
224	0xbd1b76e6	-0.037955187
225	0xbd5336c4	-0.0515659
226	0xbd834e69	-0.0641144
227	0x3d9372d4	0.07199636
228	0xbd89b344	-0.06723645
229	0x3d86c318	0.0658018
230	0x3d92e73c	0.07173011
231	0xbd1011ed	-0.035173345
232	0xbb29c37d	-0.0025903874
233	0x3c43122e	0.01190619
234	0xbd85caf0	-0.06532848
235	0xbd702dce	-0.058637433
236	0xbc85211c	-0.01625114
237	0xbcb4ca1b	-0.022069028
238	0x3d2a21a8	0.041536003
239	0xbd884275	-0.06653301
240	0x3d2e9e5a	0.042631485
241	0x3bd196a5	0.006396132
242	0x3cc8ce7c	0.024512522
243	0x3d693972	0.05693955
244	0x3d042ec5	0.032271165
245	0xbdaabc80	-0.08336735
246	0x3d15368f	0.036428984
247	0xbd637e4c	-0.055540368
248	0x3cb67341	0.022271754
249	0xbd459a60	-0.048242927
250	0xbd7864b3	-0.06064291
251	0x3d3545c5	0.04425599
252	0xbcc943e3	-0.024568504
253	0x3d84563d	0.06461761
254	0x3caa4f19	0.02078967
255	0xbc67187c	-0.014104959

convs.0.nn.lins.1.bias f4 [128]
0	0xbc9a70cb	-0.018852612
1	0x3d8d04fd	0.06885717
2	0x3d5fd46e	0.054645948
3	0xbd20c41a	-0.039249517
4	0xbd8dc24b	-0.06921824
5	0x3cfec1c8	0.031098261
6	0x3afed1c8	0.0019441182
7	0xbd9c1f2d	-0.07623134
8	0xbd2dee97	-0.042463865
9	0x3b305229	0.002690444
10	0x3d2b474e	0.04181605
11	0xbd85e8a0	-0.0653851
12	0xbd814953	-0.063128136
13	0x3d605f44	0.054778352
14	0xbcb9cc1d	-0.022680337
15	0xbd9ca536	-0.07648699
16	0x3c013cd2	0.007888036
17	0x3d6944c2	0.05695034
18	0xbc87a54e	-0.016558316
19	0xbd95bf64	-0.073118955
20	0x3d552587	0.052037742
21	0x3d222d17	0.039593782
22	0xbd48e57d	-0.049046982
23	0x3d5320ec	0.05154507
24	0x3cf0d0a9	0.029396372
25	0xbdab4b4f	-0.08363973
26	0xbbedda8e	-0.0072587198
27	0x3ce524ce	0.027971651
28	0x3c1a0afe	0.009402035
29	0x3d00d4a4	0.03145279
30	0x3c91fbeb	0.01782032
31	0xbd0b3905	-0.033989925
32	0xbb432d94	-0.0029781805
33	0x3d852218	0.065006435
34	0x3d8406cc	0.06446609
35	0x3d9d8454	0.07691255
36	0x3b9324ba	0.004490462
37	0xbc32de99	-0.010917329
38	0x3d7e402c	0.062072918
39	0xbd9d4f2b	-0.07681116
40	0x3d0eaeac	0.03483455
41	0x3d5dc86e	0.054146223
42	0x3d5feb03	0.054667484
43	0x3da7d52c	0.08194956
44	0x3d538648	0.051641732
45	0x3d902128	0.07037574
46	0x3d561c74	0.05227323
47	0x3c8a2033	0.016861057
48	0xbd14d59c	-0.036336526
49	0xbd744fd3	-0.05964644
50	0xbda4416b	-0.0802029
51	0x3aecec70	0.0018075835
52	0x3d6b9b1d	0.057520974
53	0x3ca4161f	0.02003008
54	0x3d52b24e	0.051439576
55	0x3cd7e63a	0.026354898
56	0x3c0d08ea	0.008608082
57	0x3d6425f8	0.055700272
58	0xbc83310d	-0.0160146
59	0x3d45a2b4	0.04825087
60	0xbc55bafe	-0.013045071
61	0x3d17f4f3	0.037098836
62	0xbd70d871	-0.058800165
63	0x3ac98244	0.0015373905
64	0xbda451a5	-0.08023385
65	0xbd30bf17	-0.043150987
66	0x3d445d45	0.04794051
67	0xbdb44eef	-0.08804118
68	0xbd93d514	-0.07218376
69	0xbd80cb3f	-0.06288766
70	0x3d214ce1	0.039379958
71	0xbd19f712	-0.03758914
72	0xbccc0b53	-0.024907744
73	0x3d2a95ee	0.04164689
74	0x3db284de	0.08716749
75	0x3d6147a9	0.05499998
76	0xbdb382f4	-0.08765212
77	0xbcb0c4de	-0.021578249
78	0xbd640daf	-0.055677112
79	0xba6ab5b1	-0.0008953466
80	0x3d24be94	0.040220812
81	0x3c8910b7	0.016731603
82	0xbd6a5e71	-0.057218973
83	0x3d9b13c1	0.07572127
84	0x3d01e23d	0.0317099
85	0xbc58f753	-0.01324256
86	0x3d21fa93	0.039545607
87	0x3d61cd56	0.055127464
88	0xbbe1a826	-0.0068865
89	0xbd3d00ee	-0.046143465
90	0xbd16f6ee	-0.036856584
91	0x3db2f62d	0.087383606
92	0xbc0beab7	-0.008539847
93	0x3d402e01	0.046918873
94	0xbdb2eb4d	-0.08736286
95	0x3db0ea28	0.08638412
96	0x3b29e842	0.002592579
97	0xbc8bf366	-0.017083835
98	0x3cd97bd2	0.0265483
99	0xbd7493a7	-0.059711125
100	0xbdb4aece	-0.08822404
101	0xbd99c0a9	-0.0750745
102	0xbd623d83	-0.055234443
103	0x3c825a6c	0.015912257
104	0xbd5052b0	-0.050860107
105	0x3d7cc289	0.06170896
106	0xbd6b9f31	-0.057524864
107	0x3d618b3f	0.055064436
108	0xbd973fea	-0.073852375
109	0xbb42c137	-0.0029717216
110	0x3ac8a4f1	0.0015307945
111	0xbca65fa0	-0.02030927
112	0x3cf238c1	0.029568078
113	0x3c8179c3	0.01580513
114	0xbd1da2dc	-0.038485393
115	0xbcfc4db8	-0.030798778
116	0x3c893e4d	0.01675334
117	0x3d4bbaba	0.049738623
118	0x3c10b6c8	0.008832641
119	0xbc63219c	-0.013862994
120	0x3d4cc554	0.049992874
121	0x3d2dcbf1	0.04243082
122	0x3d712b70	0.058879316
123	0x3d81a15e	0.063296065
124	0xbd5a8c4a	-0.053356446
125	0x3c4b69e8	0.012415387
126	0x3d10d8e1	0.03536308
127	0xbd145ee7	-0.03622332

convs.1.nn.lins.0.weight f4 [16, 128]
0	0x3d67ac8f	0.05656105
1	0xbcf4dae5	-0.029889533
2	0xbd0acfaf	-0.03388947
3	0x39167e01	0.00014352055
4	0xbd895085	-0.06704811
5	0xbceb9b1a	-0.028760482
6	0xbca11b5f	-0.019666372
7	0x3b41ab25	0.0029551473
8	0xbd9cb2c5	-0.07651285
9	0xbd89f184	-0.067355186
10	0xbd4f516c	-0.05061476
11	0x3c572f49	0.013133832
12	0xbd1827c8	-0.037147313
13	0x3c8a8e44	0.01691354
14	0xbc620160	-0.013794273
15	0x3d47b5cc	0.04875736
16	0x3d87725b	0.066136084
17	0x3d78eaa6	0.060770653
18	0xbd7742b2	-0.06036634
19	0xbc830cec	-0.015997373
20	0xbd86130e	-0.06546603
21	0xbd63bb43	-0.05559851
22	0xbd4a9774	-0.049460843
23	0xbd90c63f	-0.070690624
24	0xbc835945	-0.016033778
25	0x3cd5ee53	0.026114618
26	0x3d1e30cd	0.03862076
27	0x3d2aca64	0.04169692
28	0x3da63403	0.08115389
29	0xbd731494	-0.059345797
30	0xbcb47ed2	-0.022033129
31	0x3d211e6f	0.039335664
32	0xbd142743	-0.036170255
33	0xbd3a5676	-0.04549261
34	0x3d9acf2e	0.07559048
35	0x3db0e1f4	0.08636847
36	0xbcfe3f63	-0.031036085
37	0xbd02a1c4	-0.031892553
38	0xbc1afbc3	-0.009459439
39	0x3ce4a50a	0.027910728
40	0xbcf23434	-0.029565908
41	0xbd0c1eff	-0.034209248
42	0x3d623c3b	0.05523322
43	0x3d35f3e3	0.04442204
44	0xbcef19b4	-0.02918706
45	0xbda5a871	-0.08088768
46	0x3bc44077	0.00598913
47	0x3da1277d	0.0786886
48	0xbdab12c6	-0.0835319
49	0x3db0da5b	0.08635398
50	0x3c8b155e	0.016977962
51	0x3d86d3ce	0.06583367
52	0x3dac2435	0.084053434
53	0x3b88a33f	0.004169851
54	0x3c9fb435	0.01949511
55	0xbd939cc2	-0.072076336
56	0x3d91211c	0.07086393
57	0x3d17d4e0	0.037068248
58	0xbda7a463	-0.08185651
59	0x3c6a2e1a	0.014293218
60	0x3ce88933	0.028385734
61	0xbd9a4039	-0.07531781
62	0x3d23545f	0.039875384
63	0xbc7ff8e9	-0.01562331
64	0x3b29e04e	0.002592105
65	0x3cca0f23	0.02466542
66	0x3d971eb6	0.073789045
67	0x3d8cb2e3	0.068700574
68	0x3d5b6d1a	0.053570844
69	0xbd13f221	-0.036119584
70	0xbd516391	-0.051120345
71	0x3d393596	0.04521712
72	0xbd7c42e1	-0.06158722
73	0xbccfafd8	-0.025352404
74	0x3ce02f1b	0.027366212
75	0xbdb349ff	-0.08754348
76	0x3d983b1b	0.074331485
77	0xbd3b4785	-0.045722503
78	0xbbd2cfa0	-0.0064334422
79	0x3d45fc16	0.04833611
80	0xbbd3e7fe	-0.0064668646
81	0xbd6ba4b4	-0.05753012
82	0x3d81c547	0.06336456
83	0xbd00d7f2	-0.03145594
84	0xbceadc7e	-0.028669592
85	0xbd8e2b84	-0.06941894
86	0x3d19b651	0.037527386
87	0x3db3f2e4	0.08786562
88	0x3d6d4f28	0.057936817
89	0xbd5b5471	-0.053547326
90	0xbb4414fb	-0.0029919732
91	0xbd0c81c8	-0.034303457
92	0x3ccaf766	0.024776172
93	0xbd3f7c7f	-0.046749588
94	0x3d9a043c	0.07520339
95	0xbdb06c02	-0.08614351
96	0x3da376b0	0.07981622
97	0x3d00eaac	0.0314738
98	0x3d0bdcb7	0.034146037
99	0x3d98352c	0.07432017
100	0xbda68b51	-0.08132041
101	0xbd32fb8c	-0.043696925
102	0xbd51c79f	-0.051215764
103	0xbd3e8a09	-0.04651836
104	0xbd734b97	-0.05939826
105	0xbceaf1d7	-0.028679771
106	0x3d658f6c	0.05604498
107	0xbd8c548b	-0.06852063
108	0x3d52dfdb	0.051483016
109	0xbc4529a2	-0.012033852
110	0xbbc43965	-0.0059882873
111	0xbd12ba46	-0.035822175
112	0x3d864a33	0.06557121
113	0xbcdba0b0	-0.02681002
114	0x3da63c2c	0.081169456
115	0xbc9bcc8e	-0.019018438
116	0xbd15d8e8	-0.03658381
117	0xbd44979e	-0.047996156
118	0x3b81d25f	0.0039618458
119	0x3a6e01fa	0.0009079274
120	0xbcf62abf	-0.03004968
121	0xbd0fe51a	-0.035130598
122	0x3cd4a09d	0.025955493
123	0x3d93dec9	0.07220227
124	0x3d6065da	0.054784633
125	0x3d1cf65c	0.038320884
126	0x3d9c57c3	0.07633927
127	0xbd1ac5f1	-0.037786428
128	0x3d218d7e	0.039441578
129	0x3d96e266	0.07367401
130	0xbdb19019	-0.086700626
131	0xbcd1544f	-0.025552897
132	0xbcced8bb	-0.02524983
133	0x3c3d7dc7	0.011565632
134	0x3db03eea	0.0860575
135	0x3d916544	0.07099393
136	0xbca81d09	-0.020521658
137	0xbd06b571	-0.03288788
138	0x3c2c67e2	0.0105228145
139	0xbda77ea2	-0.0817845
140	0x3d009e48	0.03140095
141	0xbd91c34e	-0.071173295
142	0xbd395628	-0.04524818
143	0x3cc03275	0.02346156
144	0xbd9f7da6	-0.077876374
145	0x3d937785	0.07200531
146	0xbc31b778	-0.010846965
147	0xbda62312	-0.08112158
148	0x3d8d9810	0.06913769
149	0xbbc504dd	-0.0060125426
150	0xbb385821	-0.00281287
151	0x3cfad179	0.030617462
152	0x3d6b5925	0.05745806
153	0x3d6aaaf6	0.057291947
154	0xbbcad2f0	-0.0061896965
155	0xbd01b57b	-0.031667214
156	0x3d2634b9	0.040577624
157	0x3d43ad69	0.0477728
158	0x3cd627b6	0.026141983
159	0x3c8f3ef4	0.017486073
160	0xbdb3dfa9	-0.08782894
161	0xbcfda943	-0.0309645
162	0x3d83828d	0.06421385
163	0x3d1d92a4	0.038469926
164	0x3cd776d6	0.026301783
165	0xbd67a810	-0.05655676
166	0x3d5b9e86	0.053617977
167	0xbd17caa8	-0.037058502
168	0x3d124edf	0.03571975
169	0x3b7d84e9	0.0038683957
170	0xbb8f2ed3	-0.0043695956
171	0xbd159a43	-0.03652407
172	0x3d03d4d9	0.03218541
173	0x3d9d17dc	0.076705664
174	0xbd9d13eb	-0.07669815
175	0x3d0ecf14	0.034865454
176	0x3c5edaa8	0.013601936
177	0xbb05bb48	-0.0020405818
178	0x3d9c6a68	0.07637483
179	0x3aff1d17	0.0019463626
180	0x3d89669b	0.067090236
181	0xbce8e163	-0.028427785
182	0xbd1ae98e	-0.03782039
183	0x3d520bcd	0.051280785
184	0xbd1cb5c8	-0.038259298
185	0x3d792b27	0.06083217
186	0x3ce23d53	0.027617132
187	0xbcb9206b	-0.022598466
188	0x3d9a46ea	0.07533057
189	0xbc0bee79	-0.008540743
190	0x3d1e3d9b	0.03863297
191	0x3d9f5b74	0.07781115
192	0x3d23dbb8	0.040004462
193	0xbd890443	-0.06690266
194	0x3d3f4e81	0.046705727
195	0xbd15f123	-0.03660692
196	0x3d86fccb	0.06591185
197	0x3d00e142	0.031464823
198	0x3bf351d5	0.0074255266
199	0x3d26c3e1	0.04071415
200	0xbc0b8139	-0.008514696
201	0x3da3f53a	0.08005758
202	0x3da86a84	0.08223441
203	0xbdb0b233	-0.08627739
204	0xbcce33cc	-0.025171183
205	0x3d085092	0.033279963
206	0xbc88bf6b	-0.016692838
207	0x3c0ff695	0.008786817
208	0xbd8d2f86	-0.0689383
209	0xbc64e108	-0.013969667
210	0x3c83433d	0.016023273
211	0x3d9c2137	0.07623523
212	0x3d5630a3	0.052292477
213	0xbd851051	-0.06497253
214	0xbd87e014	-0.066345364
215	0x3cf3c3d4	0.029756464
216	0xbcc91220	-0.024544775
217	0xbd7473d0	-0.05968076
218	0x3b0beccb	0.0021350856
219	0xbd4d0e94	-0.05006273
220	0x3d195e4d	0.037443448
221	0xbd9adc65	-0.07561568
222	0xbd3e77e5	-0.04650106
223	0xbc0de271	-0.008659945
224	0xbda8576e	-0.08219801
225	0x3dacb919	0.08433742
226	0xbd344df9	-0.044019673
227	0xbce51d5c	-0.027968101
228	0x3d0c612a	0.03427235
229	0xbc69d47a	-0.01427185
230	0xbce47d77	-0.027891858
231	0x3a916a58	0.0011094315
232	0xbd1b73b1	-0.03795213
233	0xbd8638af	-0.0655378
234	0x3d853651	0.06504501
235	0xbb0dbfa9	-0.002162913
236	0xbd5a91b6	-0.053361617
237	0x3c9b1116	0.018929046
238	0xbd751a47	-0.059839513
239	0x3da8a3a8	0.0823434
240	0xbcac8348	-0.021058694
241	0xbb7f46a1	-0.003895201
242	0xbdb18fae	-0.08669983
243	0xbda12be9	-0.07869703
244	0x3da04445	0.078255214
245	0xbc8659eb	-0.016400298
246	0xbd7b41d0	-0.06134206
247	0x3d4a7b6c	0.04943411
248	0xbd21b0fb	-0.039475422
249	0xbd1ee9b5	-0.0387971
250	0x3d4729cd	0.04862385
251	0x3d854fc6	0.06509356
252	0x3ccbed2a	0.024893362
253	0x3d4de31c	0.050265417
254	0xbc829fc4	-0.015945323
255	0xbcf45dbc	-0.029829852

convs.1.nn.lins.0.bias f4 [16]
0	0x3c23c81e	0.009996442
1	0x3d5a0df8	0.053235978
2	0x3d7b2ee6	0.061324023
3	0x3bdee50b	0.0068022064
4	0xbc92ee53	-0.017935907
5	0x3d99e45f	0.075142615
6	0xbd427771	-0.04747719
7	0x3d822fdd	0.063567854
8	0x3ccdd99e	0.025128182
9	0xbd6a0f63	-0.05714358
10	0xbc62edd1	-0.013850645
11	0xbd8907f0	-0.06690967
12	0xbd613333	-0.054980468
13	0x3d0bf295	0.03416689
14	0xbd4693c3	-0.04848076
15	0xbd26371c	-0.0405799

convs.1.nn.lins.1.weight f4 [16, 16]
0	0xbdc59e90	-0.09649384
1	0xbe54cc58	-0.20781076
2	0xbd7a3018	-0.061081022
3	0x3e3924bc	0.1808042
4	0xbe40a33e	-0.18812272
5	0xbdcbd004	-0.09951785
6	0xbe0e6c08	-0.13908398
7	0xbe792e12	-0.2433398
8	0x3e39d87e	0.18148991
9	0x3df23d68	0.118281186
10	0xbe3263ec	-0.1742093
11	0xbdb97f44	-0.09057477
12	0x3e1fa72e	0.15591118
13	0x3e0ebdc6	0.1393958
14	0x3dfe2054	0.1240851
15	0x3dae52f4	0.08511916
16	0x3dcada1c	0.09904882
17	0xbc8cb940	-0.017178178
18	0xbda23128	-0.07919532
19	0x3e328f54	0.17437488
20	0x3d963394	0.073340565
21	0x3e7d8e3a	0.24761286
22	0xbc4e0680	-0.012574792
23	0xbd22cc20	-0.03974545
24	0xbe58417a	-0.21118727
25	0xbe09aea8	-0.13445532
26	0xbd00f968	-0.031487852
27	0xbc561c60	-0.013068289
28	0xbe479ba2	-0.19492963
29	0x3e2312da	0.1592516
30	0x3d5847b8	0.05280277
31	0xbe30c822	-0.17263845
32	0xbd07f388	-0.033191234
33	0x3e63ff00	0.22265244
34	0x3dbcb300	0.09213829
35	0x3e5d6bf0	0.21623206
36	0x3e767534	0.24068147
37	0xbe320c4e	-0.17387506
38	0x3c058100	0.008148432
39	0xbe620570	-0.22072387
40	0x3e6ba1c2	0.23010924
41	0xbe63a9f0	-0.22232795
42	0x3e125bb2	0.14292791
43	0x3d9b0488	0.07569224
44	0x3c949940	0.018139482
45	0x3e115aca	0.1419479
46	0xbc25a940	-0.010111153
47	0xbd87f43c	-0.06638381
48	0x3b9a7640	0.0047138035
49	0x3e64d598	0.22347105
50	0xbe10f368	-0.14155352
51	0xbde1272c	-0.109937996
52	0x3d696698	0.056982607
53	0x3e4acb5a	0.19804135
54	0x3d87e238	0.06634945
55	0x3d578148	0.052613527
56	0x3c9ea4f0	0.019365758
57	0x3ce2c3c0	0.027681231
58	0x3e03476c	0.12820214
59	0x3e67f526	0.2265211
60	0x3e1017c0	0.1407156
61	0xbe2f72d6	-0.1713365
62	0x3d60f080	0.05491686
63	0xbd5dd2f0	-0.054156244
64	0x3e3328c8	0.17496026
65	0xbda73a70	-0.08165443
66	0x3df01f18	0.11724681
67	0x3e4383e4	0.19093281
68	0xbda90dec	-0.082546085
69	0xbe29d678	-0.1658572
70	0xbe41c390	-0.18922257
71	0xbe285df4	-0.1644209
72	0x3ddf4fe8	0.10903913
73	0x3e08aa3c	0.1334619
74	0xbca2e510	-0.019884616
75	0xbd96f8f4	-0.07371703
76	0xbe442f34	-0.19158632
77	0x3d9d5a0c	0.07683191
78	0xbe0af184	-0.13568693
79	0xbda0cbfc	-0.07851407
80	0xbe40be82	-0.18822673
81	0x3d96b76c	0.07359204
82	0x3e2df624	0.16988426
83	0x3e76e98a	0.24112526
84	0x3bf9be80	0.0076215863
85	0x3d9854b0	0.07438028
86	0xbe5e696e	-0.21719906
87	0x3d8231d0	0.06357157
88	0xbe2c5848	-0.16830552
89	0x3e212a3c	0.15738767
90	0xbe24020e	-0.16016409
91	0xbc881a50	-0.01661411
92	0xbe37ce34	-0.17949754
93	0xbe3f8b24	-0.18705422
94	0xbe22078a	-0.15823188
95	0x3d6e5748	0.058188707
96	0xbe1d66ec	-0.15371293
97	0x3dd7ce28	0.10537368
98	0x3e034078	0.12817562
99	0xbd851118	-0.06497401
100	0x3d3ddcf8	0.04635331
101	0x3e1c8dd2	0.15288475
102	0x3e796658	0.24355447
103	0x3e5ebe06	0.21752176
104	0x3e65aa00	0.22428131
105	0xbe6c623a	-0.23084345
106	0xbd844c18	-0.06459826
107	0xbe457794	-0.19283897
108	0xbd97dbf8	-0.074150026
109	0xbe036bd8	-0.12834108
110	0x3e783610	0.24239373
111	0x3e75f466	0.24019012
112	0x3c8c4b50	0.017125756
113	0xbe7c1f00	-0.246212
114	0x3e3f6c64	0.18693691
115	0xbe28e492	-0.16493443
116	0xbc668540	-0.014069855
117	0x3d87493c	0.06605765
118	0x3e0baf64	0.13641125
119	0xbe060104	-0.13086325
120	0xbba09800	-0.0049009323
121	0xbdb64b98	-0.08901137
122	0x3e52b29e	0.2057595
123	0x3ddc2b00	0.10750389
124	0x3c7a4680	0.015275598
125	0xbd0a9470	-0.033832967
126	0xbdfe2404	-0.12409213
127	0x3e6053c4	0.21906954
128	0xbc6eb2e0	-0.014569014
129	0x3decfdec	0.11571869
130	0xbca26330	-0.019822687
131	0xbd085fb8	-0.03329441
132	0xbaeee200	-0.0018225312
133	0xbd72e6a8	-0.059302002
134	0xbe2a0806	-0.16604623
135	0xbdab527c	-0.08365342
136	0x3debc52c	0.11512217
137	0x3d2aae00	0.041669846
138	0x3e499b7c	0.19688219
139	0xbdb3b7b0	-0.0877527
140	0xbe78d702	-0.24300769
141	0xbdebc478	-0.11512083
142	0x3e462a3e	0.19352052
143	0x3ded5118	0.11587733
144	0x3e066954	0.13126117
145	0xbe5e2f2e	-0.21697685
146	0x3cd969e0	0.026539743
147	0xbda8df20	-0.08245683
148	0x3c3c5a80	0.011496186
149	0xbdef5a60	-0.116871595
150	0x3d4a2b28	0.049357563
151	0x3dba24d8	0.09089059
152	0xbe5f5d80	-0.21813011
153	0x3c785ee0	0.015159339
154	0xbe4927aa	-0.19644037
155	0x3e680d2e	0.22661278
156	0x3e46b958	0.1940664
157	0x3d04dd90	0.03243786
158	0xbe21788c	-0.15768641
159	0x3e16fe44	0.14745432
160	0xbe7fc2e8	-0.24976695
161	0xbd92f4d8	-0.071756065
162	0xbe317664	-0.17330319
163	0x3e239822	0.15976003
164	0xbdbf7b50	-0.09349692
165	0x3dd2680c	0.102737516
166	0x3e47af68	0.19500506
167	0x3e777666	0.24166259
168	0xbe7b8a6e	-0.24564525
169	0xbce757e0	-0.028240144
170	0xbe34c12c	-0.17651814
171	0x3e6917c8	0.22762978
172	0xbd46bcb8	-0.04851982
173	0x3d267fe8	0.040649325
174	0x3d026be8	0.03184119
175	0xbc869c00	-0.016431808
176	0xbe3af574	-0.18257695
177	0x3e7bc8d6	0.24588332
178	0xbe08a482	-0.13344005
179	0x3e26bdf6	0.16283402
180	0x3e2c63f4	0.16835004
181	0xbe7657cc	-0.2405693
182	0x3d46de48	0.048551828
183	0xbe3f6444	-0.18690592
184	0xbdb2da34	-0.08733025
185	0x3e691ea4	0.22765595
186	0x3e3f9b44	0.18711573
187	0x3d8fd6f8	0.07023424
188	0x3b966940	0.0045901835
189	0x3dc991ec	0.098422855
190	0x3d581830	0.052757442
191	0x3e737f18	0.23778951
192	0x3e57332c	0.21015614
193	0x3e096d2c	0.13420552
194	0x3e6555a8	0.22395957
195	0x3e250b6a	0.16117635
196	0xbd95f3f8	-0.07321924
197	0xbd2b30f0	-0.041794717
198	0x3d9db3b0	0.07700288
199	0xbe6d7468	-0.23188937
200	0xbdaa337c	-0.08310601
201	0x3d5ae880	0.053444386
202	0xbc619d20	-0.013770372
203	0xbe688882	-0.22708324
204	0xbd687f98	-0.056762308
205	0xbe455fc8	-0.19274819
206	0x3df2b24c	0.11850414
207	0x3d70bf00	0.0587759
208	0xbe31a822	-0.17349294
209	0x3debda64	0.11516264
210	0xbcdb8dc0	-0.02680099
211	0xbe067c48	-0.13133347
212	0xbe7f522a	-0.24933687
213	0x3dd4765c	0.10374138
214	0x3d20ad00	0.039227486
215	0xbe6b44a0	-0.22975397
216	0x3e11cca0	0.14238214
217	0xbd2c18b8	-0.04201576
218	0x3db0b5dc	0.08628437
219	0x3dcd6878	0.100296915
220	0xbd0008e8	-0.031258494
221	0xbc5af3a0	-0.013363749
222	0xbcd89d40	-0.02644217
223	0x3e53923e	0.20661256
224	0x3c0ff0c0	0.008785427
225	0xbe029da4	-0.12755448
226	0xbd8c860c	-0.06861505
227	0xbd99de54	-0.07513109
228	0x3dfc8ec4	0.12331918
229	0x3de17590	0.110087514
230	0xbe4a1b12	-0.19736889
231	0xbe78233e	-0.24232194
232	0x3d82e7e0	0.06391883
233	0xbdea4ed8	-0.114408195
234	0x3be46380	0.006969869
235	0x3d0de2d0	0.034640133
236	0xbd79eac8	-0.06101492
237	0xbdbf3114	-0.09335533
238	0xbda8e69c	-0.0824711
239	0xbe3d0cf4	-0.18461972
240	0x3e2faa16	0.17154726
241	0x3e6e995a	0.23300686
242	0x3d70ae48	0.058759958
243	0x3e0427ba	0.1290578
244	0xbe717e2a	-0.23583284
245	0x3e77edb2	0.24211767
246	0xbe5799c2	-0.21054748
247	0xbe648f6e	-0.22320339
248	0xbc1402e0	-0.009033889
249	0xbdd50568	-0.10401422
250	0x3e76b4cc	0.24092406
251	0xbe2fae5a	-0.17156354
252	0xbdae2164	-0.085024625
253	0x3e3d802e	0.18505928
254	0x3cf5e830	0.030017942
255	0x3d7147f8	0.058906525

convs.1.nn.lins.1.bias f4 [16]
0	0xbde948e4	-0.11390856
1	0xbe090166	-0.1337944
2	0x3e70fa6e	0.23533031
3	0xbe290f90	-0.16509843
4	0xbc4d5380	-0.012532115
5	0x3d5255d0	0.05135137
6	0xbd41d450	-0.047321618
7	0x3dad1e60	0.08453059
8	0xbdffca08	-0.12489706
9	0x3d0c1f08	0.03420928
10	0xbda054c8	-0.07828671
11	0xbd62a258	-0.055330604
12	0x3e469814	0.1939395
13	0xbcb561a0	-0.022141278
14	0xbdc38e9c	-0.09548685
15	0xbe54c832	-0.20779493
