init_arxiv/init_params/ogb-arxiv_GAT_128_16/init_encoder.pt (torch, 78721 bytes, 10 tensors)

convs.0.att_src f4 [1, 1, 128]
0	0xbd9bc0f9	-0.07605166
1	0x3e3dd80b	0.18539445
2	0x3c181895	0.009283205
3	0xbdf7c17c	-0.12097451
4	0xbca14a16	-0.019688647
5	0xbd149f95	-0.036285
6	0x3e4dac09	0.20085157
7	0xbd90e7c1	-0.070754535
8	0xbe52abaa	-0.20573297
9	0x3d6f779b	0.058463674
10	0x3db60cc6	0.08889155
11	0x3e39103a	0.18072596
12	0x3e14f625	0.14547022
13	0x3de9b5d8	0.11411637
14	0xbe52ac65	-0.20573576
15	0x3a6cb84b	0.00090301473
16	0xbd044759	-0.032294605
17	0xbd60e77a	-0.054908253
18	0xbda2a227	-0.07941084
19	0x3deccc6b	0.11562427
20	0xbda53c40	-0.080681324
21	0x3d384d81	0.04499579
22	0x3d8350fd	0.06411932
23	0xbe28bd23	-0.164784
24	0x3d2709a0	0.040780663
25	0x3d8e2fbc	0.06942698
26	0x3e2d25d6	0.16908965
27	0x3d48ea90	0.04905182
28	0x3c18da24	0.0093293525
29	0x3d781a80	0.060572147
30	0x3cf9cbf6	0.030492764
31	0xbde2232c	-0.11041865
32	0x3de5ecb2	0.11226787
33	0x3e4eb136	0.20184788
34	0x3dfecb1e	0.12441085
35	0xbcf03f12	-0.02932695
36	0x3cd70e2f	0.02625188
37	0xbe269e91	-0.16271426
38	0x3df34ea6	0.118802354
39	0xbe0aea85	-0.13566025
40	0xbb7376ea	-0.0037149736
41	0xbe1a5df3	-0.15074901
42	0xbd0fe269	-0.03512803
43	0xbd6f65a7	-0.058446553
44	0x3d11af65	0.03556766
45	0x3e1aaec1	0.15105726
46	0xbe000df7	-0.12505327
47	0x3da59a94	0.08086124
48	0xbdbe0d07	-0.092798285
49	0x3e2b4db9	0.16728868
50	0xbd8d0fd2	-0.06887783
51	0xbe5220b1	-0.20520283
52	0x3e13e14a	0.1444141
53	0x3e04c53c	0.12965864
54	0x3c8b5a35	0.017010788
55	0xbc9edf9c	-0.019393735
56	0x3e277d42	0.16356376
57	0xbe55b92f	-0.20871423
58	0xbcd8efd2	-0.026481543
59	0xbe0ba6b7	-0.13637815
60	0xbdf23dd5	-0.118282
61	0xbdca305e	-0.098725066
62	0x3e334bc0	0.17509365
63	0x3e0b0a63	0.13578181
64	0x3e5b5a00	0.21421051
65	0x3d727a9c	0.05919896
66	0xbddcfe13	-0.10790648
67	0x3e01dadf	0.12681149
68	0x3e4a23bc	0.19740194
69	0xbe3498dd	-0.17636438
70	0xbdab0bd1	-0.08351863
71	0xbdcb5560	-0.09928393
72	0xbd89b492	-0.06723894
73	0x3d03eab8	0.032206267
74	0xbe53f802	-0.20700076
75	0x3c5053b8	0.012715273
76	0xbe54abc5	-0.2076865
77	0xbd10679c	-0.03525506
78	0xbe56b38f	-0.20966934
79	0x3db54609	0.08851249
80	0x3d1e07eb	0.03858177
81	0xbcdfafae	-0.02730545
82	0xbd7b653e	-0.06137585
83	0x3e310184	0.17285734
84	0xbd00d89e	-0.031456582
85	0xbdf1e2be	-0.11810826
86	0xbd346d5c	-0.044049606
87	0xbe37a234	-0.1793297
88	0xbe58ec84	-0.21183974
89	0xbe3619bd	-0.17783256
90	0xbe296769	-0.16543354
91	0xbe5b1205	-0.21393593
92	0xbda513aa	-0.08060391
93	0x3e27e014	0.16394073
94	0xbdf23b01	-0.1182766
95	0xbceb129d	-0.028695399
96	0x3c84f3cc	0.016229533
97	0xbdbedfc3	-0.09320023
98	0xbd858643	-0.06519749
99	0x3c85c4b9	0.016329156
100	0xbe4c2654	-0.19936496
101	0xbde1851d	-0.110117175
102	0x3d713d0b	0.058896106
103	0xbde02549	-0.109446116
104	0x3cf86f57	0.030326528
105	0xbe2b3cba	-0.16722384
106	0xbe3101d2	-0.1728585
107	0x3e44d988	0.19223607
108	0xbe27c8c9	-0.16385187
109	0x3db36c31	0.0876087
110	0x3e41dc9f	0.18931817
111	0x3de2c24e	0.11072217
112	0x3d852f4f	0.06503164
113	0x3c0d0442	0.008606972
114	0xbcf4d0d7	-0.029884739
115	0x3e3faa50	0.18717313
116	0x3d285ead	0.041105915
117	0xbe097eee	-0.13427326
118	0xbd51de47	-0.05123737
119	0xbe283485	-0.16426285
120	0xbe4133d9	-0.18867435
121	0xbe58a6ce	-0.21157381
122	0x3e451221	0.19245197
123	0xbdc86fc1	-0.0978694
124	0xbe022150	-0.1270802
125	0xbe55506b	-0.20831458
126	0xbe55649f	-0.20839165
127	0xbe324be0	-0.17411757

convs.0.att_dst f4 [1, 1, 128]
0	0x3dc79c78	0.09746641
1	0xbe3b7832	-0.1830757
2	0x3da2b299	0.07944221
3	0xbdfc8bd4	-0.123313576
4	0x3e448e10	0.19194818
5	0x3e580e9b	0.21099322
6	0xbe59d825	-0.21273859
7	0x3de2e59b	0.1107895
8	0x3e52ff87	0.20605288
9	0xbdc9e65a	-0.09858389
10	0xbe02ee2e	-0.12786171
11	0x3e46acc7	0.19401847
12	0x3d832e06	0.06405263
13	0x3d87e3ee	0.06635271
14	0x3e1c397f	0.15256308
15	0x3e249802	0.16073611
16	0xbe32019d	-0.17383428
17	0x3e4f4d30	0.20244288
18	0xbb688343	-0.0035478629
19	0xbe4f301b	-0.20233195
20	0xbd02d329	-0.03193966
21	0xbdd2f075	-0.1029977
22	0x3df22440	0.118233204
23	0x3cdf7382	0.027276758
24	0x3e02ee54	0.12786227
25	0x3e0314a5	0.12800844
26	0xbe516ec1	-0.20452406
27	0xbd9fc437	-0.07801097
28	0xbe381d69	-0.17979969
29	0xbd85a97f	-0.065264694
30	0x3e158815	0.14602692
31	0x3e44bb2a	0.19212022
32	0xbe36bb7b	-0.17844956
33	0xbd91ed36	-0.071253225
34	0x3d67e289	0.056612525
35	0xbe33216b	-0.17493217
36	0x3ba700ad	0.005096516
37	0xbe334901	-0.17508318
38	0x3e5914e7	0.2119938
39	0x3e576e8e	0.21038267
40	0x3e23c93d	0.15994735
41	0x3e37861b	0.17922251
42	0x3e330ace	0.1748459
43	0x3d219561	0.0394491
44	0x3e00b6e8	0.12569773
45	0xbd1d3368	-0.038379103
46	0xbdd7d600	-0.10538864
47	0x3e594774	0.21218663
48	0x3ab2448e	0.0013600753
49	0x3e34cc2c	0.1765601
50	0x3b664751	0.0035137723
51	0x3dc37dbe	0.09545468
52	0xbdbe7b39	-0.093008466
53	0xbdea7080	-0.11447239
54	0x3defd0e8	0.117097676
55	0xbd131c38	-0.035915583
56	0x3ca089a9	0.019596891
57	0xbdc61315	-0.09671608
58	0x3e1f1639	0.15535821
59	0xbcacc556	-0.02109019
60	0x3e0889de	0.13333842
61	0x3d873732	0.066023245
62	0xbd646e6a	-0.05576936
63	0xbce82755	-0.028339067
64	0xbd9a46ed	-0.07533059
65	0x3d8a8b13	0.067648076
66	0xbd99016b	-0.074709736
67	0x3e00543a	0.1253213
68	0x3d6b6bc4	0.05747582
69	0xbe12d0d3	-0.14337473
70	0x3cf1d348	0.029519692
71	0x3dc1e86a	0.094681576
72	0xbd9cfe19	-0.07665653
73	0xbcd71402	-0.026254658
74	0xbe25521b	-0.16144602
75	0x3b30464a	0.0026897364
76	0x3e4b2ad0	0.1984055
77	0xbbe3aea2	-0.006948308
78	0xbe2ae8ea	-0.16690412
79	0x3cc78664	0.024356075
80	0xbe1d2125	-0.15344675
81	0x3e00a775	0.1256388
82	0x3e4c0927	0.19925366
83	0x3d08ed56	0.033429466
84	0x3e3eb78e	0.18624708
85	0x3d6c6f66	0.057723425
86	0x3d80ae36	0.06283228
87	0xbe195865	-0.14975126
88	0xbd9f1fbb	-0.07769724
89	0xbdeb1789	-0.11479098
90	0x3b3a837d	0.002845972
91	0x3e0509f2	0.12992075
92	0xbdeda816	-0.116043255
93	0xbe0f9764	-0.14022595
94	0x3e318bf2	0.17338541
95	0x3e458b01	0.19291307
96	0x3d912e10	0.07088864
97	0x3e1112e7	0.14167367
98	0xbdcc97ee	-0.09989916
99	0xbe2f3723	-0.17110877
100	0xbd1ca94d	-0.038247395
101	0xbe5acdff	-0.21367644
102	0x3dafe5bd	0.08588741
103	0xbd843cf8	-0.06456941
104	0xbdbca03b	-0.09210249
105	0xbe1de95e	-0.15421054
106	0xbdb851c7	-0.08999973
107	0x3e06d7bd	0.13168235
108	0x3b501946	0.0031753345
109	0x3e45939c	0.1929459
110	0xbdc0b276	-0.09409039
111	0xbaecc382	-0.0018063637
112	0x3e0dee4b	0.13860433
113	0x3e055241	0.13019659
114	0x3d2c0d06	0.042004608
115	0x3e043774	0.12911779
116	0xbda04898	-0.07826346
117	0xbdd4ba3f	-0.10387086
118	0xbd987d8e	-0.07445823
119	0x3e2c6741	0.16836263
120	0x3d66a948	0.056313783
121	0x3e47a765	0.1949745
122	0xbd134516	-0.035954557
123	0x3dca9fad	0.09893737
124	0x3e1bee8e	0.1522772
125	0x3dc4b488	0.09604746
126	0xbd6c387c	-0.057671055
127	0xbc99095f	-0.018681226

convs.0.bias f4 [128]
0	0x00000000	0.0
1	0x00000000	0.0
2	0x00000000	0.0
3	0x00000000	0.0
4	0x00000000	0.0
5	0x00000000	0.0
6	0x00000000	0.0
7	0x00000000	0.0
8	0x00000000	0.0
9	0x00000000	0.0
10	0x00000000	0.0
11	0x00000000	0.0
12	0x00000000	0.0
13	0x00000000	0.0
14	0x00000000	0.0
15	0x00000000	0.0
16	0x00000000	0.0
17	0x00000000	0.0
18	0x00000000	0.0
19	0x00000000	0.0
20	0x00000000	0.0
21	0x00000000	0.0
22	0x00000000	0.0
23	0x00000000	0.0
24	0x00000000	0.0
25	0x00000000	0.0
26	0x00000000	0.0
27	0x00000000	0.0
28	0x00000000	0.0
29	0x00000000	0.0
30	0x00000000	0.0
31	0x00000000	0.0
32	0x00000000	0.0
33	0x00000000	0.0
34	0x00000000	0.0
35	0x00000000	0.0
36	0x00000000	0.0
37	0x00000000	0.0
38	0x00000000	0.0
39	0x00000000	0.0
40	0x00000000	0.0
41	0x00000000	0.0
42	0x00000000	0.0
43	0x00000000	0.0
44	0x00000000	0.0
45	0x00000000	0.0
46	0x00000000	0.0
47	0x00000000	0.0
48	0x00000000	0.0
49	0x00000000	0.0
50	0x00000000	0.0
51	0x00000000	0.0
52	0x00000000	0.0
53	0x00000000	0.0
54	0x00000000	0.0
55	0x00000000	0.0
56	0x00000000	0.0
57	0x00000000	0.0
58	0x00000000	0.0
59	0x00000000	0.0
60	0x00000000	0.0
61	0x00000000	0.0
62	0x00000000	0.0
63	0x00000000	0.0
64	0x00000000	0.0
65	0x00000000	0.0
66	0x00000000	0.0
67	0x00000000	0.0
68	0x00000000	0.0
69	0x00000000	0.0
70	0x00000000	0.0
71	0x00000000	0.0
72	0x00000000	0.0
73	0x00000000	0.0
74	0x00000000	0.0
75	0x00000000	0.0
76	0x00000000	0.0
77	0x00000000	0.0
78	0x00000000	0.0
79	0x00000000	0.0
80	0x00000000	0.0
81	0x00000000	0.0
82	0x00000000	0.0
83	0x00000000	0.0
84	0x00000000	0.0
85	0x00000000	0.0
86	0x00000000	0.0
87	0x00000000	0.0
88	0x00000000	0.0
89	0x00000000	0.0
90	0x00000000	0.0
91	0x00000000	0.0
92	0x00000000	0.0
93	0x00000000	0.0
94	0x00000000	0.0
95	0x00000000	0.0
96	0x00000000	0.0
97	0x00000000	0.0
98	0x00000000	0.0
99	0x00000000	0.0
100	0x00000000	0.0
101	0x00000000	0.0
102	0x00000000	0.0
103	0x00000000	0.0
104	0x00000000	0.0
105	0x00000000	0.0
106	0x00000000	0.0
107	0x00000000	0.0
108	0x00000000	0.0
109	0x00000000	0.0
110	0x00000000	0.0
111	0x00000000	0.0
112	0x00000000	0.0
113	0x00000000	0.0
114	0x00000000	0.0
115	0x00000000	0.0
116	0x00000000	0.0
117	0x00000000	0.0
118	0x00000000	0.0
119	0x00000000	0.0
120	0x00000000	0.0
121	0x00000000	0.0
122	0x00000000	0.0
123	0x00000000	0.0
124	0x00000000	0.0
125	0x00000000	0.0
126	0x00000000	0.0
127	0x00000000	0.0

convs.0.lin_src.weight f4 [128, 128]
0	0x3d51f81f	0.051262017
1	0xbda2f7aa	-0.079573944
2	0x3de2ac19	0.11067981
3	0x3e094656	0.13405737
4	0x3e190a18	0.14945257
5	0x3e153a17	0.14572941
6	0xbb40bed4	-0.0029410617
7	0x3df996c0	0.121869564
8	0xbd29e4aa	-0.041477837
9	0xbdfbd2b0	-0.12296045
10	0xbcd2ac4b	-0.025716921
11	0x3d9b9bc9	0.07598073
12	0x3cd4a25d	0.025956327
13	0xbe113a49	-0.1418239
14	0xbd7200b5	-0.059082706
15	0x3d11c6e1	0.035590056
16	0x3dd55ecd	0.104184724
17	0xbe0e7e2d	-0.1391532
18	0xbd90fc18	-0.07079333
19	0xbd33e32d	-0.043917824
20	0x3dcc0da6	0.09963541
21	0xbd8ef6ee	-0.06980692
22	0xbd9cfa1c	-0.07664892
23	0xbe19e5b4	-0.15029031
24	0x3d96f279	0.07370467
25	0xbdf52376	-0.11969654
26	0xbd5fe672	-0.05466313
27	0x3e108a3e	0.14115235
28	0x3df0b948	0.117540896
29	0xbbf3e7a4	-0.007443385
30	0x3da3bf82	0.079955116
31	0x3d786e22	0.060651906
32	0x3d3630e4	0.04448022
33	0xbd1b0b22	-0.037852414
34	0x3d855f2c	0.06512293
35	0x3e0cdead	0.13756819
36	0xbe0e394b	-0.13889043
37	0xbe0e0a2f	-0.13871072
38	0xbe0a8dfa	-0.13530722
39	0xbd9b2829	-0.07576019
40	0xbda5db1a	-0.08098431
41	0x3c0a4c50	0.008441046
42	0x3ddb48ec	0.10707268
43	0x3dfde934	0.123979956
44	0x3d2eaa6c	0.042642996
45	0x3e080ed4	0.13286906
46	0x3dbdb765	0.09263495
47	0xbe0ec715	-0.13943131
48	0x3d794deb	0.060865324
49	0x3df1029f	0.11768078
50	0x3c9e4354	0.019319214
51	0xbe0d7657	-0.13814674
52	0xbda35235	-0.07974664
53	0x3c132c86	0.008982783
54	0x3dcaedae	0.09908615
55	0x3d46b6fc	0.04851435
56	0xbe141d6a	-0.14464346
57	0xbe08da72	-0.1336458
58	0x3e1a45ba	0.15065661
59	0xbd2be516	-0.04196652
60	0xbc7473f3	-0.014920223
61	0xbe1657ac	-0.14681882
62	0x3def9dcf	0.117000215
63	0x3ce4c8f3	0.027927851
64	0x3d7ce672	0.061743207
65	0x3def3682	0.116803184
66	0x3d469390	0.04848057
67	0xbda7eb26	-0.08199148
68	0x3e093367	0.13398515
69	0xbe1535df	-0.14571331
70	0xbded0314	-0.11572853
71	0x3de19483	0.110146545
72	0xbcb0a052	-0.021560822
73	0x3d92907b	0.07156464
74	0xbddb59c0	-0.10710478
75	0x3d24e0e7	0.040253546
76	0x3e0b0ab4	0.13578302
77	0x3d413755	0.04717191
78	0x3c6322d5	0.013863285
79	0x3d36d304	0.044634834
80	0xbd9528b9	-0.07283158
81	0x3e09bee4	0.13451725
82	0xbe090ae1	-0.13383056
83	0x3ddddf47	0.108336024
84	0xbdbe12b9	-0.09280915
85	0xbc141c30	-0.009039924
86	0x3c934dd2	0.017981444
87	0x3dee8e45	0.116482295
88	0x3dfd8d8c	0.123805135
89	0x3dab79b3	0.08372822
90	0xbd55d97c	-0.052209362
91	0x3dd08baf	0.101828925
92	0x3debef9b	0.115203105
93	0x3df6f68c	0.12058744
94	0x3d239903	0.039940845
95	0xbb871485	-0.004122319
96	0x3d520ac8	0.051279813
97	0x3dfe31d4	0.12411848
98	0xbd984716	-0.074354336
99	0xbd80963a	-0.062786534
100	0xbd47a017	-0.048736658
101	0x3e0610cb	0.13092344
102	0x3dda08d5	0.10646216
103	0x3dcd5ded	0.100276805
104	0x3cd74317	0.026277108
105	0xbde6df9b	-0.11273118
106	0xbcd394ce	-0.025827792
107	0xbd3c179d	-0.045920957
108	0x3df9decd	0.12200699
109	0x3d5b7007	0.053573634
110	0xbdcc20e6	-0.099672124
111	0xbdb0ccc4	-0.08632806
112	0x3d57b070	0.0526585
113	0xbde69dbd	-0.11260555
114	0x3e1115db	0.14168493
115	0x3d5314d1	0.051533524
116	0xbda8cc92	-0.08242144
117	0x3dd448df	0.103654616
118	0x3e14aa72	0.14518145
119	0xbe070d1e	-0.13188598
120	0x3cb0a3d7	0.0215625
121	0xbdc79699	-0.09745521
122	0xbe072c8a	-0.13200584
123	0x3c38003a	0.011230523
124	0x3da7f66e	0.082012996
125	0xbdadfc34	-0.084953696
126	0x3db98c2e	0.0905994
127	0xbc181904	-0.009283308
128	0x3d9b22ff	0.07575034
129	0xbd60f463	-0.054920565
130	0xbe095007	-0.13409434
131	0xbde83157	-0.11337536
132	0xbd1bd3af	-0.038043674
133	0x3e0e6085	0.13904007
134	0xbdf60ad0	-0.12013781
135	0x3e0e4e00	0.13896942
136	0x3c294bbe	0.010333
137	0xbe0cb340	-0.13740253
138	0xbcd5a6ed	-0.026080573
139	0x3d7eed08	0.06223777
140	0x3da47b27	0.08031302
141	0xbe1a285b	-0.15054457
142	0xbd8ba0bf	-0.06817769
143	0x3c952d45	0.018210063
144	0x3d89bb5f	0.06725191
145	0x3aa43ba8	0.0012529986
146	0xbddaae6c	-0.106777996
147	0xbd1700df	-0.036866065
148	0xbd888370	-0.06665695
149	0xbd3aea89	-0.045633826
150	0xbc99ccfc	-0.018774502
151	0xbd93cecd	-0.072171785
152	0xbe104041	-0.14087011
153	0x3c566a50	0.01308687
154	0x3e149796	0.1451095
155	0xbd94a262	-0.072575346
156	0x3e1b5aa5	0.15171297
157	0x3db9ec90	0.09078324
158	0x3dd79c27	0.105278306
159	0x3d5596b3	0.05214567
160	0xbd00e180	-0.031465054
161	0xbca3b9f3	-0.019986128
162	0x3c86b00d	0.01644137
163	0xbdd9df24	-0.10638264
164	0x3d4a38a1	0.04937041
165	0x3dadab7c	0.08479974
166	0x3bfa2e5a	0.00763492
167	0xbde58436	-0.11206858
168	0xbd7b1f4d	-0.061309148
169	0xbdfbe1a2	-0.122988954
170	0x3e030ec1	0.12798597
171	0xbddb625d	-0.10712121
172	0x3dd3de91	0.103451855
173	0x3d610b15	0.05494221
174	0xb9a63fe3	-0.00031709587
175	0x3d056cbd	0.032574404
176	0x3d5ca636	0.05386945
177	0x3dc79171	0.097445376
178	0xbe1a4976	-0.15067086
179	0x3e1142e3	0.14185672
180	0x3dfa9486	0.1223536
181	0xbd39a33e	-0.045321696
182	0x3d4cba82	0.049982555
183	0x3d288c56	0.04114946
184	0xbdb3a0fe	-0.08770941
185	0x3da5a253	0.080876015
186	0x3e045f5e	0.12927005
187	0xbd4a3897	-0.049370375
188	0xbd286d11	-0.04111964
189	0x3e0e28a7	0.13882695
190	0xbc809173	-0.015694356
191	0xbdf09704	-0.11747554
192	0xbdd23a49	-0.10265023
193	0x3e000db3	0.12505226
194	0x3e00efe5	0.12591513
195	0xbca0dacb	-0.019635579
196	0xbcd4f4cd	-0.025995636
197	0x3d8bac9a	0.068200305
198	0xbe04ffbe	-0.12988183
199	0x3e15aa20	0.14615679
200	0xbddd22fe	-0.1079769
201	0xbd56c8ec	-0.052437708
202	0xbbb92a39	-0.0056507853
203	0x3d94c321	0.072637804
204	0xbdd1c81c	-0.10243246
205	0xbd25b615	-0.04045685
206	0x3b88d4a0	0.0041757375
207	0xbba2acd9	-0.0049644527
208	0x3da38685	0.07984642
209	0x3dc616e1	0.096723326
210	0x3d915fb4	0.07098332
211	0xbd93a5d9	-0.07209367
212	0x3e16de35	0.14733203
213	0xbb686e65	-0.003546619
214	0xbc3137eb	-0.010816555
215	0x3df9d0a9	0.12198002
216	0x3e16584a	0.14682117
217	0xbd15bbcc	-0.03655605
218	0xbda03921	-0.078233965
219	0xbcc3e17f	-0.023911236
220	0x3d1b0e5e	0.0378555
221	0x3dfc4ec0	0.12319708
222	0x3dc69499	0.096963115
223	0x3dbbc5d5	0.09168593
224	0xbdb9892d	-0.09059367
225	0x3d88bda4	0.06676796
226	0xbd305561	-0.043050174
227	0xbd5ec6c4	-0.054388776
228	0x3d06b6c5	0.032889146
229	0x3cb84985	0.022495994
230	0x3dd90ccd	0.10598145
231	0x3de65ef3	0.11248579
232	0x3cf468b2	0.029835079
233	0xbe132426	-0.14369258
234	0xbd16214d	-0.03665285
235	0x3dc10464	0.094246656
236	0xbd93cafc	-0.072164506
237	0xbc2d59f1	-0.010580526
238	0x3dc0894e	0.09401189
239	0x3e1b9a4b	0.15195577
240	0xbd186887	-0.03720906
241	0x3ca0cb5f	0.019628225
242	0x3c1b6cac	0.009486359
243	0x3db9ea8b	0.09077939
244	0x3d7d5603	0.061849605
245	0x3de79073	0.113068484
246	0xbda06208	-0.07831198
247	0x3de88c3d	0.11354873
248	0xbcff33fd	-0.03115272
249	0xbdd07e8c	-0.10180387
250	0x3dec2d50	0.1153208
251	0x3dc3a997	0.09553831
252	0xbd20f125	-0.039292473
253	0x3d45ea5c	0.048319206
254	0xbde9c7be	-0.11415051
255	0x3de084c1	0.10962821

convs.0.lin_dst.weight f4 [128, 128]
0	0x3d51f81f	0.051262017
1	0xbda2f7aa	-0.079573944
2	0x3de2ac19	0.11067981
3	0x3e094656	0.13405737
4	0x3e190a18	0.14945257
5	0x3e153a17	0.14572941
6	0xbb40bed4	-0.0029410617
7	0x3df996c0	0.121869564
8	0xbd29e4aa	-0.041477837
9	0xbdfbd2b0	-0.12296045
10	0xbcd2ac4b	-0.025716921
11	0x3d9b9bc9	0.07598073
12	0x3cd4a25d	0.025956327
13	0xbe113a49	-0.1418239
14	0xbd7200b5	-0.059082706
15	0x3d11c6e1	0.035590056
16	0x3dd55ecd	0.104184724
17	0xbe0e7e2d	-0.1391532
18	0xbd90fc18	-0.07079333
19	0xbd33e32d	-0.043917824
20	0x3dcc0da6	0.09963541
21	0xbd8ef6ee	-0.06980692
22	0xbd9cfa1c	-0.07664892
23	0xbe19e5b4	-0.15029031
24	0x3d96f279	0.07370467
25	0xbdf52376	-0.11969654
26	0xbd5fe672	-0.05466313
27	0x3e108a3e	0.14115235
28	0x3df0b948	0.117540896
29	0xbbf3e7a4	-0.007443385
30	0x3da3bf82	0.079955116
31	0x3d786e22	0.060651906
32	0x3d3630e4	0.04448022
33	0xbd1b0b22	-0.037852414
34	0x3d855f2c	0.06512293
35	0x3e0cdead	0.13756819
36	0xbe0e394b	-0.13889043
37	0xbe0e0a2f	-0.13871072
38	0xbe0a8dfa	-0.13530722
39	0xbd9b2829	-0.07576019
40	0xbda5db1a	-0.08098431
41	0x3c0a4c50	0.008441046
42	0x3ddb48ec	0.10707268
43	0x3dfde934	0.123979956
44	0x3d2eaa6c	0.042642996
45	0x3e080ed4	0.13286906
46	0x3dbdb765	0.09263495
47	0xbe0ec715	-0.13943131
48	0x3d794deb	0.060865324
49	0x3df1029f	0.11768078
50	0x3c9e4354	0.019319214
51	0xbe0d7657	-0.13814674
52	0xbda35235	-0.07974664
53	0x3c132c86	0.008982783
54	0x3dcaedae	0.09908615
55	0x3d46b6fc	0.04851435
56	0xbe141d6a	-0.14464346
57	0xbe08da72	-0.1336458
58	0x3e1a45ba	0.15065661
59	0xbd2be516	-0.04196652
60	0xbc7473f3	-0.014920223
61	0xbe1657ac	-0.14681882
62	0x3def9dcf	0.117000215
63	0x3ce4c8f3	0.027927851
64	0x3d7ce672	0.061743207
65	0x3def3682	0.116803184
66	0x3d469390	0.04848057
67	0xbda7eb26	-0.08199148
68	0x3e093367	0.13398515
69	0xbe1535df	-0.14571331
70	0xbded0314	-0.11572853
71	0x3de19483	0.110146545
72	0xbcb0a052	-0.021560822
73	0x3d92907b	0.07156464
74	0xbddb59c0	-0.10710478
75	0x3d24e0e7	0.040253546
76	0x3e0b0ab4	0.13578302
77	0x3d413755	0.04717191
78	0x3c6322d5	0.013863285
79	0x3d36d304	0.044634834
80	0xbd9528b9	-0.07283158
81	0x3e09bee4	0.13451725
82	0xbe090ae1	-0.13383056
83	0x3ddddf47	0.108336024
84	0xbdbe12b9	-0.09280915
85	0xbc141c30	-0.009039924
86	0x3c934dd2	0.017981444
87	0x3dee8e45	0.116482295
88	0x3dfd8d8c	0.123805135
89	0x3dab79b3	0.08372822
90	0xbd55d97c	-0.052209362
91	0x3dd08baf	0.101828925
92	0x3debef9b	0.115203105
93	0x3df6f68c	0.12058744
94	0x3d239903	0.039940845
95	0xbb871485	-0.004122319
96	0x3d520ac8	0.051279813
97	0x3dfe31d4	0.12411848
98	0xbd984716	-0.074354336
99	0xbd80963a	-0.062786534
100	0xbd47a017	-0.048736658
101	0x3e0610cb	0.13092344
102	0x3dda08d5	0.10646216
103	0x3dcd5ded	0.100276805
104	0x3cd74317	0.026277108
105	0xbde6df9b	-0.11273118
106	0xbcd394ce	-0.025827792
107	0xbd3c179d	-0.045920957
108	0x3df9decd	0.12200699
109	0x3d5b7007	0.053573634
110	0xbdcc20e6	-0.099672124
111	0xbdb0ccc4	-0.08632806
112	0x3d57b070	0.0526585
113	0xbde69dbd	-0.11260555
114	0x3e1115db	0.14168493
115	0x3d5314d1	0.051533524
116	0xbda8cc92	-0.08242144
117	0x3dd448df	0.103654616
118	0x3e14aa72	0.14518145
119	0xbe070d1e	-0.13188598
120	0x3cb0a3d7	0.0215625
121	0xbdc79699	-0.09745521
122	0xbe072c8a	-0.13200584
123	0x3c38003a	0.011230523
124	0x3da7f66e	0.082012996
125	0xbdadfc34	-0.084953696
126	0x3db98c2e	0.0905994
127	0xbc181904	-0.009283308
128	0x3d9b22ff	0.07575034
129	0xbd60f463	-0.054920565
130	0xbe095007	-0.13409434
131	0xbde83157	-0.11337536
132	0xbd1bd3af	-0.038043674
133	0x3e0e6085	0.13904007
134	0xbdf60ad0	-0.12013781
135	0x3e0e4e00	0.13896942
136	0x3c294bbe	0.010333
137	0xbe0cb340	-0.13740253
138	0xbcd5a6ed	-0.026080573
139	0x3d7eed08	0.06223777
140	0x3da47b27	0.08031302
141	0xbe1a285b	-0.15054457
142	0xbd8ba0bf	-0.06817769
143	0x3c952d45	0.018210063
144	0x3d89bb5f	0.06725191
145	0x3aa43ba8	0.0012529986
146	0xbddaae6c	-0.106777996
147	0xbd1700df	-0.036866065
148	0xbd888370	-0.06665695
149	0xbd3aea89	-0.045633826
150	0xbc99ccfc	-0.018774502
151	0xbd93cecd	-0.072171785
152	0xbe104041	-0.14087011
153	0x3c566a50	0.01308687
154	0x3e149796	0.1451095
155	0xbd94a262	-0.072575346
156	0x3e1b5aa5	0.15171297
157	0x3db9ec90	0.09078324
158	0x3dd79c27	0.105278306
159	0x3d5596b3	0.05214567
160	0xbd00e180	-0.031465054
161	0xbca3b9f3	-0.019986128
162	0x3c86b00d	0.01644137
163	0xbdd9df24	-0.10638264
164	0x3d4a38a1	0.04937041
165	0x3dadab7c	0.08479974
166	0x3bfa2e5a	0.00763492
167	0xbde58436	-0.11206858
168	0xbd7b1f4d	-0.061309148
169	0xbdfbe1a2	-0.122988954
170	0x3e030ec1	0.12798597
171	0xbddb625d	-0.10712121
172	0x3dd3de91	0.103451855
173	0x3d610b15	0.05494221
174	0xb9a63fe3	-0.00031709587
175	0x3d056cbd	0.032574404
176	0x3d5ca636	0.05386945
177	0x3dc79171	0.097445376
178	0xbe1a4976	-0.15067086
179	0x3e1142e3	0.14185672
180	0x3dfa9486	0.1223536
181	0xbd39a33e	-0.045321696
182	0x3d4cba82	0.049982555
183	0x3d288c56	0.04114946
184	0xbdb3a0fe	-0.08770941
185	0x3da5a253	0.080876015
186	0x3e045f5e	0.12927005
187	0xbd4a3897	-0.049370375
188	0xbd286d11	-0.04111964
189	0x3e0e28a7	0.13882695
190	0xbc809173	-0.015694356
191	0xbdf09704	-0.11747554
192	0xbdd23a49	-0.10265023
193	0x3e000db3	0.12505226
194	0x3e00efe5	0.12591513
195	0xbca0dacb	-0.019635579
196	0xbcd4f4cd	-0.025995636
197	0x3d8bac9a	0.068200305
198	0xbe04ffbe	-0.12988183
199	0x3e15aa20	0.14615679
200	0xbddd22fe	-0.1079769
201	0xbd56c8ec	-0.052437708
202	0xbbb92a39	-0.0056507853
203	0x3d94c321	0.072637804
204	0xbdd1c81c	-0.10243246
205	0xbd25b615	-0.04045685
206	0x3b88d4a0	0.0041757375
207	0xbba2acd9	-0.0049644527
208	0x3da38685	0.07984642
209	0x3dc616e1	0.096723326
210	0x3d915fb4	0.07098332
211	0xbd93a5d9	-0.07209367
212	0x3e16de35	0.14733203
213	0xbb686e65	-0.003546619
214	0xbc3137eb	-0.010816555
215	0x3df9d0a9	0.12198002
216	0x3e16584a	0.14682117
217	0xbd15bbcc	-0.03655605
218	0xbda03921	-0.078233965
219	0xbcc3e17f	-0.023911236
220	0x3d1b0e5e	0.0378555
221	0x3dfc4ec0	0.12319708
222	0x3dc69499	0.096963115
223	0x3dbbc5d5	0.09168593
224	0xbdb9892d	-0.09059367
225	0x3d88bda4	0.06676796
226	0xbd305561	-0.043050174
227	0xbd5ec6c4	-0.054388776
228	0x3d06b6c5	0.032889146
229	0x3cb84985	0.022495994
230	0x3dd90ccd	0.10598145
231	0x3de65ef3	0.11248579
232	0x3cf468b2	0.029835079
233	0xbe132426	-0.14369258
234	0xbd16214d	-0.03665285
235	0x3dc10464	0.094246656
236	0xbd93cafc	-0.072164506
237	0xbc2d59f1	-0.010580526
238	0x3dc0894e	0.09401189
239	0x3e1b9a4b	0.15195577
240	0xbd186887	-0.03720906
241	0x3ca0cb5f	0.019628225
242	0x3c1b6cac	0.009486359
243	0x3db9ea8b	0.09077939
244	0x3d7d5603	0.061849605
245	0x3de79073	0.113068484
246	0xbda06208	-0.07831198
247	0x3de88c3d	0.11354873
248	0xbcff33fd	-0.03115272
249	0xbdd07e8c	-0.10180387
250	0x3dec2d50	0.1153208
251	0x3dc3a997	0.09553831
252	0xbd20f125	-0.039292473
253	0x3d45ea5c	0.048319206
254	0xbde9c7be	-0.11415051
255	0x3de084c1	0.10962821

convs.1.att_src f4 [1, 1, 16]
0	0xbd3fb062	-0.04679907
1	0xbead88cf	-0.3389344
2	0x3f173abe	0.5907401
3	0x3de48ad8	0.11159295
4	0x3f02357f	0.5086288
5	0xbf03863e	-0.5137671
6	0xbe715910	-0.23569131
7	0xbf06ff8b	-0.5273368
8	0xbeaf3d3e	-0.34226412
9	0x3ebb0726	0.3652889
10	0x3d636826	0.055519246
11	0x3edb5232	0.42836148
12	0x3f03295b	0.5123498
13	0xbdc04332	-0.093878165
14	0xbeedaa5f	-0.46419045
15	0x3e56c4f7	0.20973574

convs.1.att_dst f4 [1, 1, 16]
0	0x3cc757c3	0.02433384
1	0xbf04bbcc	-0.51849055
2	0x3e3c8913	0.18411665
3	0x3ed83278	0.42226005
4	0x3e12b8dc	0.14328331
5	0xbe4366c7	-0.19082175
6	0x3ec0e30e	0.3767323
7	0x3da8f7cf	0.08250391
8	0xbf0f9cb0	-0.5609846
9	0x3d1d9549	0.038472448
10	0x3f174cfa	0.5910183
11	0xbe8bcd42	-0.27305037
12	0x3e449ab3	0.19199638
13	0xbe76ba88	-0.24094594
14	0xbeef9096	-0.46789998
15	0x3ec7a103	0.3899003

convs.1.bias f4 [16]
0	0x00000000	0.0
1	0x00000000	0.0
2	0x00000000	0.0
3	0x00000000	0.0
4	0x00000000	0.0
5	0x00000000	0.0
6	0x00000000	0.0
7	0x00000000	0.0
8	0x00000000	0.0
9	0x00000000	0.0
10	0x00000000	0.0
11	0x00000000	0.0
12	0x00000000	0.0
13	0x00000000	0.0
14	0x00000000	0.0
15	0x00000000	0.0

convs.1.lin_src.weight f4 [16, 128]
0	0xbd0ce54d	-0.034398366
1	0xbdde5a20	-0.10857034
2	0x3dde6d05	0.108606376
3	0x3de75829	0.11296112
4	0xbda9bf9c	-0.082885
5	0xbccd4b15	-0.025060216
6	0x3e2c0b19	0.16801108
7	0xbe20aa06	-0.15689859
8	0x3e1f0ddb	0.15532629
9	0x3e192af3	0.1495779
10	0x3e1e9eb3	0.15490226
11	0xbdaea4d7	-0.085275345
12	0xbca1da8d	-0.019757533
13	0xbe0e131a	-0.13874474
14	0x3e041654	0.12899143
15	0x3d1f6acc	0.03892021
16	0x3ca5c0ec	0.020233594
17	0xbd868c51	-0.06569732
18	0xbd2a3001	-0.041549686
19	0x3e2e8e0d	0.17046376
20	0x3c0395e5	0.008031343
21	0x3e2d4bd9	0.16923465
22	0xbcad46c8	-0.021151915
23	0xbd83a2f9	-0.06427569
24	0x3e45d55d	0.19319673
25	0x3d96ec05	0.07369236
26	0xbd9e23ca	-0.0772167
27	0x3e287d4d	0.16454048
28	0x3d863f25	0.065550126
29	0x3e2c3055	0.16815312
30	0x3dc0222a	0.09381516
31	0xbe3a3754	-0.18185169
32	0xbdd85732	-0.10563506
33	0xbe43a13b	-0.19104473
34	0x3d2b7f0c	0.04186921
35	0x3dc424ec	0.09577355
36	0xbdedf53b	-0.116190396
37	0x3e25ab04	0.16178519
38	0xbbb883c2	-0.005630941
39	0x3e4848c4	0.19559008
40	0xbb9f9dfb	-0.0048711277
41	0x3e2a8d50	0.16655469
42	0xbe4fb30f	-0.20283149
43	0x3e14ae32	0.14519575
44	0x3b8c369f	0.0042789723
45	0x3daa71fd	0.08322523
46	0xbc4b4820	-0.012407333
47	0xbe10baea	-0.14133802
48	0xbe034fd6	-0.12823424
49	0x3e1b67bf	0.15176295
50	0x3d97f0d0	0.07418978
51	0x3dd07bb1	0.10179842
52	0xbe01ddcf	-0.1268227
53	0x3e23d54a	0.15999332
54	0xbd4f2dcf	-0.050580796
55	0xbe068908	-0.13138211
56	0x3e164de3	0.14678149
57	0x3d97df59	0.07415647
58	0xbd9bf5f5	-0.07615272
59	0x3c58bc6a	0.013228515
60	0x3e32a97d	0.17447467
61	0x3e18296c	0.14859551
62	0xbe0c4fb4	-0.1370228
63	0x3dd0e655	0.10200182
64	0x3d958379	0.07300467
65	0x3e13d1b6	0.14435467
66	0x3df5151b	0.11966916
67	0xbe4669ca	-0.19376293
68	0x3dadeb34	0.08492127
69	0xbd15e6c1	-0.036597017
70	0x3d3669d0	0.044534504
71	0x3de75857	0.11296146
72	0xbd8532fe	-0.065038666
73	0x3e1ea2c1	0.15491773
74	0xbdbadc2a	-0.09124024
75	0x3d9c269a	0.0762455
76	0x3d90afe9	0.07064802
77	0x3e408702	0.18801501
78	0x3d992784	0.0747824
79	0xbdddedd0	-0.10836375
80	0xbd47c0ac	-0.04876773
81	0x3c31f297	0.010861061
82	0x3e283239	0.16425408
83	0xbcc6808e	-0.024231222
84	0xbc260948	-0.010134049
85	0xbe0c4fe8	-0.13702357
86	0xbe216e4b	-0.1576473
87	0x3ddb67cf	0.10713159
88	0x3d54dd99	0.051969144
89	0xbd6d4f88	-0.057937175
90	0xbe27c69d	-0.16384359
91	0xbde16b2c	-0.110067695
92	0x3e07a867	0.13247834
93	0x3dd88bb8	0.10573524
94	0xbde9511a	-0.11392422
95	0xbe2806fb	-0.16408913
96	0x3d18006b	0.037109774
97	0xbe1d2c66	-0.15348968
98	0xbcb76b72	-0.022390101
99	0x3d497e1f	0.049192544
100	0xbe43374f	-0.19064067
101	0x3daf4093	0.085572384
102	0x3e1760de	0.14783046
103	0xbe39b40b	-0.18135087
104	0xbd5bd35f	-0.053668376
105	0xbda96b37	-0.08272403
106	0x3d9b8974	0.075945765
107	0x3d5f26c6	0.054480337
108	0xbd491bfd	-0.049098957
109	0xbe342b8e	-0.1759474
110	0x3bca25c2	0.006169052
111	0x3cc1b5b8	0.02364622
112	0xbc67333a	-0.014111334
113	0xbc23b691	-0.009992258
114	0x3d91a50d	0.07111559
115	0xbdadb434	-0.08481637
116	0x3db22ea8	0.08700305
117	0x3d86832f	0.0656799
118	0xbe473ab6	-0.1945599
119	0x3d95b1bf	0.07309293
120	0xbe17909d	-0.1480126
121	0x3d7de0bf	0.061981913
122	0xbdb763a3	-0.08954551
123	0xbd5e24c2	-0.054234274
124	0xbe05c34b	-0.1306278
125	0x3d2be82c	0.041969463
126	0xbe01cce9	-0.12675823
127	0xbd7b571f	-0.061362382
128	0xbdec2c63	-0.115319036
129	0x3dcb9c8f	0.099419706
130	0x3ded9afb	0.11601826
131	0x3d2bf70c	0.04198365
132	0x3b1b5e00	0.0023707151
133	0x3d22cdca	0.039747037
134	0xbe455216	-0.19269595
135	0xbe397ebf	-0.18114756
136	0x3caab0b4	0.020836212
137	0x3e19f3f4	0.15034467
138	0x3e2eeea3	0.1708322
139	0xbdb7eabe	-0.089803204
140	0xbe1cc935	-0.1531113
141	0xbcc5c848	-0.024143353
142	0x3e4c5403	0.19953923
143	0xbc0b749a	-0.008511687
144	0x3d0cebc1	0.03440452
145	0xbdb4b0ff	-0.08822822
146	0xbe29fe39	-0.16600884
147	0xbd8d3445	-0.06894735
148	0x3d9e90d5	0.07742468
149	0x3d6c6842	0.057716615
150	0x3deb4569	0.11487848
151	0x3e0725b1	0.13197972
152	0x3de4001d	0.11132834
153	0x3da4fdca	0.08056219
154	0x3cbda89d	0.02315169
155	0x3d97ea2e	0.07417713
156	0x3e2174d3	0.15767221
157	0xbd9d4609	-0.07679374
158	0xbe303437	-0.17207418
159	0x3a2c8791	0.000658148
160	0x3adbbe2b	0.0016765048
161	0x3e44caba	0.19217959
162	0xbdbd9fbc	-0.092589825
163	0xbd063fa5	-0.03277554
164	0x3d1a4194	0.037660196
165	0x3d8bda7f	0.06828784
166	0x3e34f9b7	0.17673384
167	0x3d61242a	0.05496613
168	0xbdabe7a6	-0.08393793
169	0x3e186f3d	0.14886184
170	0x3e413cc3	0.18870835
171	0x3e0d7d92	0.13817433
172	0xbe22ec5d	-0.15910478
173	0x3dce4dd2	0.10073437
174	0xbc87d502	-0.016581062
175	0xbda6896c	-0.0813168
176	0x3e21f493	0.15815954
177	0x3c2325be	0.009957729
178	0xbdf439cd	-0.11925087
179	0xbdbddcaa	-0.09270604
180	0xbd30527c	-0.043047413
181	0x3d1af2dc	0.037829265
182	0xbdee175b	-0.116255485
183	0xbdf6ecf7	-0.12056916
184	0xbe0de79d	-0.13857885
185	0x3e35c807	0.17752086
186	0xbd2fc309	-0.04291061
187	0x3e1fda2f	0.15610574
188	0x3c1d53a2	0.009602459
189	0xbdb2d4a2	-0.08731963
190	0x3e48981e	0.19589278
191	0xbe38c4eb	-0.18043868
192	0x3dd62bed	0.10457597
193	0x3d639df8	0.055570573
194	0x3d69864d	0.057012845
195	0xbe030c73	-0.12797718
196	0xbe458615	-0.1928943
197	0xbda80151	-0.08203376
198	0x3d960171	0.07324494
199	0xbdcc5d0c	-0.09978685
200	0xbe3559c1	-0.1771002
201	0x3e038daa	0.1284701
202	0x3cf7771b	0.030208161
203	0xbe4ace25	-0.198052
204	0x3d49e0aa	0.049286522
205	0x3deebf46	0.11657576
206	0xbe26724c	-0.16254538
207	0xbdae5923	-0.08513095
208	0x3df38cf2	0.118921176
209	0xbc58b14a	-0.013225863
210	0x3c763ce8	0.01502917
211	0xbe38db07	-0.18052302
212	0x3e065f67	0.1312233
213	0xbe42e84b	-0.19033925
214	0xbd7dfacc	-0.062006757
215	0xbdf7761f	-0.12083077
216	0xbe18db9d	-0.14927526
217	0x3e31c5cb	0.17360608
218	0x3e2fb1ca	0.17157665
219	0xbde4270d	-0.11140261
220	0xbcb96860	-0.022632778
221	0x3cba2192	0.022721086
222	0x3e2b4c92	0.16728428
223	0xbe2dadc9	-0.16960825
224	0xbdb00da1	-0.085963495
225	0xbd3d357d	-0.04619359
226	0x3dbe0f6e	0.09280287
227	0x3d4107db	0.047126632
228	0x3dda7471	0.10666741
229	0x3d2ed1b6	0.042680465
230	0x3d0ae463	0.033909213
231	0xbe380826	-0.17971858
232	0x3ba39f4c	0.004993355
233	0xbe3e101c	-0.18560833
234	0xbd34d395	-0.044147093
235	0x3dd8d418	0.10587329
236	0xbe244c53	-0.1604474
237	0xbe50539a	-0.20344391
238	0xbdb77c2f	-0.08959233
239	0x3cf551e9	0.029946284
240	0x3d2bbec9	0.041929994
241	0x3cbad604	0.022807129
242	0x3dae8ecf	0.08523332
243	0xbdc5fa4b	-0.0966688
244	0x3e346056	0.17614874
245	0xbe3dfdfb	-0.18553917
246	0xbd73a9de	-0.05948817
247	0x3e27ea6f	0.16398023
248	0x3dded7c7	0.10881
249	0x3e02ee2e	0.12786171
250	0x3d4144ea	0.047184862
251	0xbd2fa478	-0.04288146
252	0xbe20d6d4	-0.1570695
253	0xbdb93347	-0.090429835
254	0x3df89dc5	0.12139467
255	0xbd60da4c	-0.054895684

convs.1.lin_dst.weight f4 [16, 128]
0	0xbd0ce54d	-0.034398366
1	0xbdde5a20	-0.10857034
2	0x3dde6d05	0.108606376
3	0x3de75829	0.11296112
4	0xbda9bf9c	-0.082885
5	0xbccd4b15	-0.025060216
6	0x3e2c0b19	0.16801108
7	0xbe20aa06	-0.15689859
8	0x3e1f0ddb	0.15532629
9	0x3e192af3	0.1495779
10	0x3e1e9eb3	0.15490226
11	0xbdaea4d7	-0.085275345
12	0xbca1da8d	-0.019757533
13	0xbe0e131a	-0.13874474
14	0x3e041654	0.12899143
15	0x3d1f6acc	0.03892021
16	0x3ca5c0ec	0.020233594
17	0xbd868c51	-0.06569732
18	0xbd2a3001	-0.041549686
19	0x3e2e8e0d	0.17046376
20	0x3c0395e5	0.008031343
21	0x3e2d4bd9	0.16923465
22	0xbcad46c8	-0.021151915
23	0xbd83a2f9	-0.06427569
24	0x3e45d55d	0.19319673
25	0x3d96ec05	0.07369236
26	0xbd9e23ca	-0.0772167
27	0x3e287d4d	0.16454048
28	0x3d863f25	0.065550126
29	0x3e2c3055	0.16815312
30	0x3dc0222a	0.09381516
31	0xbe3a3754	-0.18185169
32	0xbdd85732	-0.10563506
33	0xbe43a13b	-0.19104473
34	0x3d2b7f0c	0.04186921
35	0x3dc424ec	0.09577355
36	0xbdedf53b	-0.116190396
37	0x3e25ab04	0.16178519
38	0xbbb883c2	-0.005630941
39	0x3e4848c4	0.19559008
40	0xbb9f9dfb	-0.0048711277
41	0x3e2a8d50	0.16655469
42	0xbe4fb30f	-0.20283149
43	0x3e14ae32	0.14519575
44	0x3b8c369f	0.0042789723
45	0x3daa71fd	0.08322523
46	0xbc4b4820	-0.012407333
47	0xbe10baea	-0.14133802
48	0xbe034fd6	-0.12823424
49	0x3e1b67bf	0.15176295
50	0x3d97f0d0	0.07418978
51	0x3dd07bb1	0.10179842
52	0xbe01ddcf	-0.1268227
53	0x3e23d54a	0.15999332
54	0xbd4f2dcf	-0.050580796
55	0xbe068908	-0.13138211
56	0x3e164de3	0.14678149
57	0x3d97df59	0.07415647
58	0xbd9bf5f5	-0.07615272
59	0x3c58bc6a	0.013228515
60	0x3e32a97d	0.17447467
61	0x3e18296c	0.14859551
62	0xbe0c4fb4	-0.1370228
63	0x3dd0e655	0.10200182
64	0x3d958379	0.07300467
65	0x3e13d1b6	0.14435467
66	0x3df5151b	0.11966916
67	0xbe4669ca	-0.19376293
68	0x3dadeb34	0.08492127
69	0xbd15e6c1	-0.036597017
70	0x3d3669d0	0.044534504
71	0x3de75857	0.11296146
72	0xbd8532fe	-0.065038666
73	0x3e1ea2c1	0.15491773
74	0xbdbadc2a	-0.09124024
75	0x3d9c269a	0.0762455
76	0x3d90afe9	0.07064802
77	0x3e408702	0.18801501
78	0x3d992784	0.0747824
79	0xbdddedd0	-0.10836375
80	0xbd47c0ac	-0.04876773
81	0x3c31f297	0.010861061
82	0x3e283239	0.16425408
83	0xbcc6808e	-0.024231222
84	0xbc260948	-0.010134049
85	0xbe0c4fe8	-0.13702357
86	0xbe216e4b	-0.1576473
87	0x3ddb67cf	0.10713159
88	0x3d54dd99	0.051969144
89	0xbd6d4f88	-0.057937175
90	0xbe27c69d	-0.16384359
91	0xbde16b2c	-0.110067695
92	0x3e07a867	0.13247834
93	0x3dd88bb8	0.10573524
94	0xbde9511a	-0.11392422
95	0xbe2806fb	-0.16408913
96	0x3d18006b	0.037109774
97	0xbe1d2c66	-0.15348968
98	0xbcb76b72	-0.022390101
99	0x3d497e1f	0.049192544
100	0xbe43374f	-0.19064067
101	0x3daf4093	0.085572384
102	0x3e1760de	0.14783046
103	0xbe39b40b	-0.18135087
104	0xbd5bd35f	-0.053668376
105	0xbda96b37	-0.08272403
106	0x3d9b8974	0.075945765
107	0x3d5f26c6	0.054480337
108	0xbd491bfd	-0.049098957
109	0xbe342b8e	-0.1759474
110	0x3bca25c2	0.006169052
111	0x3cc1b5b8	0.02364622
112	0xbc67333a	-0.014111334
113	0xbc23b691	-0.009992258
114	0x3d91a50d	0.07111559
115	0xbdadb434	-0.08481637
116	0x3db22ea8	0.08700305
117	0x3d86832f	0.0656799
118	0xbe473ab6	-0.1945599
119	0x3d95b1bf	0.07309293
120	0xbe17909d	-0.1480126
121	0x3d7de0bf	0.061981913
122	0xbdb763a3	-0.08954551
123	0xbd5e24c2	-0.054234274
124	0xbe05c34b	-0.1306278
125	0x3d2be82c	0.041969463
126	0xbe01cce9	-0.12675823
127	0xbd7b571f	-0.061362382
128	0xbdec2c63	-0.115319036
129	0x3dcb9c8f	0.099419706
130	0x3ded9afb	0.11601826
131	0x3d2bf70c	0.04198365
132	0x3b1b5e00	0.0023707151
133	0x3d22cdca	0.039747037
134	0xbe455216	-0.19269595
135	0xbe397ebf	-0.18114756
136	0x3caab0b4	0.020836212
137	0x3e19f3f4	0.15034467
138	0x3e2eeea3	0.1708322
139	0xbdb7eabe	-0.089803204
140	0xbe1cc935	-0.1531113
141	0xbcc5c848	-0.024143353
142	0x3e4c5403	0.19953923
143	0xbc0b749a	-0.008511687
144	0x3d0cebc1	0.03440452
145	0xbdb4b0ff	-0.08822822
146	0xbe29fe39	-0.16600884
147	0xbd8d3445	-0.06894735
148	0x3d9e90d5	0.07742468
149	0x3d6c6842	0.057716615
150	0x3deb4569	0.11487848
151	0x3e0725b1	0.13197972
152	0x3de4001d	0.11132834
153	0x3da4fdca	0.08056219
154	0x3cbda89d	0.02315169
155	0x3d97ea2e	0.07417713
156	0x3e2174d3	0.15767221
157	0xbd9d4609	-0.07679374
158	0xbe303437	-0.17207418
159	0x3a2c8791	0.000658148
160	0x3adbbe2b	0.0016765048
161	0x3e44caba	0.19217959
162	0xbdbd9fbc	-0.092589825
163	0xbd063fa5	-0.03277554
164	0x3d1a4194	0.037660196
165	0x3d8bda7f	0.06828784
166	0x3e34f9b7	0.17673384
167	0x3d61242a	0.05496613
168	0xbdabe7a6	-0.08393793
169	0x3e186f3d	0.14886184
170	0x3e413cc3	0.18870835
171	0x3e0d7d92	0.13817433
172	0xbe22ec5d	-0.15910478
173	0x3dce4dd2	0.10073437
174	0xbc87d502	-0.016581062
175	0xbda6896c	-0.0813168
176	0x3e21f493	0.15815954
177	0x3c2325be	0.009957729
178	0xbdf439cd	-0.11925087
179	0xbdbddcaa	-0.09270604
180	0xbd30527c	-0.043047413
181	0x3d1af2dc	0.037829265
182	0xbdee175b	-0.116255485
183	0xbdf6ecf7	-0.12056916
184	0xbe0de79d	-0.13857885
185	0x3e35c807	0.17752086
186	0xbd2fc309	-0.04291061
187	0x3e1fda2f	0.15610574
188	0x3c1d53a2	0.009602459
189	0xbdb2d4a2	-0.08731963
190	0x3e48981e	0.19589278
191	0xbe38c4eb	-0.18043868
192	0x3dd62bed	0.10457597
193	0x3d639df8	0.055570573
194	0x3d69864d	0.057012845
195	0xbe030c73	-0.12797718
196	0xbe458615	-0.1928943
197	0xbda80151	-0.08203376
198	0x3d960171	0.07324494
199	0xbdcc5d0c	-0.09978685
200	0xbe3559c1	-0.1771002
201	0x3e038daa	0.1284701
202	0x3cf7771b	0.030208161
203	0xbe4ace25	-0.198052
204	0x3d49e0aa	0.049286522
205	0x3deebf46	0.11657576
206	0xbe26724c	-0.16254538
207	0xbdae5923	-0.08513095
208	0x3df38cf2	0.118921176
209	0xbc58b14a	-0.013225863
210	0x3c763ce8	0.01502917
211	0xbe38db07	-0.18052302
212	0x3e065f67	0.1312233
213	0xbe42e84b	-0.19033925
214	0xbd7dfacc	-0.062006757
215	0xbdf7761f	-0.12083077
216	0xbe18db9d	-0.14927526
217	0x3e31c5cb	0.17360608
218	0x3e2fb1ca	0.17157665
219	0xbde4270d	-0.11140261
220	0xbcb96860	-0.022632778
221	0x3cba2192	0.022721086
222	0x3e2b4c92	0.16728428
223	0xbe2dadc9	-0.16960825
224	0xbdb00da1	-0.085963495
225	0xbd3d357d	-0.04619359
226	0x3dbe0f6e	0.09280287
227	0x3d4107db	0.047126632
228	0x3dda7471	0.10666741
229	0x3d2ed1b6	0.042680465
230	0x3d0ae463	0.033909213
231	0xbe380826	-0.17971858
232	0x3ba39f4c	0.004993355
233	0xbe3e101c	-0.18560833
234	0xbd34d395	-0.044147093
235	0x3dd8d418	0.10587329
236	0xbe244c53	-0.1604474
237	0xbe50539a	-0.20344391
238	0xbdb77c2f	-0.08959233
239	0x3cf551e9	0.029946284
240	0x3d2bbec9	0.041929994
241	0x3cbad604	0.022807129
242	0x3dae8ecf	0.08523332
243	0xbdc5fa4b	-0.0966688
244	0x3e346056	0.17614874
245	0xbe3dfdfb	-0.18553917
246	0xbd73a9de	-0.05948817
247	0x3e27ea6f	0.16398023
248	0x3dded7c7	0.10881
249	0x3e02ee2e	0.12786171
250	0x3d4144ea	0.047184862
251	0xbd2fa478	-0.04288146
252	0xbe20d6d4	-0.1570695
253	0xbdb93347	-0.090429835
254	0x3df89dc5	0.12139467
255	0xbd60da4c	-0.054895684
