init_cora_amazon/init_params/amazon-photo_GCN_256_32/init_encoder.pt (torch, 808957 bytes, 4 tensors)

convs.0.bias f4 [256]
0.0 0.0 0.0 0.0 0.0 0.0 0.0 0.0
0.0 0.0 0.0 0.0 0.0 0.0 0.0 0.0
0.0 0.0 0.0 0.0 0.0 0.0 0.0 0.0
0.0 0.0 0.0 0.0 0.0 0.0 0.0 0.0
0.0 0.0 0.0 0.0 0.0 0.0 0.0 0.0
0.0 0.0 0.0 0.0 0.0 0.0 0.0 0.0
0.0 0.0 0.0 0.0 0.0 0.0 0.0 0.0
0.0 0.0 0.0 0.0 0.0 0.0 0.0 0.0
0.0 0.0 0.0 0.0 0.0 0.0 0.0 0.0
0.0 0.0 0.0 0.0 0.0 0.0 0.0 0.0
0.0 0.0 0.0 0.0 0.0 0.0 0.0 0.0
0.0 0.0 0.0 0.0 0.0 0.0 0.0 0.0
0.0 0.0 0.0 0.0 0.0 0.0 0.0 0.0
0.0 0.0 0.0 0.0 0.0 0.0 0.0 0.0
0.0 0.0 0.0 0.0 0.0 0.0 0.0 0.0
0.0 0.0 0.0 0.0 0.0 0.0 0.0 0.0
0.0 0.0 0.0 0.0 0.0 0.0 0.0 0.0
0.0 0.0 0.0 0.0 0.0 0.0 0.0 0.0
0.0 0.0 0.0 0.0 0.0 0.0 0.0 0.0
0.0 0.0 0.0 0.0 0.0 0.0 0.0 0.0
0.0 0.0 0.0 0.0 0.0 0.0 0.0 0.0
0.0 0.0 0.0 0.0 0.0 0.0 0.0 0.0
0.0 0.0 0.0 0.0 0.0 0.0 0.0 0.0
0.0 0.0 0.0 0.0 0.0 0.0 0.0 0.0
0.0 0.0 0.0 0.0 0.0 0.0 0.0 0.0
0.0 0.0 0.0 0.0 0.0 0.0 0.0 0.0
0.0 0.0 0.0 0.0 0.0 0.0 0.0 0.0
0.0 0.0 0.0 0.0 0.0 0.0 0.0 0.0
0.0 0.0 0.0 0.0 0.0 0.0 0.0 0.0
0.0 0.0 0.0 0.0 0.0 0.0 0.0 0.0
0.0 0.0 0.0 0.0 0.0 0.0 0.0 0.0
0.0 0.0 0.0 0.0 0.0 0.0 0.0 0.0
00000000: 0000 0000 0000 0000 0000 0000 0000 0000
00000010: 0000 0000 0000 0000 0000 0000 0000 0000
00000020: 0000 0000 0000 0000 0000 0000 0000 0000
00000030: 0000 0000 0000 0000 0000 0000 0000 0000
00000040: 0000 0000 0000 0000 0000 0000 0000 0000
00000050: 0000 0000 0000 0000 0000 0000 0000 0000
00000060: 0000 0000 0000 0000 0000 0000 0000 0000
00000070: 0000 0000 0000 0000 0000 0000 0000 0000
00000080: 0000 0000 0000 0000 0000 0000 0000 0000
00000090: 0000 0000 0000 0000 0000 0000 0000 0000
000000a0: 0000 0000 0000 0000 0000 0000 0000 0000
000000b0: 0000 0000 0000 0000 0000 0000 0000 0000
000000c0: 0000 0000 0000 0000 0000 0000 0000 0000
000000d0: 0000 0000 0000 0000 0000 0000 0000 0000
000000e0: 0000 0000 0000 0000 0000 0000 0000 0000
000000f0: 0000 0000 0000 0000 0000 0000 0000 0000
00000100: 0000 0000 0000 0000 0000 0000 0000 0000
00000110: 0000 0000 0000 0000 0000 0000 0000 0000
00000120: 0000 0000 0000 0000 0000 0000 0000 0000
00000130: 0000 0000 0000 0000 0000 0000 0000 0000
00000140: 0000 0000 0000 0000 0000 0000 0000 0000
00000150: 0000 0000 0000 0000 0000 0000 0000 0000
00000160: 0000 0000 0000 0000 0000 0000 0000 0000
00000170: 0000 0000 0000 0000 0000 0000 0000 0000
00000180: 0000 0000 0000 0000 0000 0000 0000 0000
00000190: 0000 0000 0000 0000 0000 0000 0000 0000
000001a0: 0000 0000 0000 0000 0000 0000 0000 0000
000001b0: 0000 0000 0000 0000 0000 0000 0000 0000
000001c0: 0000 0000 0000 0000 0000 0000 0000 0000
000001d0: 0000 0000 0000 0000 0000 0000 0000 0000
000001e0: 0000 0000 0000 0000 0000 0000 0000 0000
000001f0: 0000 0000 0000 0000 0000 0000 0000 0000
00000200: 0000 0000 0000 0000 0000 0000 0000 0000
00000210: 0000 0000 0000 0000 0000 0000 0000 0000
00000220: 0000 0000 0000 0000 0000 0000 0000 0000
00000230: 0000 0000 0000 0000 0000 0000 0000 0000
00000240: 0000 0000 0000 0000 0000 0000 0000 0000
00000250: 0000 0000 0000 0000 0000 0000 0000 0000
00000260: 0000 0000 0000 0000 0000 0000 0000 0000
00000270: 0000 0000 0000 0000 0000 0000 0000 0000
00000280: 0000 0000 0000 0000 0000 0000 0000 0000
00000290: 0000 0000 0000 0000 0000 0000 0000 0000
000002a0: 0000 0000 0000 0000 0000 0000 0000 0000
000002b0: 0000 0000 0000 0000 0000 0000 0000 0000
000002c0: 0000 0000 0000 0000 0000 0000 0000 0000
000002d0: 0000 0000 0000 0000 0000 0000 0000 0000
000002e0: 0000 0000 0000 0000 0000 0000 0000 0000
000002f0: 0000 0000 0000 0000 0000 0000 0000 0000
00000300: 0000 0000 0000 0000 0000 0000 0000 0000
00000310: 0000 0000 0000 0000 0000 0000 0000 0000
00000320: 0000 0000 0000 0000 0000 0000 0000 0000
00000330: 0000 0000 0000 0000 0000 0000 0000 0000
00000340: 0000 0000 0000 0000 0000 0000 0000 0000
00000350: 0000 0000 0000 0000 0000 0000 0000 0000
00000360: 0000 0000 0000 0000 0000 0000 0000 0000
00000370: 0000 0000 0000 0000 0000 0000 0000 0000
00000380: 0000 0000 0000 0000 0000 0000 0000 0000
00000390: 0000 0000 0000 0000 0000 0000 0000 0000
000003a0: 0000 0000 0000 0000 0000 0000 0000 0000
000003b0: 0000 0000 0000 0000 0000 0000 0000 0000
000003c0: 0000 0000 0000 0000 0000 0000 0000 0000
000003d0: 0000 0000 0000 0000 0000 0000 0000 0000
000003e0: 0000 0000 0000 0000 0000 0000 0000 0000
000003f0: 0000 0000 0000 0000 0000 0000 0000 0000

convs.0.lin.weight f4 [256, 755]
-0.058374926 0.04840451 -0.07280357 0.03701212 0.04844624 0.01338231 0.011298785 -0.03633478
-0.013789324 -0.0074653826 -0.054964848 -0.03331063 0.06587546 -0.012609947 0.062958784 0.0119878445
-0.015920015 -0.037872985 0.07656215 -0.007882738 -0.073231205 0.02242785 0.037465546 0.045951027
0.076022945 -0.07675439 0.056601334 -0.0029963504 0.027438747 -0.0374006 -0.00019875017 -0.013872335
-0.01969356 0.06623433 0.030239956 -0.05254572 -0.07143383 0.034365103 0.039242186 0.031189222
-0.0652701 -0.048159376 0.018129144 0.024373107 -0.014271166 0.050228447 0.016870834 -0.0619316
-0.049250647 0.0047583045 -0.01906582 0.021242611 -0.05718797 0.054332476 -0.04565854 -0.053837944
-0.028347412 0.054834176 0.03844216 0.013447981 0.007240367 -0.026460066 0.06273222 -0.019996379
-0.070597865 -0.06377528 0.042938422 0.068316974 0.062474698 -0.03221394 0.054129485 -0.063381165
0.017263109 -0.04586619 0.07326399 0.06422672 -0.050260294 0.07398799 0.050871808 -0.0045401216
0.027792083 -0.026115343 0.026633974 0.011940687 -0.048742816 -0.02050914 -0.021822792 0.03883674
-0.024573555 -0.022885548 -0.012576381 -0.025025422 0.034399908 0.054347724 -0.03544392 0.01915838
-0.04850611 0.021675698 0.06787897 -0.06386018 0.036574274 -0.032385617 -0.062821195 -0.0715116
-0.04244332 0.020683216 0.0030643544 0.016586162 -0.06858575 0.020534948 -0.05581357 -0.0019139416
-0.07587963 0.004430535 -0.05829085 -0.039611537 -0.00074035866 -0.035125114 -0.053854823 -0.03498511
0.04922597 -0.016811058 -0.016496181 0.04761017 -0.051626217 -0.026090786 -0.014118802 0.037711583
-0.015266782 -0.06081389 -0.05810686 -0.019061778 0.04489199 0.026967108 0.073020846 -0.022517812
-0.05218757 -0.010504859 -0.04660407 -0.024359139 0.014036665 -0.0089943595 -0.05093205 0.04114677
0.056799266 0.011473658 -0.051279906 -0.036675837 -0.07659822 0.06020443 -0.013637309 0.006095685
-0.029836798 0.010036829 -0.0024489746 0.0035924907 0.005511226 -0.07186458 -0.037843753 -0.046478603
0.043098446 0.048285842 0.032575708 0.0033862193 -0.013008145 0.048863497 -0.024274485 -0.05551324
0.01184696 -0.063193895 0.054407325 0.032956235 -0.056072757 0.04662341 0.017111534 -0.00049513055
0.039532863 -0.05617307 0.0022293963 0.057995167 0.057158444 -0.051628217 -0.0493604 0.05754891
0.022457622 -0.062042546 -0.074967645 -0.049762793 -0.029764267 0.07523553 -0.03987303 0.046769228
0.026526757 0.038879342 -0.032704663 0.020117464 -0.009685273 -0.048649088 0.01158938 -0.06869302
-0.005773251 0.0002474964 -0.052305155 -0.027856432 -0.038197264 -0.008605179 -0.048788667 -0.0009776613
0.01492194 -0.01032971 0.044771448 -0.016790919 0.06911249 0.017896323 0.07026563 -0.048062433
0.06485956 -0.02292354 -0.025103603 0.0015261483 -0.0038351198 -0.038975284 0.023200287 0.024117198
0.039715018 -0.051416006 0.0086373305 -0.0323487 -0.019208457 -0.06753103 -0.045163225 -0.011649321
0.03899749 0.05450534 -0.063721254 0.060562562 0.019056609 -0.021523785 0.051623635 0.03288207
-0.057684507 -0.017537044 -0.042741463 0.03261833 0.072203636 -0.04802683 -0.061376162 -0.038307678
0.070821255 0.058958136 -0.044618476 -0.043378487 0.03358148 0.017859414 -0.0028385497 -0.028772932
00000000: 8c1a 6fbd cf43 463d 0a1a 95bd 059a 173d
00000010: 916f 463d 7a41 5b3c 8a1e 393c c7d3 14bd
00000020: 9eec 61bc 2ba0 f4bb d222 61bd ba70 08bd
00000030: b7e9 863d f399 4ebc 89f0 803d aa68 443c
00000040: b16a 82bc b420 1bbd 9ecc 9c3d 9926 01bc
00000050: 3efa 95bd 9cba b73c 7975 193d 2537 3c3d
00000060: ebb1 9b3d 6831 9dbd cdd6 673d 6b5e 44bb
00000070: 39c7 e03c 5f31 19bd 9867 50b9 ca48 63bc
00000080: 6454 a1bc dda5 873d c9b9 f73c 2e3a 57bd
00000090: e64b 92bd 6cc2 0c3d 6abc 203d 8a80 ff3c
000000a0: 55ac 85bd c442 45bd 9283 943c 1caa c73c
000000b0: 9cd1 69bc 58bc 4d3d b434 8a3c fdab 7dbd
000000c0: 0cbb 49bd 8deb 9b3b ec2f 9cbc fc04 ae3c
000000d0: ef3d 6abd bb8b 5e3d 7304 3bbd 2d85 5cbd
000000e0: d538 e8bc cd99 603d 8775 1d3d ec54 5c3c
000000f0: 9a40 ed3b c8c2 d8bc c079 803d 72cf a3bc
00000100: 9d95 90bd 9d9c 82bd 33e0 2f3d c5e9 8b3d
00000110: 78e5 7f3d c4f2 03bd e1b6 5d3d fccd 81bd
00000120: 5d6b 8d3c 30de 3bbd 6e0b 963d 4c89 833d
00000130: bddd 4dbd 0487 973d f55e 503d 4dc5 94bb
00000140: 39ac e33c d8ef d5bc 7e2f da3c dfa2 433c
00000150: 8ca6 47bd c902 a8bc b6c5 b2bc 4613 1f3d
00000160: 7b4e c9bc 797a bbbc 2a0d 4ebc 1d02 cdbc
00000170: ebe6 0c3d b89b 5e3d a52d 11bd 09f2 9c3c
00000180: 58ae 46bd 3c91 b13c 2104 8b3d 20c9 82bd
00000190: e8ce 153d c8a6 04bd 66a8 80bd ac74 92bd
000001a0: 0cd9 2dbd d96f a93c 56d3 483b b4df 873c
000001b0: b076 8cbd e838 a83c c59c 64bd 39dd faba
000001c0: c866 9bbd 052e 913b 63c2 6ebd b53f 22bd
000001d0: a114 42ba 5adf 0fbd e096 5cbd 8c4c 0fbd
000001e0: 2ca1 493d 58b7 89bc 0023 87bc e202 433d
000001f0: 0376 53bd 58bc d5bc 8c52 67bc 7677 1a3d
00000200: 8621 7abc fc17 79bd 7501 6ebd 7227 9cbc
00000210: aae0 373d 20ea dc3c f48b 953d 4677 b8bc
00000220: a2c2 55bd 921c 2cbc e9e3 3ebd d18c c7bc
00000230: 0afa 653c 145d 13bc 209e 50bd 8489 283d
00000240: 59a6 683d 02fc 3b3c e10a 52bd 6739 16bd
00000250: 87df 9cbd ec98 763d 056f 5fbc 50be c73b
00000260: 4d6c f4bc 8371 243c fa7e 20bb fe6f 6b3b
00000270: 8497 b43b bd2d 93bd 0d02 1bbd 5960 3ebd
00000280: ff87 303d 60c7 453d 1b6e 053d 55eb 5d3b
00000290: 1d20 55bc 1725 483d 49db c6bc da61 63bd
000002a0: c019 423c cd6b 81bd 37da 5e3d 1efd 063d
000002b0: 8cac 65bd 30f8 3e3d 7d2d 8c3c a6cb 01ba
000002c0: 36ed 213d bc15 66bd 101b 123b 578c 6d3d
000002d0: f91e 6a3d 1c78 53bd 212e 4abd 68b8 6b3d
000002e0: 0cf9 b73c 5320 7ebd a388 99bd 12d4 4bbd
000002f0: 31d4 f3bc 1615 9a3d e751 23bd 1791 3f3d
00000300: a44e d93c f23f 1f3d 53f5 05bd 61cd a43c
00000310: fbae 1ebc 4444 47bd 62e1 3d3c edae 8cbd
00000320: 8a2d bdbb 68c2 8139 ee3d 56bd 2c33 e4bc
00000330: bc74 1cbd bdfc 0cbc a0d6 47bd df24 80ba
00000340: 277b 743c f23d 29bc 4462 373d 1c8d 89bc
00000350: d98a 8d3d 4f9b 923c 6de7 8f3d 1ddd 44bd
00000360: 17d5 843d 26ca bbbc 12a6 cdbc 0a09 c83a
00000370: a256 7bbb 8ca4 1fbd 870e be3c 6e91 c53c
00000380: 37ac 223d 9799 52bd 9783 0d3c 1280 04bd
00000390: 0e5b 9dbc b54d 8abd 13fd 38bd cbdc 3ebc
000003a0: d5bb 1f3d fe40 5f3d 4a80 82bd 7310 783d
000003b0: 9b1c 9c3c a652 b0bc 4e73 533d 59af 063d
000003c0: 9746 6cbd d9a9 8fbc ac11 2fbd cc9a 053d
000003d0: 80df 933d c8b7 44bd 9265 7bbd 83e8 1cbd
000003e0: bc0a 913d 167e 713d ddc1 36bd a4ad 31bd
000003f0: bc8c 093d e84d 923c f606 3abb 36b5 ebbc

convs.1.bias f4 [32]
0.0 0.0 0.0 0.0 0.0 0.0 0.0 0.0
0.0 0.0 0.0 0.0 0.0 0.0 0.0 0.0
0.0 0.0 0.0 0.0 0.0 0.0 0.0 0.0
0.0 0.0 0.0 0.0 0.0 0.0 0.0 0.0
00000000: 0000 0000 0000 0000 0000 0000 0000 0000
00000010: 0000 0000 0000 0000 0000 0000 0000 0000
00000020: 0000 0000 0000 0000 0000 0000 0000 0000
00000030: 0000 0000 0000 0000 0000 0000 0000 0000
00000040: 0000 0000 0000 0000 0000 0000 0000 0000
00000050: 0000 0000 0000 0000 0000 0000 0000 0000
00000060: 0000 0000 0000 0000 0000 0000 0000 0000
00000070: 0000 0000 0000 0000 0000 0000 0000 0000

convs.1.lin.weight f4 [32, 256]
0.011142971 -0.068664275 0.0894098 0.019397078 -0.009109212 0.038197987 -0.00081229594 -0.05730488
-0.1029917 0.0018934415 -0.035201326 -0.0089925695 0.105591536 0.13838442 0.057596114 0.055823136
0.0910826 -0.09403759 -0.112566814 -0.11499331 0.007107198 0.07176118 0.018547771 0.019571912
0.11702853 0.13463302 -0.11029087 -0.13381203 -0.06473704 -0.14312741 -0.025119541 -0.024130363
0.034193136 0.07211421 0.12012237 0.07380826 -0.030263767 -0.07716042 -0.13131464 0.07731984
-0.0032607808 0.022887494 0.1388051 4.6009856e-05 -0.009084968 -0.07495971 -0.08754203 -0.10220306
0.0022746315 -0.06096736 -0.11410259 -0.020328974 0.0850291 -0.13112664 0.08494135 -0.058516793
0.04498869 -0.030239884 -0.0867477 0.020735217 -0.14306569 0.0019690637 -0.121494465 -0.06888508
0.012792478 0.04249671 -0.051872637 0.10602323 0.01604629 -0.059433136 0.05029901 0.017951345
0.13729951 0.03148306 -0.027284756 0.05216344 -0.08337034 0.10795487 -0.081773795 0.021102058
-0.119158715 0.119028755 0.1182354 0.06295294 0.041485954 0.1156938 0.068595536 0.0823577
0.069693334 -0.078667544 -0.12552765 0.09720621 -0.057838157 0.015830263 0.112714544 0.062764086
0.094096266 -0.04759133 -0.06257666 0.08635441 -0.08986276 -0.14201306 0.104865015 -0.08558138
-0.016279075 0.07478338 -0.13821703 -0.09683788 -0.04946581 0.022985829 0.07133802 0.08055987
-0.015606856 -0.091621004 -0.10443608 -0.13832843 0.006967998 0.04739483 -0.009452359 0.10433069
-0.11602108 0.13375954 0.031412825 -0.109823085 -0.093124345 -0.05262103 0.055650383 -0.13516684
0.035323665 0.121328264 0.14267483 0.018857192 0.10619231 -0.078116186 -0.009124559 -0.09328357
0.102440394 -0.019049818 -0.03700932 -0.10275818 -0.018585194 -0.13203369 0.052710004 0.13693193
-0.022219473 0.13126874 -0.07455842 -0.032598156 -0.058614027 -0.0090163145 0.0381793 0.110475875
0.058174353 -0.14372525 -0.13120957 -0.039086834 0.106754206 -0.08121915 0.0626668 -0.038468644
0.07564765 -0.04189648 0.025948336 -0.13648318 0.104578376 0.00849035 0.010264328 -0.08134851
0.038030002 -0.096414685 -0.0032985315 0.14229251 0.14179589 -0.070001625 -0.10861676 0.0032934728
-0.08379513 -0.059720278 0.057747927 -0.042879965 -0.08910791 0.10075978 -0.08674376 0.015751183
0.11760885 0.06001499 0.04439507 0.06398748 0.1178577 -0.09638894 -0.12849173 -0.06441621
0.12955868 -0.13474949 -0.10853044 -0.019699704 -0.043149725 0.12000563 -0.016740413 -0.11045177
0.10179331 -0.078330785 -0.025654074 0.092389375 -0.10461927 0.093118116 -0.03672022 0.13002495
0.062957175 -0.030000405 -0.06512215 0.13945995 -0.09878342 -0.043003835 -0.12620915 -0.12544043
-0.09483356 0.035163987 -0.033064224 0.017715342 0.040759105 -0.072983295 -0.1299902 -0.013776321
-0.062171705 -0.06926354 0.05166277 -0.03641434 -0.03958885 0.03224207 0.11915885 0.085315056
-0.017270679 -0.11126878 -0.010252197 0.020705743 -0.11366549 0.10103028 -0.1300336 -0.0178096
-0.12895313 0.11798476 0.11926044 0.115070924 0.029418744 -0.06663748 0.022075955 -0.045256786
-0.059041794 -0.12902483 -0.062268835 -0.0065063513 0.075580224 0.10189996 0.03461712 0.030620644
00000000: 0291 363c db9f 8cbd 7c1c b73d 9fe6 9e3c
00000010: ce3e 15bc 7e75 1c3d 42f0 54ba 86b8 6abd
00000020: 50ed d2bd 5b2d f83a 442f 10bd 9255 13bc
00000030: 6040 d83d a5b4 0d3e e7e9 6b3d cda6 643d
00000040: 8489 ba3d c896 c0bd 6e89 e6bd 9d81 ebbd
00000050: 7fe3 e83b 87f7 923d 7ff1 973c 4655 a03c
00000060: a7ac ef3d 3ddd 093e 2ee0 e1bd 0506 09be
00000070: da94 84bd fe8f 12be 7fc7 cdbc 0aad c5bc
00000080: 1a0e 0c3d 9db0 933d b802 f63d c928 973d
00000090: b8eb f7bc 4806 9ebd 5877 06be dd59 9e3d
000000a0: d3b2 55bb 8e7e bb3c ed22 0e3e b5fa 4038
000000b0: 1ed9 14bc 7a84 99bd 3c49 b3bd d74f d1bd
000000c0: fc11 153b e9b8 79bd 9eae e9bd f388 a6bc
000000d0: bd23 ae3d 1046 06be bbf5 ad3d 4eaf 6fbd
000000e0: 1046 383d a2b9 f7bc c7a8 b1bd e7dc a93c
000000f0: d07f 12be 680b 013b 17d2 f8bd 9f13 8dbd
00000100: 8b97 513c 0811 2e3d 6778 54bd b522 d93d
00000110: 8273 833c 2970 73bd 5606 4e3d b30e 933c
00000120: 3e98 0c3e 62f4 003d 4884 dfbc 55a9 553d
00000130: 12be aabd 7117 dd3d 0579 a7bd 39de ac3c
00000140: 7c09 f4bd 59c5 f33d 6725 f23d 79ed 803d
00000150: 2ded 293d dff0 ec3d d17b 8c3d 27ab a83d
00000160: 61bb 8e3d 731c a1bd 528a 00be 0d14 c73d
00000170: b4e7 6cbd 78ae 813c e2d6 e63d 758a 803d
00000180: 8bb5 c03d 20ef 42bd 3128 80bd 95da b03d
00000190: f709 b8bd df6b 11be 78c3 d63d 4a45 afbd
000001a0: b25b 85bc 0728 993d c488 0dbe f052 c6bd
000001b0: a99c 4abd c74c bc3c ab19 923d 93fc a43d
000001c0: e6b3 7fbc cba3 bbbd 95e2 d5bd f8a5 0dbe
000001d0: ce53 e43b 1521 423d 11de 1abc 54ab d53d
000001e0: 769c edbd 43f8 083e bcaa 003d edea e0bd
000001f0: fab7 bebd 2689 57bd a8f1 633d 2d69 0abe
00000200: 8caf 103d f47a f83d 5a19 123e 667a 9a3c
00000210: 5b7b d93d 61fb 9fbd 2d7f 15bc 750b bfbd
00000220: 45cc d13d 5d0e 9cbc 1697 17bd e172 d2bd
00000230: fa3f 98bc d733 07be 72e6 573d e237 0c3e
00000240: 9d05 b6bc 506b 063e 16b2 98bd a585 05bd
00000250: 4315 70bd 2ab9 13bc e661 1c3d 2d41 e23d
00000260: 3b48 6e3d b62c 13be cd5b 06be 8419 20bd
00000270: f3a1 da3d 3a56 a6bd 7457 803d 4c91 1dbd
00000280: 28ed 9a3d a59b 2bbd 9b91 d43c 3fc2 0bbe
00000290: 302d d63d 1c1b 0b3c b62b 283c 0c9a a6bd
000002a0: 59c5 1b3d 1075 c5bd 2d2c 58bb 21b5 113e
000002b0: f132 113e 035d 8fbd 7772 debd 4ed7 573b
000002c0: c89c abbd 409d 74bd 1789 6c3d e7a2 2fbd
000002d0: 357e b6bd 255b ce3d b6a6 b1bd a008 813c
000002e0: e9dc f03d 47d2 753d 9bd7 353d de0b 833d
000002f0: 615f f13d 9167 c5bd 5693 03be a5ec 83bd
00000300: 08ab 043e c5fb 09be 3545 debd 4661 a1bc
00000310: c4bd 30bd 83c5 f53d 3123 89bc 8a34 e2bd
00000320: 0379 d03d e46b a0bd 7e28 d2bc a436 bd3d
00000330: a142 d6bd b6b4 be3d f167 16bd 4325 053e
00000340: b1ef 803d 69c3 f5bc c35e 85bd 97ce 0e3e
00000350: f64e cabd ca24 30bd f93c 01be 7573 00be
00000360: 1938 c2bd 1d08 103d 5a6e 07bd c41f 913c
00000370: 05f3 263d 4478 95bd 271c 05be 14b6 61bc
00000380: c2a7 7ebd 0bda 8dbd 579c 533d 3427 15bd
00000390: eb27 22bd 4310 043d 8e09 f43d a9b9 ae3d
000003a0: 3d7b 8dbc e3e0 e3bd d5f8 27bc 179f a93c
000003b0: 74c9 e8bd f7e8 ce3d 8727 05be 70e5 91bc
000003c0: 4a0c 04be fea1 f13d d13e f43d 4eaa eb3d
000003d0: 94ff f03c 3b79 88bd a2d8 b43c 2e5f 39bd
000003e0: cfd5 71bd 161f 04be 9b0d 7fbd 3b33 d5bb
000003f0: cec9 9a3d edb0 d03d aeca 0d3d 25d8 fa3c
