init_domain_ACD/init_params/acm_GCN_2_256_32/init_cls_model.pt (torch, 1923 bytes, 2 tensors)

0.weight f4 [6, 32]
00000000: 7b4f a4bd 952c 593c d84d c1be 1311 b33e
00000010: 9a6a b53e 4b7a 713e 6052 8abd b64f 823e
00000020: a480 5cbe dfa8 a63e 234c 9bbe 28d7 acbe
00000030: 26c0 93bd 2333 bb3e 7591 6cbe 3a0f 79be
00000040: e812 9f3e 0da5 47bd 37c7 e8bd 16af 133d
00000050: 3d3e 863e 0c0d 6cbe da70 5a3e 8e23 67bd
00000060: 60a3 6abe 8fa8 023e c529 88be 1429 74bd
00000070: 4277 c83e 4ed9 1f3e 29bd 4dbe 710b 253e
00000080: 2af7 4a3e a415 af3e 4d55 b7be 9ded acbe
00000090: 72df 343e 5a36 b63e e347 dcbd 42a6 62be
000000a0: 2f8b 623e 945c e23d 1ce7 6dbe 6e6b 263e
000000b0: 1686 bb3e 5942 b3be 93a7 05be 0463 b2be
000000c0: 203b 253e 14f2 503d 0151 c7be 917f 903e
000000d0: 1b34 733c de07 af3a 25e6 9cbe c40a 37be
000000e0: 708d dc3c 57c3 913e 14f9 8c3e 765c 80be
000000f0: 4960 dd3d 0c6c 123e 3dbe 40bd 89ca 573a
00000100: f103 7c3e 6b9d 9c3d bd60 273d e739 87bd
00000110: 85f5 25be 28bb 143e 36f2 b0bc d29d 7abd
00000120: cdb5 243e fe4a 273e 488d 993d 6503 85be
00000130: 120b cb3d 4937 c13d e7af 313e f1c4 993e
00000140: 098f b53e 35b4 3fbc 2c17 c9be 6c84 ae3e
00000150: dc2c 3c3e 30d5 1dbe f8f9 bf3e 9e58 493e
00000160: 79c8 44be b364 d6bd 62a3 c93d 5af5 a3be
00000170: c514 813e 3453 023e 7e02 edbd 60b4 5f3d
00000180: fca4 a03e 27bf 51be cc77 e23d fe9a 6a3e
00000190: 17f1 033e fc52 9b3e 711c 4a3e a4e1 c0bd
000001a0: 90bf bebe a1a9 3d3d 0963 493e 194f 203e
000001b0: 39d3 753e 9e8c 933d 963c a9be 221e 603e
000001c0: d239 89be 9410 b8bd 6224 76bd 60af c3bd
000001d0: 89a9 07bd ce3d f4bd 7507 afbe 62de 6b3d
000001e0: ccbb a8be 63d0 e13d 7a1b 9fbe c8ad e93d
000001f0: 3899 063e de04 893e 09dd 8fbd a5bd b53e
00000200: ba78 a73b 0d48 8a3e a958 46bd df29 a9be
00000210: b112 e5bd 0f0c acbd b64b a1be 05d4 903d
00000220: 1136 8c3e c43f d03b 5661 323e e491 9b3e
00000230: c86a aa3e 0c6a 4dbe 51bc 993e a900 9d3d
00000240: e5f5 40be 2e99 483e 28ea ca3e 4637 b5be
00000250: a482 a83e 71c5 c03e 1dab 733d 1daf b73e
00000260: 7954 c7be e999 90be 3a67 b9bd 2624 9cbe
00000270: 5c0e 3f3d a9de 59be c6d0 2d3e 17ff a13d
00000280: ffae a23e ed4c 8cbe 9fa8 b23d 6564 08bd
00000290: f575 4d3e c27b 9f3e a69c 2fbe 3b30 423d
000002a0: 2906 dc3d 77f2 0dbe b390 b83e ec9c af3e
000002b0: bc06 c1be ba1f a0bd 6ad5 55bd 050c 7ebe
000002c0: 51ed 9bbc b411 893e 7680 923e 9701 b83e
000002d0: 64d0 c3bd 9d43 a8be 1d55 d73c 9ae3 b73e
000002e0: 0e6d 89be f73b c5bd 10e1 35be 6daf ce3d
000002f0: 241f 223e 70bb aa3e 043a 063e 4ca3 a33e
-0.08022972 0.013255258 -0.37754703 0.34973964 0.35432893 0.23581807 -0.06753993 0.2545144
-0.21533448 0.32550713 -0.30331525 -0.337579 -0.07214384 0.36562452 -0.23102362 -0.24322215
0.31069112 -0.04874139 -0.11366122 0.036055647 0.2621936 -0.23051852 0.21332112 -0.056430392
-0.22913885 0.12759613 -0.26594368 -0.059609488 0.39153486 0.15610239 -0.2009169 0.16117646
0.19820848 0.34196198 -0.35807267 -0.33775035 0.17663363 0.35588342 -0.10755899 -0.22133735
0.22123407 0.11052814 -0.23232692 0.16251919 0.36625737 -0.35011557 -0.13052206 -0.34841168
0.16135836 0.051012114 -0.3892899 0.28222325 0.014843966 0.0013353785 -0.30644336 -0.178752
0.026922911 0.28469345 0.27533782 -0.25070542 0.108093806 0.14299029 -0.047056425 0.0008231779
0.24610879 0.076472126 0.04086374 -0.06602841 -0.1620694 0.1452452 -0.02159987 -0.061185665
0.16084976 0.16337201 0.074976504 -0.25979152 0.09914221 0.09434373 0.17352258 0.30033067
0.3546069 -0.01170068 -0.3927549 0.34085405 0.18376487 -0.15413356 0.374954 0.19662711
-0.19217099 -0.104684256 0.09845616 -0.32023126 0.25211158 0.12727052 -0.11572741 0.05461538
0.31375873 -0.20483075 0.11058006 0.22910687 0.12884937 0.3033675 0.19737412 -0.094180375
-0.37255526 0.04630435 0.19666685 0.15655173 0.24006356 0.07204555 -0.33054036 0.21886495
-0.26801926 -0.08987537 -0.06009329 -0.095549345 -0.033120666 -0.11925851 -0.34185377 0.057585128
-0.32955778 0.11026075 -0.3107565 0.11410099 0.13144386 0.26761526 -0.07024581 0.3549625
0.0051108273 0.27008095 -0.048424397 -0.33039758 -0.11185206 -0.084007375 -0.31503075 0.070716895
0.27385 0.0063552577 0.17419943 0.30384743 0.33284593 -0.20059985 0.30026487 0.076661415
-0.18843801 0.19589683 0.39631772 -0.35393733 0.3291217 0.37650636 0.05948936 0.35875788
-0.38931635 -0.28242424 -0.09052892 -0.3049633 0.046644554 -0.21276344 0.16974172 0.07909983
0.31774136 -0.2740244 0.08723568 -0.03329887 0.20064528 0.31149107 -0.171496 0.047409277
0.107433625 -0.13862024 0.36047897 0.3429941 -0.3770045 -0.07818551 -0.05220548 -0.24809273
-0.01903406 0.2677132 0.28613633 0.35938713 -0.09561232 -0.32864085 0.026285702 0.35915834
-0.26841015 -0.09630578 -0.17761636 0.100920536 0.15832192 0.33346128 0.13108069 0.31960523

0.bias f4 [6]
00000000: 0000 0000 0000 0000 0000 0000 0000 0000
00000010: 0000 0000 0000 0000
0.0 0.0 0.0 0.0 0.0 0.0
